03_AML2425_Unlearning/Practice/checkpoint/another_forget_model.pth (torch, 245636 bytes, 22 tensors)

0.weight f4 [32, 3, 3, 3]
0	0x3e0d910f	0.13824867
1	0x3de11480	0.10990238
2	0xbe0f9318	-0.14020956
3	0xbe1a2552	-0.15053299
4	0xbdf0d566	-0.117594525
5	0x3da4c722	0.08045794
6	0xbc114369	-0.0088661695
7	0x3e3a25a4	0.18178421
8	0xbda1dc73	-0.079033755
9	0x3e3d9661	0.18514396
10	0xbd30198e	-0.04299312
11	0x3aee5dab	0.0018185874
12	0xbe815149	-0.25257328
13	0xbe33bf1d	-0.17553373
14	0xbc06c5ad	-0.0082258405
15	0xbd266fd1	-0.04063398
16	0x3e044283	0.12915997
17	0x3e01f4ac	0.12690991
18	0xbdf7419b	-0.1207306
19	0xbe3ad487	-0.18245135
20	0xbc3500db	-0.011047567
21	0x3d76c358	0.060244888
22	0xbdedbd08	-0.116083205
23	0x3e2b90fd	0.16754527
24	0xbd1a9976	-0.037744008
25	0x3dd60ea6	0.10452013
26	0x3e4f56e8	0.20247996
27	0x3b843ccf	0.0040355693
28	0xbbcb36a5	-0.0062015825
29	0x3e23a65f	0.15981434
30	0xbda0ec42	-0.078575626
31	0x3da5a311	0.08087743
32	0x3d1b97a2	0.037986405
33	0xbd82f86e	-0.063950405
34	0xbe85c311	-0.26125386
35	0xbe1f0bf2	-0.155319
36	0xbd2caa88	-0.04215482
37	0x3da96884	0.08271888
38	0xbcde8731	-0.027164074
39	0x3e012e6d	0.12615366
40	0xbe1cb50d	-0.1530344
41	0xbe756598	-0.23964536
42	0x3db2b474	0.08725825
43	0xbeb035b2	-0.34415966
44	0xbeb08cb6	-0.34482354
45	0xbdc7150a	-0.0972081
46	0xbb6a9525	-0.0035794463
47	0xbd89327d	-0.06699083
48	0xbab47f3b	-0.0013770828
49	0xbcb54dba	-0.02213179
50	0x3db692dc	0.0891473
51	0x3ea9ff77	0.33202717
52	0x3dd6346b	0.10459217
53	0x3cbc43f8	0.022981629
54	0x3d2b0fc2	0.041763075
55	0xbe679b53	-0.22617845
56	0xbd8c6100	-0.06854439
57	0xbe32419e	-0.17407843
58	0xbe02847d	-0.12745853
59	0xbd1bf2e9	-0.038073454
60	0x3e39e033	0.18151931
61	0x3e8e932a	0.27846652
62	0x3e1bf888	0.15231526
63	0x3b87fdfa	0.0041501494
64	0x3db83b8b	0.08995732
65	0xbd8274a2	-0.06369902
66	0xbd8ae133	-0.067812346
67	0x3d09c782	0.03363753
68	0x3e0c953a	0.137288
69	0x3d9d33d7	0.07675903
70	0xbe1ffeb5	-0.15624507
71	0xbce4f281	-0.027947666
72	0x3dcd9d86	0.10039811
73	0x3e73dea1	0.23815395
74	0x3e6a95cf	0.2290871
75	0x3d8e3e53	0.06945481
76	0x3cfba25a	0.030717064
77	0xbdec498b	-0.11537465
78	0xbe2303f7	-0.15919481
79	0xbe507f53	-0.2036107
80	0xbe3c08a9	-0.18362679
81	0x3e022f33	0.12713318
82	0x3e620de8	0.22075617
83	0xbe1853a2	-0.14875653
84	0x3cbeec07	0.023305906
85	0xbd511e13	-0.05105407
86	0xbdcbaa7d	-0.099446274
87	0xbdc78161	-0.09741474
88	0x3d9531e4	0.072849065
89	0xbbb9a900	-0.0056658983
90	0x3e03a0f6	0.1285437
91	0x3e65e3f4	0.22450238
92	0x3e1c48f3	0.15262203
93	0x3da36431	0.07978094
94	0xbe67de6d	-0.22643442
95	0xbe8dce88	-0.27696633
96	0x3d4079fa	0.046991326
97	0x3bf78d3e	0.007554679
98	0xbdb3b121	-0.08774019
99	0xbcc77c77	-0.024351342
100	0x3e925c16	0.2858588
101	0x3e33dc2d	0.17564459
102	0xbd9e2263	-0.077214025
103	0xbdb32321	-0.08746935
104	0xbe951f38	-0.2912538
105	0x3c11eb89	0.008906254
106	0xbdbaad62	-0.091151014
107	0x3d032e71	0.03202671
108	0xbcad18ff	-0.021130083
109	0xbbce6a06	-0.00629926
110	0xbd3557d0	-0.044273198
111	0x3dea8a7a	0.114521936
112	0xbe83325a	-0.25624353
113	0x3e4a6334	0.19764405
114	0x3e11d7fb	0.14242546
115	0xbe5b95f9	-0.21443929
116	0x3d991bd4	0.07476011
117	0xbb0316b9	-0.0020002557
118	0xbce62845	-0.028095374
119	0x3d548b13	0.051890444
120	0x3e076c77	0.1322497
121	0xbdde2e0f	-0.10848629
122	0xbd1baddf	-0.038007613
123	0x3e335f22	0.17516759
124	0xbe5a0520	-0.21291018
125	0x3d162991	0.036660735
126	0x3ca581ff	0.020203589
127	0xbd51245c	-0.051060066
128	0x3c3a224e	0.011360718
129	0xbcb4fc87	-0.02209307
130	0xbdc1844f	-0.09449064
131	0x3df314bf	0.118691914
132	0xbd4e5a65	-0.050379176
133	0xbdccc029	-0.09997589
134	0x3e273638	0.16329277
135	0xbe0d8067	-0.13818513
136	0xbd3cd6aa	-0.046103157
137	0xbd8116cf	-0.063031785
138	0x3ca7270d	0.020404363
139	0x3e334261	0.1750579
140	0x3e4d316c	0.20038384
141	0x3e0e2120	0.13879824
142	0x3e678df6	0.22612748
143	0x3ca08a2e	0.01959714
144	0xbe008457	-0.12550484
145	0xbd8adad4	-0.067800194
146	0x3e853e3a	0.26024038
147	0xbd5d355e	-0.054005973
148	0xbe3bf077	-0.18353449
149	0xbe1c2bac	-0.15251034
150	0xbe490817	-0.19631992
151	0xbe84eb44	-0.25960743
152	0xbc5fa584	-0.013650302
153	0x3e42a27d	0.19007297
154	0x3e2d2781	0.16909601
155	0xbd248156	-0.040162407
156	0x3e110e9b	0.14165728
157	0xbe2e2649	-0.17006792
158	0xbca7853f	-0.020449279
159	0x3c156ab8	0.009119682
160	0xbd253ebd	-0.040343035
161	0x3cb48949	0.022038119
162	0xbe6a8960	-0.22903967
163	0xbe53708b	-0.206484
164	0xbad95f68	-0.0016584219
165	0xbcff59f7	-0.031170828
166	0xbdd45d7b	-0.103693925
167	0x3e253806	0.16134652
168	0xbd349dcf	-0.04409581
169	0x3d8066b1	0.06269587
170	0x3ebf943a	0.37417775
171	0xbd005c74	-0.03133817
172	0x3e5a213c	0.2130174
173	0x3c163232	0.009167241
174	0xbdf296b4	-0.118451506
175	0x3e156f67	0.14593278
176	0xbd939b99	-0.07207412
177	0xbd0a3389	-0.033740554
178	0x3dec8f7a	0.115508035
179	0xbe509c35	-0.20372088
180	0x3dc49e51	0.09600509
181	0xbc25506a	-0.010089973
182	0x3cb09e80	0.021559954
183	0x3e073b8b	0.13206308
184	0x3dc616d5	0.096723236
185	0xbd351c20	-0.044216275
186	0x3d144fd7	0.036208954
187	0xbd910cb4	-0.07082501
188	0xbe7ccb4a	-0.24686924
189	0x3e0deb34	0.13859254
190	0x3e69ba26	0.22824916
191	0x3e45c5f1	0.1931379
192	0xbe6dcc0d	-0.2322237
193	0xbdabd5df	-0.08390402
194	0xbe594ec2	-0.2122145
195	0xbccd308c	-0.025047563
196	0xbdc3910b	-0.09549149
197	0x3d513d55	0.05108388
198	0xbe19ec18	-0.15031469
199	0x3c4ef13c	0.012630757
200	0x3c7701ab	0.015076081
201	0x3d981c96	0.07427327
202	0xbe2d18d3	-0.16904001
203	0xbe07c0ab	-0.13257091
204	0x3d80ad76	0.06283085
205	0x3e84118e	0.25794643
206	0x3d37a9dd	0.04483973
207	0x3dab1f62	0.08355595
208	0x3cc6f68b	0.024287483
209	0xbcbd0103	-0.023071771
210	0xbd92af0d	-0.071622945
211	0xbdb93170	-0.090426326
212	0xbc16b5ce	-0.009198619
213	0x3d3ff9d8	0.04686913
214	0x3d1350c5	0.0359657
215	0x3d6b2bdf	0.057414886
216	0x3c2e58a9	0.010641255
217	0xbe2e341e	-0.17012069
218	0x3de554d5	0.11197821
219	0xbe2adfcf	-0.16686939
220	0x3db2a8d6	0.08723609
221	0x3e56434b	0.20924108
222	0x3da51f6b	0.08062633
223	0x3e0cd905	0.13754661
224	0xbe9c9d73	-0.30588874
225	0x3e1f7dab	0.15575282
226	0xbe4d0653	-0.20021944
227	0xbd54bc20	-0.051937222
228	0xbe165aec	-0.14683121
229	0x3d8c0bfb	0.068382226
230	0x3d4a7c0b	0.049434703
231	0x3d1ded3c	0.038556322
232	0x3d98bac3	0.07457497
233	0x3cc53bd8	0.024076387
234	0x3e417de5	0.18895681
235	0xbe1719a3	-0.14755873
236	0x3d83eedc	0.06442043
237	0xbe2879a7	-0.16452657
238	0x3c0996ca	0.008397767
239	0x3dae46bf	0.085095875
240	0xbd4e51aa	-0.05037085
241	0x3e2ea3f7	0.17054735
242	0xbe2be1f4	-0.16785413
243	0xbb3e08b4	-0.0028996887
244	0x3dcdb590	0.10044396
245	0xbe1225fe	-0.14272305
246	0x3e43e4c4	0.19130236
247	0xbe05e3c9	-0.13075174
248	0x3dd3866c	0.10328373
249	0x3d4a4114	0.04937847
250	0xbd520afe	-0.051280014
251	0x3e29da62	0.16587213
252	0x3d63d437	0.055622306
253	0xbe2d2afd	-0.1691093
254	0xbe434ab9	-0.19071473
255	0xbe03db3d	-0.12876602

0.bias f4 [32]
0	0x3e66a1ea	0.22522703
1	0xbd93f5f9	-0.0722465
2	0x3b071733	0.0020613193
3	0xbd637c05	-0.055538196
4	0xbd875ade	-0.066091284
5	0xbc8c487f	-0.017124413
6	0x3d9d1cd1	0.07671512
7	0xbddbaa7b	-0.10725876
8	0xbddde286	-0.108342215
9	0x3d2a91ba	0.041642882
10	0x3d09d603	0.033651363
11	0xbc499cc3	-0.012305441
12	0x3e148aeb	0.14506118
13	0x3e4d55fd	0.20052333
14	0xbe07e599	-0.13271178
15	0xbc46ca62	-0.012133213
16	0xbd9ca358	-0.07648343
17	0xbe6e23b0	-0.23255801
18	0xbe58cf82	-0.21172908
19	0x3d8f103c	0.06985518
20	0x3cd36f78	0.025809988
21	0x3e0249ef	0.12723516
22	0x3e23126e	0.15924999
23	0xbe13b3c3	-0.14424042
24	0x3c9bdbd0	0.019025713
25	0x3e296d01	0.16545488
26	0xbdd5df26	-0.10442953
27	0x3e387e31	0.18016888
28	0x3ddd2baa	0.10799344
29	0x3e88c955	0.26716104
30	0x3d8037c9	0.0626064
31	0x3c985297	0.01859407

1.weight f4 [32]
0	0x3f7aba1b	0.97940224
1	0x3f2edaaf	0.68302435
2	0x3f78f617	0.97250503
3	0x3f55b0c1	0.8347283
4	0x3fb321f5	1.3994738
5	0x3f438dc1	0.76388174
6	0x3f5abae8	0.85441446
7	0x3f8b79d0	1.0896549
8	0x3f9f573a	1.2448494
9	0x3f092e3a	0.5358616
10	0x3f238d4d	0.6388748
11	0x3f6c089a	0.92200625
12	0x3f7ae97f	0.98012537
13	0x3f5d1f40	0.8637581
14	0x3f230d50	0.6369219
15	0x3fa04e6c	1.2523932
16	0x3f44ba1f	0.768465
17	0x3f8fe953	1.124308
18	0x3f662d82	0.8991319
19	0x3f5bd74e	0.85875404
20	0x3f71340e	0.94220054
21	0x3f8be9b4	1.0930696
22	0x3f54aea2	0.8307897
23	0x3f83eaee	1.030607
24	0x3f489c74	0.7836373
25	0x3f88bca1	1.0682565
26	0x3f76dd22	0.9643117
27	0x3f32e906	0.69886816
28	0x3f76fe6d	0.9648197
29	0x3f15db1d	0.58537465
30	0x3f9b67c0	1.2141037
31	0x3f726e45	0.9469951

1.bias f4 [32]
0	0xbee18243	-0.44044694
1	0xbf00f3b1	-0.50371844
2	0xbeb0d2a7	-0.34535715
3	0xbde86b91	-0.11348642
4	0xbe46cdc5	-0.19414432
5	0xbee53c68	-0.4477265
6	0xbe804f0f	-0.25060317
7	0xbe481910	-0.1954081
8	0xbe7bea52	-0.24601105
9	0xbd6d1e1f	-0.057890054
10	0xbe18a180	-0.14905357
11	0xbead0e24	-0.3379985
12	0xbf2b4433	-0.6690094
13	0xbe779c83	-0.24180798
14	0xbe687257	-0.22699867
15	0xbee0c4bb	-0.43900093
16	0xbea8a064	-0.32934868
17	0xbf11f791	-0.5701838
18	0xbec670ac	-0.38757837
19	0xbed1e81e	-0.40997404
20	0xbe8b07e7	-0.27154467
21	0xbe8e5c23	-0.2780467
22	0xbd355ea0	-0.044279695
23	0xbf209c9c	-0.62738967
24	0xbf08d6de	-0.5345286
25	0xbeecb396	-0.46230763
26	0xbea392cb	-0.31947932
27	0x3dd9f38c	0.10642156
28	0xbd8bf1a7	-0.06833201
29	0x3da1ad58	0.07894391
30	0xbe9e01b1	-0.30860665
31	0xbe85cb6c	-0.2613176

1.running_mean f4 [32]
0	0x3e621fdd	0.22082467
1	0xbe42a2d4	-0.19007427
2	0x3cb5600e	0.022140529
3	0xbd95db93	-0.07317271
4	0xbda5b190	-0.08090508
5	0xbd77d7f6	-0.06050869
6	0x3dc9d714	0.09855476
7	0xbdbb1652	-0.09135117
8	0xbde674b9	-0.11252732
9	0x3e2f1e7e	0.17101476
10	0xbc6b7cb7	-0.014372996
11	0xbc61d5b8	-0.013783865
12	0x3db3a566	0.087717816
13	0x3e37f9ec	0.17966431
14	0xbcf81dd5	-0.030287663
15	0xbc7c8446	-0.015412396
16	0x3d183099	0.03715572
17	0xbe7d7eb9	-0.24755372
18	0xbe39dad4	-0.18149883
19	0x3d3ce23d	0.046114195
20	0x3cf1a4f9	0.02949761
21	0x3e10df41	0.14147665
22	0x3e1fea6d	0.1561677
23	0xbdf4ac1e	-0.11946891
24	0x3e0eee25	0.13958032
25	0x3e328ac8	0.17435753
26	0xbda2fa6c	-0.079579204
27	0x3e2c72ad	0.1684062
28	0x3df17f4f	0.1179186
29	0x3eca367c	0.39494693
30	0x3da1925f	0.07889246
31	0x3c94df41	0.018172862

1.running_var f4 [32]
0	0x3dd08669	0.10181887
1	0x3f2ec227	0.68265
2	0x3d66c662	0.056341536
3	0x3e8acb0d	0.2710804
4	0x3d4eaf82	0.050460346
5	0x3d829b28	0.0637725
6	0x3d1784bb	0.036991816
7	0x3d6e5826	0.058189534
8	0x3cdc664d	0.02690425
9	0x3e07f935	0.13278659
10	0x3da06053	0.078308724
11	0x3ce3d8f9	0.027813422
12	0x3e514d5b	0.20439665
13	0x3d04b284	0.03239681
14	0x3f39d9db	0.72598046
15	0x3c7474da	0.014920438
16	0x3e6c025b	0.23047774
17	0x3d9a438f	0.07532417
18	0x3d176e88	0.036970645
19	0x3d32949d	0.04359876
20	0x3d269b54	0.040675476
21	0x3d50279a	0.050819017
22	0x3eb39ff7	0.3508298
23	0x3daa63b5	0.08319799
24	0x3e29f77a	0.16598311
25	0x3d2d0c4b	0.04224805
26	0x3e2e3dec	0.17015809
27	0x3e4cd7e8	0.20004237
28	0x3e8cb8a3	0.27484617
29	0x3d9619c6	0.07329135
30	0x3d045694	0.03230913
31	0x3b9c49de	0.004769548

5.weight f4 [64, 32, 3, 3]
0	0xbcc5ac69	-0.024130063
1	0x39a62f8c	0.00031697412
2	0xbceb3c7f	-0.02871537
3	0x3d698c47	0.057018545
4	0x3d0eb7cf	0.034843262
5	0x3d7127a2	0.058875687
6	0x3e4e871d	0.20168729
7	0x3e2685bc	0.16261953
8	0x3d748e5b	0.059706073
9	0x3e2592f8	0.16169345
10	0x3db99554	0.09061685
11	0x3d97e901	0.07417489
12	0x3d5fbf20	0.05462563
13	0x3c16e8c8	0.009210773
14	0xbbcedcfc	-0.0063129645
15	0xbca50c9d	-0.020147616
16	0xbdc4053d	-0.095713116
17	0xbe450c18	-0.19242895
18	0xbb4704db	-0.0030367884
19	0xbcf04e1f	-0.029334126
20	0x3dfe2243	0.12408879
21	0xbe305564	-0.17220074
22	0xbdf7130a	-0.12064178
23	0xbbfeb88b	-0.007773464
24	0xbe3c29a2	-0.18375257
25	0xbe4669cd	-0.19376297
26	0xbdb07e21	-0.08617807
27	0x3ca4b892	0.020107541
28	0x3d905f82	0.07049467
29	0x3d06811c	0.032837972
30	0x3d74767f	0.05968332
31	0x3d979a9e	0.07402538
32	0x3dbea03e	0.093079075
33	0xbcfc91b1	-0.03083119
34	0x3e314f59	0.17315425
35	0xbe4eeb6a	-0.20206991
36	0xbbfeed20	-0.0077797323
37	0x3d723a87	0.059137847
38	0xbc9a92cf	-0.018868832
39	0xba1d5b38	-0.00060026674
40	0x3dfdeaaa	0.12398274
41	0xbdb28c77	-0.08718198
42	0xbe0f64fd	-0.14003368
43	0x3dabf30f	0.08395969
44	0xbd96928a	-0.07352169
45	0xbd9a7e38	-0.075436056
46	0xbd1a5488	-0.03767827
47	0xbc5af15e	-0.0133632105
48	0xbd21a300	-0.03946209
49	0x3d044593	0.032292914
50	0x3d44e7f9	0.04807279
51	0xbdd2003a	-0.102539495
52	0x3cefc569	0.029268937
53	0xbcecfd13	-0.028929269
54	0xbdf6c4bb	-0.12049242
55	0xbd44bc3d	-0.04803108
56	0xbc1de747	-0.00963766
57	0xbdaa55ea	-0.08317168
58	0x39b64bac	0.00034770125
59	0xbd25beca	-0.040465154
60	0xbdeea31c	-0.116522044
61	0x3c9200ea	0.017822701
62	0xbe48ec82	-0.1962147
63	0xbd329eca	-0.043608464
64	0xbc60a5cc	-0.013711404
65	0x3d323ff7	0.043518033
66	0x3d0f7c02	0.035030372
67	0x3b0666ea	0.002050812
68	0xbb6dacf6	-0.0036266423
69	0x3cb73ad8	0.022366926
70	0x3a9acf93	0.001181113
71	0xbdc9015d	-0.09814713
72	0x3e021ce6	0.12706336
73	0x3e112e34	0.14177781
74	0x3bebedb1	0.007199966
75	0x3e2304f4	0.15919858
76	0x3e345173	0.17609195
77	0x3da39553	0.07987466
78	0x3e23bb00	0.15989304
79	0x3e478717	0.19485126
80	0xbddd828f	-0.10815918
81	0xbd8a8f58	-0.06765622
82	0xbe36178e	-0.17782423
83	0x3be0c956	0.0068599386
84	0xbcbf4a81	-0.023350956
85	0xbd20fc4f	-0.03930312
86	0x3d226927	0.039651062
87	0xbacb2f53	-0.0015501775
88	0x3d9596dd	0.073041655
89	0x3be645b7	0.0070273536
90	0x3d2ce7b5	0.04221316
91	0x3bea77f6	0.0071554137
92	0xbd37c721	-0.04486764
93	0xbd778a1a	-0.06043444
94	0xbe135e2f	-0.14391397
95	0xbdda14b4	-0.1064848
96	0xbdde2d6e	-0.10848509
97	0xbda60b4e	-0.08107625
98	0xbcba8731	-0.022769542
99	0xbdc75135	-0.09732286
100	0xbd27e69b	-0.040991407
101	0xbe08f4c7	-0.13374625
102	0xbd3623b0	-0.044467628
103	0xbc79c595	-0.015244861
104	0xbcc1a3a7	-0.023637606
105	0xbe004674	-0.12526876
106	0x39d54db6	0.00040684425
107	0xbe509b98	-0.20371854
108	0xbe5ccabe	-0.21561715
109	0xbe652d68	-0.22380602
110	0xbe5e89ed	-0.21732302
111	0xbdc797bd	-0.09745739
112	0xbd253589	-0.04033426
113	0x3cc78f49	0.024360316
114	0xbdb04066	-0.08606033
115	0x3d120420	0.035648465
116	0x3e23e83d	0.1600656
117	0x3cf2604f	0.02958694
118	0x3c06a38e	0.008217705
119	0xbdd7f644	-0.10545018
120	0xbc59b979	-0.013288849
121	0xbd3ee9cf	-0.046609696
122	0xbe0773b5	-0.13227732
123	0xbdeb9103	-0.11502268
124	0xbc21875d	-0.009858933
125	0xb93b2550	-0.0001784761
126	0xbc864c3c	-0.016393773
127	0x3d95715c	0.07297012
128	0xbc94274a	-0.01808514
129	0x3d2290d6	0.039688908
130	0x3d57c3c7	0.052676942
131	0x3dda1dd7	0.10650223
132	0xbe1a54da	-0.15071431
133	0xbd8eb969	-0.06968958
134	0xbdc20dcb	-0.09475287
135	0x3d4c48f9	0.04987428
136	0x3da4dd58	0.080500305
137	0x3dbabecc	0.09118423
138	0x3c9e2796	0.019305985
139	0x3d882bca	0.06648977
140	0xbd5829e5	-0.05277433
141	0xbe2a71d7	-0.16644989
142	0xbc9a9aea	-0.018872697
143	0xbe98baca	-0.2983001
144	0x3cdac6ae	0.026706066
145	0x3d1d335b	0.038379055
146	0xbb3701d0	-0.0027924664
147	0xbc33878e	-0.010957612
148	0x3bf52827	0.007481593
149	0x3d178092	0.03698785
150	0xbd61052e	-0.05493658
151	0xbc74238e	-0.014901055
152	0xbe33e31f	-0.17567109
153	0xbd780127	-0.060547974
154	0xbc0d76ed	-0.008634311
155	0x3ceaa753	0.02864424
156	0x3d5252be	0.05134844
157	0x3d8c4c5e	0.068505034
158	0x3ddccfe8	0.107818425
159	0xbe168ce5	-0.14702184
160	0xbdf53b16	-0.119741604
161	0xbdd9c672	-0.106335536
162	0xbd345ed3	-0.044035744
163	0x3d8f9c4e	0.07012235
164	0xbd2c45e2	-0.042058833
165	0xbb28a94d	-0.0025735677
166	0x3af62bd4	0.0018781372
167	0x3d138f6b	0.036025446
168	0xbe6d4964	-0.23172528
169	0xbe377e93	-0.17919378
170	0xbcca145a	-0.024667908
171	0x3dd39f33	0.10333099
172	0x3e1c2719	0.1524929
173	0x3da98bdf	0.082786314
174	0x3de9679b	0.11396714
175	0x3d771f1e	0.06033241
176	0x3c8da1c1	0.017289044
177	0xbdaeed14	-0.08541313
178	0x3d1855a6	0.037191056
179	0xbdc577d5	-0.09641997
180	0x3dec624b	0.115421854
181	0x3dacd87e	0.0843973
182	0x3d8e72b2	0.0695547
183	0x3e0cd997	0.13754879
184	0x3da0f540	0.07859278
185	0x3cf32228	0.029679373
186	0x3ddf05c8	0.108897746
187	0xbdb18b05	-0.08669094
188	0xbd26a8fb	-0.040688496
189	0x3db1dcd4	0.08684698
190	0x39e270ae	0.00043190032
191	0xbd5c0cfe	-0.053723328
192	0x3e2141b2	0.15747717
193	0x3c528aa1	0.0128504345
194	0xbd5e6e1e	-0.054304235
195	0x3b66bba4	0.0035207057
196	0x3d9908f9	0.074724145
197	0x3df57d9f	0.11986851
198	0xbdb539b0	-0.08848894
199	0x3b14f1d7	0.0022727156
200	0xbdade5a3	-0.08491065
201	0xbc67a9b9	-0.014139586
202	0x3d2b70ca	0.04185561
203	0x3d07911a	0.033097364
204	0xbe7a58c8	-0.2444793
205	0xbde37c14	-0.111076504
206	0xbdebf8fe	-0.11522101
207	0xbcea66ae	-0.028613415
208	0xbda657b4	-0.08122197
209	0xbe603f0d	-0.21899052
210	0xbc25795d	-0.010099736
211	0xbd20131e	-0.03908073
212	0xbe1f5c80	-0.1556263
213	0xbd8bff45	-0.06835798
214	0x3d76eebe	0.060286276
215	0xbda84f0f	-0.08218204
216	0xbe016916	-0.12637743
217	0xbc5ff970	-0.01367031
218	0xbd958dac	-0.073024124
219	0xbe027654	-0.12740451
220	0x3d2c2379	0.042026017
221	0x3d77ca1f	0.060495492
222	0xbe753cea	-0.23949018
223	0xbdb8b348	-0.0901857
224	0xbd5b0a84	-0.053476825
225	0xbcd06857	-0.025440378
226	0xbc6c5dfb	-0.014426704
227	0x3dc2da77	0.09514325
228	0x3cdc49ec	0.026890717
229	0x3df7622c	0.12079272
230	0x3dc7ce4d	0.097561456
231	0xbdafbb86	-0.08580689
232	0x3d749e3a	0.05972121
233	0x3e0793a3	0.13239913
234	0xbc0a47a7	-0.008439935
235	0x3dcc516a	0.09976466
236	0x3d7f72ee	0.062365465
237	0x3d675d2c	0.05648534
238	0x3c48c67c	0.012254354
239	0x3d5f9103	0.054581653
240	0x3d846b5e	0.06465791
241	0x3e0c0d36	0.13676915
242	0x3e39d585	0.18147857
243	0xbb646a0d	-0.003485325
244	0x3df71c71	0.12065972
245	0xbc3c1b11	-0.0114810625
246	0x3c347247	0.011013574
247	0x3cd79023	0.026313847
248	0x3bcea286	0.0063059954
249	0xbdc541dc	-0.09631702
250	0xbe1934c5	-0.14961536
251	0xbe9bef09	-0.30455807
252	0xbe58d956	-0.21176657
253	0xbd733407	-0.05937579
254	0xbcd731e3	-0.026268905
255	0xbd817e0c	-0.0632287

5.bias f4 [64]
0	0xbbdf29d8	-0.006810408
1	0xbc2863ff	-0.010277747
2	0xbd9227b9	-0.07136483
3	0xbc89ff5c	-0.016845398
4	0xbae7af66	-0.0017676174
5	0xbd407f4c	-0.0469964
6	0x3dbc4922	0.091936365
7	0xbd7e4c31	-0.06208438
8	0xbdb4534f	-0.08804952
9	0x3d794d6d	0.060864855
10	0xbd2c9205	-0.042131443
11	0x3dc0a4f3	0.094064616
12	0xbc316164	-0.010826442
13	0xbd862c46	-0.06551413
14	0xbd2cff77	-0.042235818
15	0xbd26b436	-0.040699206
16	0xbaff54e7	-0.0019480259
17	0xba7d00a5	-0.000965128
18	0xba1a13e5	-0.00058775983
19	0x3da9b524	0.08286503
20	0xbcc48ff3	-0.023994422
21	0xbbe8e4ff	-0.0071073766
22	0xbc2214b1	-0.0098926285
23	0xbdb51022	-0.08840968
24	0x3d9c156d	0.07621274
25	0x3d874452	0.06604828
26	0xbd13f693	-0.036123823
27	0xbdb22ba8	-0.08699733
28	0xbcbcea75	-0.023061017
29	0x3d579df5	0.052640874
30	0x3d7609d4	0.060067967
31	0xbd08f528	-0.033436924
32	0x3d0db145	0.034592886
33	0x3d0bfe42	0.034178026
34	0xba30c778	-0.00067435903
35	0xbdaaccf3	-0.08339872
36	0xbd1ea4cb	-0.038731378
37	0xbd332fe2	-0.043746836
38	0xbde5406a	-0.11193927
39	0x3d72425b	0.059145313
40	0xbe12f8f7	-0.14352785
41	0xbd3185df	-0.04334056
42	0x3d510c08	0.051036865
43	0x3d0ec88e	0.034859233
44	0x3c9fb103	0.019493585
45	0x3d50a699	0.05094013
46	0x3d2b2b05	0.041789073
47	0xbb410bd1	-0.0029456506
48	0xbce329a2	-0.027729813
49	0xbd7544dd	-0.059880126
50	0xbd34e6bf	-0.04416537
51	0xbd299e47	-0.04141071
52	0xbd5815aa	-0.052755035
53	0xbbdcf636	-0.006743218
54	0xbca997ef	-0.02070233
55	0x3c930894	0.017948426
56	0x3d1f954b	0.038960736
57	0x3c6fb45d	0.014630404
58	0xbdc8513d	-0.0978112
59	0xbd87ed6f	-0.06637084
60	0x3dbe2a8a	0.092854574
61	0x3d4d8b45	0.050181646
62	0xbd280076	-0.041016065
63	0x3dcdb3b7	0.100440435

6.weight f4 [64]
0	0x3f54e1c5	0.83156997
1	0x3f51ec18	0.82000875
2	0x3f484197	0.7822508
3	0x3f5d00b2	0.86329186
4	0x3f6c918e	0.924096
5	0x3f5b4a5b	0.8566033
6	0x3f4ea81e	0.80725276
7	0x3f5f7efc	0.8730314
8	0x3f474e57	0.7785391
9	0x3f4b486d	0.7940739
10	0x3f791b27	0.97307056
11	0x3f436da4	0.76339173
12	0x3f5b34fb	0.85627717
13	0x3f48dae0	0.78458977
14	0x3f491ce2	0.78559697
15	0x3f4ce727	0.8004021
16	0x3f5c8872	0.861457
17	0x3f4462cc	0.7671325
18	0x3f4a99f5	0.7914117
19	0x3f5a8a53	0.85367316
20	0x3f5fa2f7	0.8735804
21	0x3f4a894c	0.7911575
22	0x3f4f9909	0.8109289
23	0x3f3d816b	0.740256
24	0x3f53d7ea	0.82751334
25	0x3f586faf	0.84545416
26	0x3f68a133	0.9087097
27	0x3f35411f	0.7080249
28	0x3f4dee8d	0.80442125
29	0x3f454313	0.7705547
30	0x3f5cbe55	0.86227924
31	0x3f549fed	0.8305653
32	0x3f4042da	0.7510201
33	0x3f50925b	0.8147332
34	0x3f53afe2	0.8269025
35	0x3f50e3f4	0.8159783
36	0x3f59acd7	0.8502936
37	0x3f5223e2	0.82086
38	0x3f43cc64	0.7648375
39	0x3f42c266	0.7607788
40	0x3f525a08	0.82168627
41	0x3f4944fa	0.78620875
42	0x3f36fb4a	0.71477187
43	0x3f5cb7bd	0.8621786
44	0x3f405371	0.7512732
45	0x3f35ced1	0.710187
46	0x3f3b6fbb	0.7321736
47	0x3f54eb2d	0.8317135
48	0x3f4af0cb	0.7927367
49	0x3f4d303e	0.80151737
50	0x3f453717	0.77037185
51	0x3f5752fc	0.84111
52	0x3f25d101	0.6477204
53	0x3f48281f	0.7818622
54	0x3f58e8b7	0.84730095
55	0x3f5a46b1	0.85264117
56	0x3f43f1a1	0.7654057
57	0x3f53fe9e	0.8281039
58	0x3f5371d8	0.82595587
59	0x3f5b841e	0.8574847
60	0x3f4cce2f	0.8000211
61	0x3f55ee22	0.83566487
62	0x3f58b6bf	0.8465385
63	0x3f3fbf0f	0.7490091

6.bias f4 [64]
0	0xbf1c3e0e	-0.6103219
1	0xbf1d9064	-0.6154845
2	0xbf223f38	-0.63377714
3	0xbf214f0b	-0.63011235
4	0xbf212ffb	-0.6296384
5	0xbf3c95d3	-0.73666114
6	0xbf1b3a89	-0.6063619
7	0xbf1f467a	-0.62216914
8	0xbf063f89	-0.52440697
9	0xbee632af	-0.44960544
10	0xbf341221	-0.7034016
11	0xbf0afb5f	-0.5428981
12	0xbf195685	-0.59897643
13	0xbf0e1873	-0.55506057
14	0xbf059fa9	-0.5219675
15	0xbf1a3bc9	-0.60247475
16	0xbf1ac2ad	-0.604533
17	0xbf0faed7	-0.5612616
18	0xbef3d830	-0.47625875
19	0xbf06de41	-0.5268288
20	0xbf0c2f1d	-0.5475939
21	0xbf0c446f	-0.5479192
22	0xbf2fa2ab	-0.68607587
23	0xbef8d1fe	-0.4859771
24	0xbf21dbdf	-0.6322612
25	0xbf1de4ed	-0.6167744
26	0xbf3fef0a	-0.7497412
27	0xbef399f9	-0.4757841
28	0xbf08079a	-0.531366
29	0xbf0971d0	-0.5368929
30	0xbedf6176	-0.43629044
31	0xbf02fb87	-0.5116505
32	0xbeeb6d41	-0.45981792
33	0xbf20a194	-0.6274655
34	0xbf132783	-0.57482165
35	0xbf1914ee	-0.5979756
36	0xbf2ba100	-0.6704254
37	0xbf10e674	-0.56601644
38	0xbf32babe	-0.69816196
39	0xbf0705ea	-0.527434
40	0xbf11c53b	-0.56941575
41	0xbf1d2401	-0.6138306
42	0xbef4d9d3	-0.47822437
43	0xbf10e054	-0.565923
44	0xbeda6038	-0.42651534
45	0xbefa6e15	-0.4891211
46	0xbee0b153	-0.43885288
47	0xbf0f8301	-0.5605927
48	0xbf24d823	-0.643923
49	0xbf290815	-0.6602796
50	0xbf152e69	-0.5827394
51	0xbf18d942	-0.5970651
52	0xbea10b44	-0.31453907
53	0xbf177c81	-0.5917435
54	0xbf27f363	-0.65605754
55	0xbf22920b	-0.63504094
56	0xbef5e2c7	-0.4802458
57	0xbf12dd25	-0.5736869
58	0xbf18fdf2	-0.5976249
59	0xbf1e8bbe	-0.6193198
60	0xbf0d573d	-0.5521124
61	0xbf1d77db	-0.6151101
62	0xbf265c83	-0.6498491
63	0xbf0f313f	-0.5593452

6.running_mean f4 [64]
0	0xbf3bcd5c	-0.7336023
1	0xbf054343	-0.5205576
2	0xbed3fd31	-0.41404107
3	0xbedb86f0	-0.42876387
4	0xbf672221	-0.9028645
5	0xbf1f6d65	-0.622763
6	0xbf57e900	-0.84339905
7	0xbef0451c	-0.46927726
8	0xbf07b09f	-0.5300388
9	0xbf362d42	-0.7116281
10	0xbfa7bb93	-1.3104118
11	0xbea5c1d1	-0.32374433
12	0xbf03a44a	-0.5142256
13	0xbeeffedd	-0.46874133
14	0xbee7f131	-0.45301202
15	0xbf38dc32	-0.7221099
16	0xbf30c10b	-0.6904456
17	0xbf2d544f	-0.6770677
18	0xbf7c45bf	-0.98543924
19	0xbf518911	-0.8184977
20	0xbf6c0ac8	-0.9220395
21	0xbf24ce7f	-0.6437759
22	0xbee68ca7	-0.45029184
23	0xbe563832	-0.20919874
24	0xbf10c138	-0.5654483
25	0xbf82d3ad	-1.0220848
26	0xbfa1ad91	-1.2631093
27	0x3ef52ba1	0.4788485
28	0xbf008314	-0.5020001
29	0xbf7434a5	-0.9539283
30	0xbf09e70c	-0.53868175
31	0xbf1ec6a6	-0.62021863
32	0xbf7aa89d	-0.97913533
33	0xbf06463f	-0.5245094
34	0xbf4102c0	-0.7539482
35	0xbf57c44f	-0.8428392
36	0xbefbbc77	-0.49167225
37	0xbed1fd69	-0.4101365
38	0xbf4839a3	-0.78212947
39	0xbeba64c4	-0.36405003
40	0xbf17ad6c	-0.59248996
41	0xbee0eb6b	-0.4392961
42	0x3c80165d	0.015635664
43	0xbf8bfd12	-1.0936606
44	0xbe95112e	-0.2911467
45	0xbf044585	-0.5166858
46	0xbf3578b9	-0.70887333
47	0xbf4120a5	-0.75440437
48	0xbf5a8ed0	-0.85374165
49	0xbf593691	-0.84848887
50	0xbe85035c	-0.25979125
51	0xbf5f342e	-0.87188995
52	0xbedcdcb5	-0.43137136
53	0xbf380ba9	-0.7189279
54	0xbecafee1	-0.39647582
55	0xbf57cc6e	-0.8429631
56	0xbeee191a	-0.46503526
57	0xbf39628b	-0.7241599
58	0xbf2436a6	-0.64145887
59	0xbf2f6274	-0.685096
60	0xbf16943c	-0.5881994
61	0xbe18d241	-0.14923956
62	0xbf66f2fb	-0.9021451
63	0xbefe62e7	-0.49684832

6.running_var f4 [64]
0	0x3f8f3925	1.1189314
1	0x3f87d9e8	1.0613375
2	0x3f2d2289	0.6763082
3	0x3f506d83	0.814171
4	0x3ff3bdf2	1.9042342
5	0x3f3bd2b4	0.7336838
6	0x3f8873df	1.0660361
7	0x3f5da650	0.865819
8	0x3f2df10f	0.6794595
9	0x3f829093	1.020037
10	0x40511d90	3.2674294
11	0x3f36cdd0	0.71407795
12	0x3f487e88	0.7831807
13	0x3f2cfa17	0.67569107
14	0x3f5a2992	0.8521968
15	0x3f45e8b9	0.7730823
16	0x3fa3c0a8	1.2793169
17	0x3f5b1e08	0.855927
18	0x3ff59c77	1.9188374
19	0x3f99d9a6	1.2019546
20	0x3fbc64ed	1.47183
21	0x3f5d13f5	0.86358577
22	0x3f33c216	0.70218027
23	0x3f2e8e4b	0.6818587
24	0x3f373a83	0.71573657
25	0x4003161e	2.048225
26	0x401c4847	2.4419115
27	0x3f4975ab	0.7869517
28	0x3f5f34ea	0.87190115
29	0x3f9d1b3c	1.2273936
30	0x3fd479cf	1.6599673
31	0x3f84c115	1.0371424
32	0x3fdfe69e	1.7492254
33	0x3fd446b9	1.6584083
34	0x3f708505	0.9395297
35	0x3f80acba	1.0052712
36	0x3f32153f	0.6956367
37	0x3f3d44b6	0.7393297
38	0x3f38c998	0.7218261
39	0x3f1b69d3	0.6070835
40	0x3f98636e	1.1905344
41	0x3f1e7715	0.61900455
42	0x3f73de9c	0.9526155
43	0x3fff1668	1.9928713
44	0x3f1e7de3	0.6191084
45	0x3f3187bb	0.69347733
46	0x3fb22598	1.3917723
47	0x3f98dc99	1.1942321
48	0x3f88f2e1	1.0699121
49	0x3f3d5065	0.739508
50	0x3f2f71ae	0.68532836
51	0x3fa0be6c	1.2558112
52	0x3ef635dc	0.48087966
53	0x3f792bdd	0.97332555
54	0x3f3b5cf8	0.73188734
55	0x3fb1d14c	1.3891997
56	0x3f783f4f	0.969716
57	0x3f64865b	0.8926751
58	0x3f458fea	0.7717272
59	0x3f5f3dea	0.8720385
60	0x3fc97d04	1.5741277
61	0x3f5cd5c2	0.8626367
62	0x3fcdc549	1.6075832
63	0x3f467a29	0.7753015

10.weight f4 [64, 64, 3, 3]
0	0x3d0c9259	0.034319256
1	0xbd18aab9	-0.03727219
2	0xbc047218	-0.008083843
3	0xbd8918d7	-0.06694191
4	0xbe046be8	-0.12931788
5	0xbdbd98d1	-0.09257663
6	0x3e13655c	0.14394134
7	0x3de3ef9b	0.111296855
8	0x3e0a4d45	0.13506038
9	0xbd469587	-0.048482444
10	0x3e1e744e	0.15474054
11	0x3de335e4	0.11094263
12	0xbdc24498	-0.094857395
13	0xbc39ccab	-0.011340301
14	0x3d1aab72	0.03776116
15	0x3c965250	0.018349797
16	0xbb466347	-0.0030271576
17	0xbc4919b3	-0.012274194
18	0xbe3ed29e	-0.18635032
19	0xbe1cb44d	-0.15303154
20	0xbdd21c4a	-0.10259302
21	0xbe29cf3f	-0.16582964
22	0xbdd1f4ee	-0.10251795
23	0xbdb2121e	-0.08694862
24	0x3ca38812	0.019962344
25	0x3d16426f	0.03668445
26	0x3da77197	0.081759624
27	0xbbb69323	-0.0055717393
28	0xbd958f76	-0.073027536
29	0xbdb47ee5	-0.08813266
30	0xbc3d55c4	-0.011556093
31	0xbdb484f0	-0.08814418
32	0xbe0144e6	-0.12623939
33	0xbe4a8ad9	-0.19779529
34	0xbe828f2d	-0.2549986
35	0xbe9dedd0	-0.308455
36	0xbdfc0e4f	-0.12307417
37	0xbdd02ce5	-0.10164813
38	0xbd93c665	-0.07215575
39	0xbd40a296	-0.047030054
40	0xbde8e777	-0.113722734
41	0xbe2bf054	-0.16790897
42	0xbd18cd4c	-0.03730516
43	0xbddbd761	-0.1073444
44	0xbe165466	-0.14680633
45	0x3dafe826	0.08589201
46	0xbd14109e	-0.03614866
47	0xbd3c4354	-0.045962647
48	0xbb33b36b	-0.0027420174
49	0xbda0ab4d	-0.07845173
50	0xbddcf212	-0.10788359
51	0xbd718f15	-0.058974344
52	0xbd317d9d	-0.043332685
53	0xbd5824c2	-0.05276943
54	0xbd8e63b2	-0.06952609
55	0x3d7360a2	0.059418328
56	0x3d48b2dd	0.048998702
57	0x3d8713ef	0.06595599
58	0x3c65e72e	0.014032168
59	0x3d2ed4f2	0.04268355
60	0x3e2afd68	0.1669823
61	0x3e096e49	0.13420977
62	0x3dd367ee	0.103225574
63	0xbc9b5cad	-0.01896509
64	0xbe00f7db	-0.1259455
65	0xbdf28a8a	-0.118428305
66	0xbd4d65c4	-0.05014588
67	0xbdf929d7	-0.121661834
68	0xbdd9d267	-0.10635834
69	0xbd16e624	-0.036840573
70	0x3d051c6e	0.032497816
71	0x3d1b68e2	0.03794182
72	0xbd73afce	-0.059493832
73	0x3d4e8df5	0.05042835
74	0xbd858d0a	-0.06521042
75	0xbdf433b7	-0.11923926
76	0xbcbeb64b	-0.023280283
77	0xbdf76d09	-0.12081344
78	0xbd289ea6	-0.041166924
79	0x3d03883c	0.032112345
80	0x3d7b01c3	0.061280977
81	0x3e2fd0ed	0.17169543
82	0x3e2f8597	0.17140804
83	0x3e85929e	0.26088423
84	0xbc85f11c	-0.016350321
85	0xbdc2279a	-0.0948021
86	0xbc9d9f27	-0.019240929
87	0xbd1e19b5	-0.038598735
88	0xbdd8aae7	-0.10579472
89	0x3cf10261	0.02942008
90	0x3d97d5c7	0.07413822
91	0x3d2b3ee3	0.04180802
92	0x3e47e630	0.19521403
93	0x3c9c34cd	0.019068146
94	0x3d75855d	0.05994164
95	0xbd38eec0	-0.045149565
96	0xbd289668	-0.041159064
97	0x3da682b1	0.08130396
98	0x3d713c8e	0.05889564
99	0x3dca0e51	0.09866012
100	0x3d2bea0c	0.04197125
101	0x3d3a6d9d	0.04551469
102	0xbc8ca452	-0.017168198
103	0xbd61efac	-0.05516021
104	0xbd37d58b	-0.044881385
105	0xbdec3f60	-0.11535525
106	0xbdcf3eee	-0.10119425
107	0xbdbc9940	-0.092089176
108	0x3d037577	0.032094445
109	0x3c538c55	0.012911876
110	0x39818d23	0.00024709952
111	0xbcf766aa	-0.030200321
112	0xbbe0c8d8	-0.00685988
113	0xbd2d2372	-0.04227013
114	0x3db6c786	0.08924775
115	0x3d841615	0.06449524
116	0x3cbd9852	0.023143921
117	0xbdd27549	-0.102762766
118	0xbe411fd4	-0.18859798
119	0xbd4c5a05	-0.049890537
120	0xbd48b17a	-0.04899738
121	0xbe2545a1	-0.16139843
122	0xbe0bf975	-0.13669379
123	0xbcd8a7d1	-0.026447209
124	0xbe4b2d69	-0.19841541
125	0xbe53ce5c	-0.20684189
126	0x3d88f822	0.066879526
127	0x3dd7921c	0.10525915
128	0x3b937244	0.0044997055
129	0x3dac7fde	0.08422826
130	0x3e4a3ddb	0.19750158
131	0x3d690876	0.056892835
132	0x3c166d9b	0.009181405
133	0x3dd13f9e	0.10217212
134	0xbd151661	-0.036398295
135	0x3e4e37d6	0.20138487
136	0x3de3d396	0.11124341
137	0x3de2383e	0.110458836
138	0x3de47596	0.1115524
139	0x3d455892	0.04818017
140	0x3d99388a	0.07481487
141	0x3c3f8a58	0.011690699
142	0x3c633f83	0.013870123
143	0x3cb9d153	0.022682821
144	0x3d023d6e	0.031796865
145	0xbd819343	-0.06326916
146	0xbde9864a	-0.11402567
147	0xbd9bd40a	-0.076088026
148	0xbdad62f1	-0.08466137
149	0xbe04a4e7	-0.1295353
150	0xbe1513ea	-0.14558378
151	0xbda31d0e	-0.07964526
152	0xbe013dc6	-0.12621221
153	0x3d1e25e7	0.038610365
154	0x3e035b5c	0.1282782
155	0x3dab39b1	0.08360613
156	0xbdc59119	-0.09646816
157	0xbd1fc23c	-0.039003596
158	0xbc4abab0	-0.012373611
159	0xbdfdab0a	-0.12386139
160	0x3d74c143	0.05975462
161	0x3e14d59d	0.14534612
162	0x3cc125df	0.023577629
163	0x3d986d92	0.07442774
164	0x3d9939a9	0.07481701
165	0x3ddb9489	0.1072169
166	0x3df9bbef	0.121940486
167	0x3e13dc96	0.14439616
168	0x3cf53b4e	0.029935505
169	0x3d0f715c	0.035020217
170	0x3e0d55e2	0.13802293
171	0x3dba8b69	0.091086216
172	0xbce32f0b	-0.027732393
173	0x3cb456a3	0.022013968
174	0xbe0fbd97	-0.14037167
175	0xbe5bddb2	-0.21471289
176	0xbe15107b	-0.14557068
177	0xbe241ac7	-0.1602584
178	0xbe1fe6dc	-0.1561541
179	0xbda694ea	-0.08133872
180	0xbd259e0a	-0.04043392
181	0xbdf0b204	-0.11752704
182	0xbd40127b	-0.046892624
183	0xbbfe6c6d	-0.00776439
184	0xbe1390a5	-0.14410646
185	0xbdce6853	-0.10078492
186	0x3d686e48	0.056745797
187	0xbd4919d5	-0.0490969
188	0xbdba0f9b	-0.09085008
189	0xbcad075f	-0.021121679
190	0x3d414f41	0.047194723
191	0xbdd32f7e	-0.10311793
192	0xbd7666e2	-0.06015671
193	0xbd38f9f6	-0.045160256
194	0xbd8442bf	-0.06458043
195	0x3ce87345	0.028375277
196	0x3d1e7844	0.038688913
197	0x3daed18f	0.08536064
198	0xbdbaca18	-0.091205776
199	0xbcdae1bf	-0.026718972
200	0xbd8cef05	-0.06881527
201	0x3c89e6f2	0.016833756
202	0x3d565369	0.05232564
203	0x3d1475ce	0.03624516
204	0x3dd8924c	0.10574779
205	0x3de6d3b2	0.112708464
206	0x3e1dc68b	0.1540777
207	0xbde8091b	-0.11329862
208	0xbda482af	-0.080327384
209	0xbc58e802	-0.013238909
210	0xbc6675b4	-0.014066149
211	0xbc2d3d82	-0.010573747
212	0x3d1d3e51	0.038389508
213	0xbe263a1f	-0.16233109
214	0xbd0ece1c	-0.03486453
215	0xbd351e86	-0.044218563
216	0xbdea1ca6	-0.114312455
217	0xbd2b5b66	-0.04183521
218	0xbc3e74e5	-0.0116245495
219	0xbc7b1ce8	-0.015326716
220	0x3d472072	0.048614927
221	0xbd982620	-0.07429147
222	0x3dc2deac	0.095151275
223	0x3c445c07	0.011984832
224	0xbdda9943	-0.106737636
225	0x3dbcabb3	0.092124365
226	0xbdada308	-0.08478361
227	0x3df6580a	0.12028511
228	0xbd018018	-0.0316163
229	0xbe3d748b	-0.18501489
230	0x3ded565c	0.11588737
231	0xbb95b63e	-0.004568844
232	0xbd965599	-0.07340545
233	0x3e0ff1a8	0.14057028
234	0xbe2a89b9	-0.166541
235	0xbe22a1dd	-0.15882058
236	0xbe893c89	-0.26803997
237	0xbe1064e4	-0.14100987
238	0xbe1381d8	-0.14405
239	0xbe657df9	-0.22411336
240	0x3df23e88	0.11828333
241	0x3de43397	0.111426525
242	0x3e23f68f	0.16012023
243	0x3dc62ed7	0.09676903
244	0x3c165323	0.009175095
245	0xbbd3a41c	-0.0064587723
246	0x3cd20768	0.025638297
247	0x3ca22e63	0.01979751
248	0x3cb30ac5	0.021855721
249	0xbbb79468	-0.005602408
250	0x3d19e810	0.037574828
251	0x3c985f3f	0.018600104
252	0x3da95b8a	0.08269413
253	0x3dbda927	0.09260779
254	0x3cbf5aa2	0.023358647
255	0xbd1b6da2	-0.03794635

10.bias f4 [64]
0	0xbc40dca2	-0.011771353
1	0xbcd8b00a	-0.02645113
2	0xbc0354a2	-0.0080157835
3	0x3d0c3242	0.034227617
4	0x3c0e5212	0.008686559
5	0x3d18700d	0.037216235
6	0xbd0a73db	-0.033801895
7	0xbd776f02	-0.0604086
8	0x3d9f1bf3	0.07769003
9	0x3d7dbe51	0.061949078
10	0xbc9a87ea	-0.018863637
11	0x3bb5b311	0.005545028
12	0x3cc38ed4	0.023871817
13	0xbc347372	-0.011013852
14	0x3db4c69e	0.08826946
15	0x3d1dac86	0.03849461
16	0x3da835ca	0.082133844
17	0x3c233d27	0.00996331
18	0x3d3bbeec	0.045836374
19	0x3d17e610	0.03708464
20	0xbc65f070	-0.014034376
21	0xbc8dc398	-0.01730518
22	0x3d5ad359	0.053424213
23	0x3d32b47e	0.043629162
24	0x3d2e8ff7	0.042617764
25	0xbc5d4a99	-0.013506555
26	0x3c69d95a	0.014273012
27	0x3d29e462	0.04147757
28	0x3caab27e	0.020837065
29	0x3ce15a2d	0.02750882
30	0x3c14e942	0.009088816
31	0x3cb0b0e4	0.021568723
32	0x3d03ce41	0.03217912
33	0x3d956676	0.072949335
34	0x3b4df887	0.0031428651
35	0xbd5acb2b	-0.053416412
36	0xbb74da0a	-0.0037361407
37	0x3d0bd029	0.034134064
38	0xbc0957fe	-0.008382795
39	0x3cc2d792	0.023784433
40	0xbd603754	-0.054740265
41	0xbc74178f	-0.014898195
42	0x3d13b798	0.03606376
43	0xbd1fe357	-0.039035168
44	0x3c01d24e	0.007923676
45	0x3d83282e	0.06404148
46	0xbbccb845	-0.0062475526
47	0xbcb6fd36	-0.022337537
48	0xbca4eef0	-0.020133466
49	0xbd4d6ec2	-0.050154455
50	0x3c2900f0	0.010315165
51	0x3d0a2a4e	0.03373175
52	0xbc29a977	-0.010355345
53	0xbc90cfd9	-0.017677234
54	0x3cd4e5be	0.025988456
55	0x3c06b03d	0.008220729
56	0x3bfbaa46	0.0076802103
57	0x3cab4ccd	0.020910645
58	0x3c85a519	0.016314076
59	0xbb01112e	-0.0019694078
60	0x3c9e9456	0.019357841
61	0x3b246508	0.0025084633
62	0xba93bc56	-0.0011271338
63	0xbc9f0c4b	-0.019415041

11.weight f4 [64]
0	0x3fa7b265	1.3101317
1	0x3faacd3c	1.3343883
2	0x3fa9966d	1.3249031
3	0x3fad81c0	1.3555222
4	0x3fa9fd0a	1.3280346
5	0x3fa38c5d	1.277721
6	0x3fa4acca	1.2865231
7	0x3fb3e7d3	1.4055122
8	0x3fa53818	1.2907743
9	0x3fab5eb9	1.3388282
10	0x3faa18c1	1.3288804
11	0x3fad8818	1.3557158
12	0x3fa84b72	1.3148024
13	0x3fae77a4	1.3630261
14	0x3fac0cd6	1.3441417
15	0x3f9e0eb4	1.2348237
16	0x3fac27a8	1.3449602
17	0x3faf90d3	1.3716072
18	0x3fa3d24a	1.279855
19	0x3fa4df71	1.2880689
20	0x3faf4172	1.3691847
21	0x3fa96681	1.3234407
22	0x3f9f3f11	1.2441121
23	0x3fa990e7	1.3247346
24	0x3fb20765	1.3908507
25	0x3fa355df	1.2760581
26	0x3f9dbb12	1.2322714
27	0x3fba2168	1.4541445
28	0x3fad15db	1.3522295
29	0x3fb25d68	1.3934755
30	0x3f9f6c8a	1.2454998
31	0x3fa6fe99	1.3046447
32	0x3fa431c3	1.2827686
33	0x3fa7099f	1.3049811
34	0x3faa17c4	1.3288503
35	0x3face064	1.3505979
36	0x3f93c5ea	1.1544774
37	0x3f9c234e	1.2198274
38	0x3fa72154	1.3057046
39	0x3fa39cb9	1.2782203
40	0x3f9ae982	1.2102511
41	0x3fa69e4c	1.3017058
42	0x3fb9f266	1.4527099
43	0x3fadd531	1.3580686
44	0x3f9fe9ac	1.2493186
45	0x3fb46322	1.4092753
46	0x3fa842eb	1.3145422
47	0x3fafec54	1.3743997
48	0x3fa7dba0	1.3113899
49	0x3fad4ee3	1.3539699
50	0x3fa300a6	1.2734573
51	0x3fad7c2c	1.3553519
52	0x3faba4a9	1.3409625
53	0x3fa5b0f0	1.2944622
54	0x3fa5c7e5	1.2951628
55	0x3fc87d41	1.5663224
56	0x3fa0dea3	1.2567943
57	0x3fad9f31	1.3564206
58	0x3fa10caa	1.258199
59	0x3fbb7123	1.4643902
60	0x3f9e75a4	1.2379651
61	0x3f9e23ce	1.2354677
62	0x3fa41e0b	1.2821668
63	0x3fad0d54	1.3519692

11.bias f4 [64]
0	0xbf686ce2	-0.9079114
1	0xbf80e8a8	-1.0071001
2	0xbf8968f1	-1.073515
3	0xbf5e7227	-0.8689293
4	0xbf8a8782	-1.0822604
5	0xbf91157c	-1.1334682
6	0xbf6d4a37	-0.9269137
7	0xbf848c77	-1.0355366
8	0xbf873019	-1.0561553
9	0xbf9fe64f	-1.249216
10	0xbf874d46	-1.0570457
11	0xbf446774	-0.76720357
12	0xbf78157b	-0.96907777
13	0xbf8269c3	-1.0188526
14	0xbf8c286c	-1.0949836
15	0xbf72167e	-0.9456557
16	0xbfa45c9d	-1.2840763
17	0xbf705172	-0.93874276
18	0xbf4c9229	-0.7991052
19	0xbf859323	-1.0435528
20	0xbf4d3490	-0.8015833
21	0xbfa2cc45	-1.2718588
22	0xbf62db04	-0.8861544
23	0xbf88785f	-1.0661734
24	0xbf799741	-0.9749642
25	0xbf7670fb	-0.96266145
26	0xbf5b485b	-0.8565728
27	0xbf96ed66	-1.1791198
28	0xbf8827d8	-1.0637159
29	0xbf9296a0	-1.1452217
30	0xbfa3434b	-1.2754911
31	0xbf5fa9ee	-0.8736867
32	0xbf58c461	-0.8467465
33	0xbf8d1ceb	-1.102445
34	0xbfa64ab1	-1.2991544
35	0xbfa663da	-1.2999222
36	0xbf48154e	-0.7815751
37	0xbf48f104	-0.7849276
38	0xbf7debcc	-0.9918792
39	0xbf44042e	-0.7656888
40	0xbfaca131	-1.3486692
41	0xbf82a733	-1.0207275
42	0xbf373b8f	-0.71575254
43	0xbf913edb	-1.1347307
44	0xbf737e8e	-0.9511498
45	0xbf8dc20d	-1.1074845
46	0xbf2cec39	-0.6754795
47	0xbf98fa27	-1.195134
48	0xbf81d34c	-1.0142608
49	0xbf8818c6	-1.063256
50	0xbf9a0898	-1.2033873
51	0xbf6d8114	-0.9277508
52	0xbf571c8f	-0.8402795
53	0xbfa94ff0	-1.322752
54	0xbf85daa8	-1.0457354
55	0xbfb8030c	-1.437593
56	0xbf957b2a	-1.1678212
57	0xbf72f895	-0.94910556
58	0xbf8ce834	-1.1008363
59	0xbf83b75d	-1.0290333
60	0xbf522504	-0.8208773
61	0xbf8570f3	-1.0425094
62	0xbf7c215e	-0.98488414
63	0xbf883aa6	-1.0642898

11.running_mean f4 [64]
0	0xbec17092	-0.37781197
1	0xbee21e26	-0.44163626
2	0xbee7dcbc	-0.45285594
3	0xbeb0c183	-0.34522638
4	0xbeead72d	-0.4586729
5	0xbeab77b7	-0.33489773
6	0xbef4b033	-0.4779068
7	0xbedaee31	-0.4275985
8	0xbe98cee4	-0.29845345
9	0xbe7f3ed0	-0.24926305
10	0xbf07befb	-0.5302579
11	0xbebbbb36	-0.36666268
12	0xbece6bbf	-0.4031658
13	0xbebac92e	-0.36481613
14	0xbe80b9ef	-0.25141856
15	0xbe98d044	-0.29846394
16	0xbe5dd6d7	-0.21663986
17	0xbf00f4da	-0.50373614
18	0xbe41c4d2	-0.18922737
19	0xbed17e1d	-0.4091653
20	0xbeba4b7e	-0.3638572
21	0xbefd781a	-0.49505693
22	0xbee09fdf	-0.43871972
23	0xbee6f1b6	-0.45106286
24	0xbe825720	-0.25457096
25	0xbee165ed	-0.44023076
26	0xbee5f588	-0.44913888
27	0xbe497005	-0.19671638
28	0xbeb0279e	-0.34405226
29	0xbe0a1b55	-0.13486989
30	0xbf04a9c6	-0.51821554
31	0xbef54a85	-0.47908416
32	0xbec00516	-0.3750388
33	0xbe90c73d	-0.28277007
34	0xbf0bf8cd	-0.54676515
35	0xbe9d4d7a	-0.30723172
36	0xbeda82ac	-0.4267782
37	0xbeadb0fb	-0.33924088
38	0xbef5b9e5	-0.4799339
39	0xbeec460d	-0.46147195
40	0xbed230df	-0.4105291
41	0xbed8e7f3	-0.42364463
42	0xbe800647	-0.2500479
43	0xbeb16d56	-0.3465373
44	0xbeff548e	-0.49869198
45	0xbdcc7428	-0.099830925
46	0xbed7c292	-0.42140633
47	0xbecb3a72	-0.39693028
48	0xbee23ae5	-0.44185558
49	0xbed776d6	-0.42082852
50	0xbf07459c	-0.5284059
51	0xbe9c3366	-0.30507964
52	0xbf2d8ed9	-0.67796093
53	0xbf0c9745	-0.5491832
54	0xbe53458d	-0.20632
55	0xbec2382c	-0.3793348
56	0xbeca527b	-0.39516053
57	0xbecb888a	-0.3975261
58	0xbed06d18	-0.40708232
59	0xbed71638	-0.4200914
60	0xbed4052d	-0.414102
61	0xbe9b035b	-0.30275998
62	0xbeed07da	-0.46295053
63	0xbf069851	-0.52576166

11.running_var f4 [64]
0	0x3e6225db	0.22084753
1	0x3e26f2d4	0.16303569
2	0x3e7f4a9f	0.2493081
3	0x3e099036	0.13433918
4	0x3e5b06ce	0.21389315
5	0x3e390073	0.18066578
6	0x3e52e233	0.205941
7	0x3e281996	0.1641601
8	0x3e02da26	0.1277853
9	0x3e018804	0.12649542
10	0x3e905cf1	0.2819591
11	0x3e520dd3	0.20513086
12	0x3e99afa0	0.30016804
13	0x3e0ee778	0.13955486
14	0x3e0b4e90	0.13604188
15	0x3e2e9df7	0.17052446
16	0x3e12fd9c	0.14354557
17	0x3e77e828	0.24209654
18	0x3dc87385	0.097876586
19	0x3e5041fc	0.20337671
20	0x3e048c68	0.12944186
21	0x3e81a4b3	0.25320968
22	0x3e75a598	0.2398895
23	0x3e3586af	0.17727159
24	0x3e4ee375	0.20203955
25	0x3e7336f9	0.23751439
26	0x3e381882	0.17978099
27	0x3dea7fff	0.114501946
28	0x3e268731	0.16262509
29	0x3de25724	0.11051777
30	0x3e677f77	0.22607218
31	0x3e6edaf0	0.23325706
32	0x3e804e7e	0.25059885
33	0x3df472c5	0.11935953
34	0x3e7a1d7d	0.24425311
35	0x3ddf09a3	0.1089051
36	0x3e82dd3f	0.25559422
37	0x3e783517	0.24239002
38	0x3e6d400d	0.23168965
39	0x3ec23ab4	0.37935412
40	0x3e23b693	0.15987615
41	0x3e18f133	0.1493576
42	0x3e2153db	0.15754645
43	0x3e01d139	0.12677468
44	0x3e859b82	0.26095206
45	0x3df126a4	0.11774948
46	0x3e1eafa2	0.15496686
47	0x3e403503	0.18770222
48	0x3e7a560a	0.24446884
49	0x3e1d0fea	0.15338102
50	0x3e8d75e2	0.27629
51	0x3e24f6e8	0.16109812
52	0x3eabff48	0.33593202
53	0x3e6586d2	0.22414711
54	0x3e179093	0.14801244
55	0x3e421345	0.18952663
56	0x3e157994	0.1459716
57	0x3e2102c4	0.15723711
58	0x3e211e7c	0.15734285
59	0x3e4e42a3	0.20142607
60	0x3e867c83	0.2626687
61	0x3e02a76e	0.12759182
62	0x3e6d7a23	0.23191123
63	0x3e5f0c91	0.21782137

16.weight f4 [32, 64]
0	0xbe30a490	-0.17250276
1	0xbda8f6de	-0.08250211
2	0xbe11cd76	-0.14238533
3	0x3eb2a261	0.3488951
4	0xbe287632	-0.16451338
5	0x3e87294e	0.263987
6	0x3ee9f6db	0.45696148
7	0x3dfc8eed	0.123319484
8	0x3d881f80	0.06646633
9	0x3e34f7cb	0.1767265
10	0x3d875769	0.06608469
11	0xbe6a1775	-0.2286051
12	0xbd77bd23	-0.06048311
13	0x3e031aef	0.12803243
14	0xbe3c409f	-0.18384026
15	0xbe52220e	-0.20520803
16	0x3d739ffb	0.05947874
17	0x3d4749ef	0.048654493
18	0xbdefbddf	-0.11706137
19	0x3e072182	0.13196376
20	0x3d4bf053	0.049789738
21	0xbda82062	-0.082093015
22	0xbe5a78d9	-0.21335162
23	0x3e025406	0.12727365
24	0xbc91ba51	-0.017789038
25	0xbcdbcd20	-0.02683121
26	0xbdf09777	-0.117476396
27	0xbd3f4fe0	-0.046707034
28	0xbe49ef90	-0.19720292
29	0x3e158f2e	0.146054
30	0x3ee5e450	0.4490075
31	0xbed330ce	-0.41248173
32	0xbcad9cab	-0.02119287
33	0xbdb58dfc	-0.08864972
34	0x3ea39a60	0.31953716
35	0x3d2769e3	0.040872466
36	0xbd976b5e	-0.073935255
37	0x3dbdd912	0.092699185
38	0xbe4bcc0e	-0.1990206
39	0xbea48be1	-0.3213797
40	0x3e0c7325	0.13715799
41	0xbb6a8aec	-0.003578837
42	0x3eb3cf22	0.35118967
43	0x3ca00b39	0.019536601
44	0xbeb03a0a	-0.3441928
45	0xbe24c2c2	-0.16089919
46	0xbe54c75d	-0.20779176
47	0x3d92ca43	0.071674846
48	0xbd326d4f	-0.043561276
49	0x3e14ebce	0.14543077
50	0x3d54bea5	0.051939625
51	0xbdb4ec5e	-0.08834146
52	0xbdb47045	-0.08810476
53	0x3e8613c0	0.26186943
54	0xbead8b7f	-0.3389549
55	0x3f183472	0.59455025
56	0xbe54c409	-0.20777906
57	0xbd3088e5	-0.043099303
58	0x3d1b5783	0.037925255
59	0x3eab884a	0.33502418
60	0x3c3c79b6	0.0115036275
61	0x3eacfa11	0.33784536
62	0xbe4951e0	-0.19660139
63	0x3e6b37ab	0.22970454
64	0xbf178c4d	-0.59198457
65	0x3e7ce395	0.2469619
66	0xbe777856	-0.24166998
67	0x3f09d6c1	0.53843313
68	0x3df3959d	0.11893771
69	0x3dad5170	0.084627986
70	0xbecf362d	-0.4047102
71	0xbea6ae0e	-0.32554668
72	0x3d9782f8	0.07398027
73	0xbf04f1d9	-0.5193153
74	0xbe75e550	-0.24013257
75	0xbe084c9a	-0.13310471
76	0xbe73fc76	-0.23826775
77	0x3e07cf73	0.1326273
78	0xbe427761	-0.18990852
79	0xbe9c0fa0	-0.3048067
80	0x3f60631f	0.87651247
81	0xbe0f44e0	-0.13991117
82	0xbe95c8f2	-0.29254872
83	0x3e0d4c24	0.13798577
84	0x3dcec883	0.10096838
85	0x3f495f80	0.78661346
86	0x3e5ffb11	0.21873118
87	0x3c5e1343	0.013554397
88	0x3eaf217e	0.3420524
89	0xbd888364	-0.06665686
90	0xbe85b1cc	-0.2611221
91	0xbeb4e701	-0.35332492
92	0xbc8de03b	-0.017318835
93	0xbe19968b	-0.14998834
94	0xbe466391	-0.19373919
95	0xbe829a00	-0.25508118
96	0x3e1db917	0.15402637
97	0xbdd94af9	-0.10610003
98	0x3f35e6a8	0.7105508
99	0x3eaae79e	0.33379835
100	0x3d22f663	0.039785754
101	0xbc58ecba	-0.013240034
102	0x3de49468	0.11161119
103	0x3e5414ea	0.20711103
104	0x3e562e70	0.20916152
105	0xbe325464	-0.17415005
106	0x3e50a4af	0.20375322
107	0xbe9b93cc	-0.30386198
108	0x3ea94719	0.33062056
109	0xbe8ec7d8	-0.27886844
110	0xbdf25557	-0.118326835
111	0x3f2c0578	0.67195845
112	0x3e0fbf0f	0.14037727
113	0xbbf8bac5	-0.007590624
114	0xbdd59a03	-0.10429766
115	0x3f2aac6c	0.66669345
116	0x3cc0dad1	0.02354184
117	0x3e61d84c	0.22055167
118	0x3f171aaa	0.5902506
119	0x3d195b83	0.037440788
120	0x3e86a168	0.26295018
121	0xbe996752	-0.2996164
122	0x3efee256	0.49782056
123	0xbeec4f52	-0.46154267
124	0xbf029a9d	-0.5101717
125	0x3e8f13d6	0.2794482
126	0xbde5ee85	-0.112271346
127	0x3e67a3ca	0.22621074
128	0x3ddbc39b	0.10730668
129	0xbe17a3e2	-0.1480861
130	0x3f3af8b3	0.73035735
131	0xbdf3fc40	-0.11913347
132	0xbee7f352	-0.45302826
133	0x3f1432ac	0.5788982
134	0x3e8eb619	0.27873304
135	0xbea217d7	-0.31658813
136	0xbe9560a6	-0.291753
137	0x3ed85003	0.42248544
138	0x3ee6059f	0.44926164
139	0xbd2a244d	-0.041538525
140	0x3edc1fb7	0.42992947
141	0xbe1ba8bf	-0.1520109
142	0xbeaca651	-0.3372064
143	0xbe196f26	-0.14983806
144	0xbc9040c5	-0.01760901
145	0xbe64d1e5	-0.22345693
146	0xbe8d661e	-0.27616972
147	0x3e96d788	0.29461312
148	0xbea9c577	-0.33158466
149	0xbde3bec0	-0.11120367
150	0x3e77347d	0.24141116
151	0xbec4fd33	-0.38474426
152	0xbec538aa	-0.38519794
153	0x3c9d9229	0.019234734
154	0xbdc441d6	-0.0958287
155	0xbf192e88	-0.59836626
156	0xbeebe530	-0.46073294
157	0x3eab84df	0.3349981
158	0x3d829f67	0.0637806
159	0x3d3467b1	0.0440442
160	0x3f2d7113	0.6775066
161	0x3dd87429	0.10569031
162	0xbe4053df	-0.18781994
163	0xbea54dfa	-0.32286054
164	0x3ecce5d8	0.40019107
165	0x3da96877	0.08271878
166	0x3d4b935d	0.049701083
167	0xbd48ce6f	-0.049024995
168	0x3f618a32	0.88101494
169	0xbf12d67f	-0.57358545
170	0x3df791be	0.12088345
171	0xbc3a5f62	-0.01137528
172	0x3e90ab86	0.28255862
173	0x3f22b1ce	0.6355256
174	0xbe62a950	-0.221349
175	0xbefca119	-0.49341658
176	0x3eeb0b5e	0.4590711
177	0xbeea1d0d	-0.4572529
178	0x3f27924f	0.65457624
179	0xbe8fbf35	-0.28075567
180	0x3e0efbd2	0.1396325
181	0xbf5cfad2	-0.8632022
182	0x3e42efdd	0.19036813
183	0xbec695b5	-0.38786092
184	0xbe8cbd7c	-0.27488315
185	0xbe9a1e60	-0.301013
186	0x3e7a17e0	0.2442317
187	0x3d2d2777	0.042273965
188	0x3e1873a3	0.14887862
189	0xbe189323	-0.14899878
190	0x3e51c317	0.20484577
191	0xbe10fa6a	-0.14158025
192	0x3e93cc23	0.2886668
193	0x3e7b9087	0.24566852
194	0xbede165f	-0.43376443
195	0xbcf00e13	-0.029303586
196	0xbf38351d	-0.71956044
197	0x3df55ac5	0.119802035
198	0xbe89d3e8	-0.26919484
199	0x3cfc06e0	0.030764997
200	0x3f39361f	0.7234821
201	0x3d870dc7	0.06594425
202	0x3df137f7	0.117782526
203	0xbdb8cb89	-0.09023196
204	0x3ecef77d	0.40423194
205	0x3e58428f	0.2111914
206	0x3ef6cae0	0.48201656
207	0xbda21b4e	-0.07915364
208	0x3f25f727	0.6483025
209	0x3e8e6c25	0.27816883
210	0x3e92ed81	0.28696826
211	0xbc574597	-0.01313915
212	0xbd2a7118	-0.04161176
213	0xbec18309	-0.37795284
214	0x3d970489	0.07373912
215	0x3e9d3c48	0.30710053
216	0xbeca91ae	-0.3956427
217	0xbefcc423	-0.4936839
218	0xbf395b25	-0.724047
219	0x3e51585d	0.20443864
220	0x3c51c648	0.012803622
221	0xbeae2d79	-0.34019068
222	0x3cfae39c	0.03062611
223	0xbf158a89	-0.5841451
224	0xbed7bc4e	-0.42135853
225	0x3e3f005c	0.18652481
226	0x3e9b7971	0.3036609
227	0x3e580e55	0.21099217
228	0xbe968be9	-0.29403618
229	0x3bb8d452	0.005640545
230	0x3f0fb019	0.5612808
231	0x3e026a49	0.12735857
232	0x3e0efc95	0.1396354
233	0x3d070c29	0.03297058
234	0xbed44c64	-0.4146453
235	0x3f396f11	0.724351
236	0x3eba5910	0.36396074
237	0x3e4c849e	0.19972464
238	0x3c795e78	0.015220277
239	0xbe965373	-0.29360542
240	0xbe6a4bb1	-0.22880436
241	0x3dd1e616	0.102489635
242	0xbdaa003c	-0.08300826
243	0xbe8388f8	-0.25690436
244	0x3ebdcd51	0.37070706
245	0x3ac460ac	0.0014982424
246	0xbd0b86e8	-0.034064204
247	0xbd6c164c	-0.05763845
248	0x3f09de6a	0.53855
249	0x3c6a0c44	0.014285151
250	0x3ec03370	0.37539244
251	0xbd9d8f62	-0.07693364
252	0xbd7a2b12	-0.06107623
253	0xbedd069e	-0.4316911
254	0x3e765ee6	0.24059638
255	0xbd6b18d8	-0.05739674

16.bias f4 [32]
0	0x3ddfc06c	0.109253734
1	0x3e0e4a6f	0.13895582
2	0x3ea43a23	0.32075605
3	0x3dc76026	0.09735136
4	0x3d3db248	0.0463126
5	0x3d2438e2	0.04009331
6	0x3e0c3e64	0.13695675
7	0x3e2de134	0.1698044
8	0x3e3b0905	0.1826516
9	0x3d8031a9	0.06259472
10	0x3de7bcf6	0.11315338
11	0x3e1f4022	0.15551808
12	0x3e980254	0.29689276
13	0x3cf9d765	0.030498216
14	0x3ec1e40a	0.37869292
15	0x3e6b4f6e	0.22979519
16	0x3d5c1c7b	0.0537381
17	0x3e1bcf86	0.15215883
18	0x3e0a092c	0.13480061
19	0x3da86879	0.082230516
20	0x3e21e68e	0.15810606
21	0x3e84d502	0.25943762
22	0x3d7cba87	0.061701324
23	0x3e326d02	0.17424396
24	0xbc81a7a2	-0.015827004
25	0x3d8427ac	0.06452879
26	0x3b9a7113	0.0047131865
27	0xbd8c1a1c	-0.068409175
28	0x3e257e05	0.16161354
29	0x3c11803c	0.008880671
30	0x3e40273c	0.18764967
31	0x3df0ae87	0.117520384
