03_AML2425_Unlearning/Practice/checkpoint/another_forget_model.pth (torch, 245636 bytes, 22 tensors)

0.weight f4 [32, 3, 3, 3]
000000 ef 94 0d 3e 83 72 e1 3d 09 a8 0f be 5e 3a 1a be
       0.13826345 0.110081695 -0.14028944 -0.15061328
000010 8b aa f0 bd 8d c3 a4 3d 92 43 13 bc a9 12 3a 3e
       -0.117512785 0.08045111 -0.008988278 0.18171181
000020 f4 d1 a1 bd 45 6b 3d 3e b8 7b 30 bd 60 82 de 3a
       -0.079013735 0.18497951 -0.043086737 0.0016976111
000030 54 5f 81 be 0c d2 33 be c3 42 08 bc d7 ea 26 bd
       -0.25268042 -0.17560595 -0.0083166985 -0.040751304
000040 cc 25 04 3e 0c ea 01 3e 14 1f f8 bd f8 28 3b be
       0.12905043 0.12686938 -0.12115303 -0.18277347
000050 1a 7b 39 bc 23 94 75 3d be 48 ee bd 07 53 2b 3e
       -0.011320854 0.059955727 -0.11634968 0.16730891
000060 13 a4 1b bd 26 8a d5 3d 85 2b 4f 3e b4 87 ac 3b
       -0.03799827 0.1042674 0.20231445 0.0052652005
000070 3f c4 a4 bb e1 cf 23 3e 20 22 9f bd ca d9 a6 3d
       -0.005028277 0.15997268 -0.07770181 0.08147009
000080 0a cb 1b 3d 65 49 82 bd 40 7d 85 be fc 23 1f be
       0.03803543 -0.06361655 -0.2607212 -0.1554107
000090 b9 cd 2d bd 8e 69 a9 3d 06 f0 df bc a5 92 00 3e
       -0.04243252 0.08272086 -0.027336132 0.1255594
0000a0 72 dc 1c be 8a 8b 75 be 14 5b b1 3d f8 6e b0 be
       -0.15318468 -0.23979011 0.0865995 -0.34459662
0000b0 4f b4 b0 be 5b a5 c7 bd a1 e4 73 bb 47 82 89 bd
       -0.34512565 -0.09748336 -0.003721513 -0.067143016
0000c0 37 9f d7 ba d7 53 b6 bc e0 52 b6 3d 30 cf a9 3e
       -0.0016450648 -0.022256775 0.08902526 0.33165884
0000d0 89 b1 d5 3d c4 79 ba 3c 08 29 2b 3d 92 41 67 be
       0.10434253 0.02276314 0.041787177 -0.22583607
0000e0 16 50 8b bd b3 2b 32 be c6 34 03 be a1 2a 21 bd
       -0.068023846 -0.17399482 -0.128131 -0.039347295
0000f0 07 c3 38 3e 63 30 8e 3e 2c 3d 1b 3e bd 61 95 3b
       0.18043147 0.2777129 0.15160054 0.0045587705
000100 e6 5a b8 3d 5d 20 83 bd e7 7e 8a bd 73 25 07 3d
       0.090017125 -0.06402657 -0.06762486 0.0329947
000110 0d fa 0b 3e 8d 29 9c 3d 45 7b 20 be 34 3c e9 bc
       0.13669606 0.07625113 -0.15672024 -0.02847109
000120 60 9d cf 3d ca 2d 74 3e d3 aa 6a 3e 94 37 8f 3d
       0.10137439 0.23845592 0.22916727 0.069930226
000130 67 2a fc 3c 56 3a ec bd 6e f1 22 be 50 b8 50 be
       0.030781938 -0.11534564 -0.1591241 -0.2038281
000140 64 38 3c be 0c 49 02 3e 7c f3 61 3e be 77 18 be
       -0.18380886 0.12723178 0.22065538 -0.14889428
000150 b8 95 bf 3c 88 b0 50 bd 49 ce cb bd 2f f5 c6 bd
       0.023386821 -0.050949603 -0.09951455 -0.09714734
000160 fb 97 95 3d af 23 b6 bb f0 98 03 3e 84 d8 65 3e
       0.073043786 -0.005558453 0.1285131 0.22445875
000170 b0 fd 1b 3e ac 69 a3 3d a0 dd 67 be e6 d3 8d be
       0.15233493 0.0797914 -0.22643137 -0.27700728
000180 11 0c 41 3d d7 bc f6 3b 00 ec b3 bd 7b 22 c8 bc
       0.047130648 0.0075298357 -0.08785248 -0.024430504
000190 2a 51 92 3e a9 73 33 3e 38 37 9e bd e7 51 b3 bd
       0.28577548 0.1752459 -0.07725376 -0.08755856
0001a0 77 3a 95 be 58 6e 12 3c 52 2e bb bd 1a 94 01 3d
       -0.29146168 0.008937441 -0.09139694 0.03163538
0001b0 ec 8f ad bc 2e d6 d0 bb d2 c5 35 bd 77 db ea 3d
       -0.021186791 -0.0063731885 -0.04437811 0.11467641
0001c0 13 33 83 be 34 55 4a 3e d6 23 11 3e 0a 4c 5c be
       -0.25624904 0.19759065 0.14173827 -0.21513382
0001d0 d3 fe 97 3d 68 a4 09 bb c5 5b e7 bc dd c3 53 3d
       0.07421651 -0.0021002535 -0.028242001 0.05170046
0001e0 e5 86 07 3e 07 3e de bd 14 18 1c bd 47 c7 32 3e
       0.13235052 -0.108516745 -0.0381089 0.17458831
0001f0 94 7d 5a be ff 82 14 3d cf 65 a5 3c ac 6c 51 bd
       -0.21336967 0.03625774 0.020190148 -0.05112903
000200 66 36 38 3c d7 bc b2 bc bd 15 c1 bd 2a 6e f3 3d
       0.011243438 -0.021818561 -0.094279744 0.118862465
000210 aa 84 4d bd 6f 58 cc bd 9c 6a 27 3e ba c1 0d be
       -0.050175346 -0.09977805 0.16349262 -0.13843432
000220 aa e8 3d bd 57 31 81 bd 57 5c a4 3c 05 d8 32 3e
       -0.046364464 -0.06308239 0.020063562 0.17465217
000230 a1 ff 4c 3e 82 cd 0d 3e 69 38 67 3e 5f 95 a1 3c
       0.2001939 0.13847926 0.22580113 0.019724546
000240 58 bf 00 be b5 49 8b bd fd 39 85 3e d8 79 5e bd
       -0.12572992 -0.06801168 0.26020804 -0.054315418
000250 f8 4c 3c be d9 64 1c be 42 76 49 be a5 1a 85 be
       -0.18388736 -0.15272845 -0.19674018 -0.2599689
000260 89 9c 5c bc 35 7f 42 3e 0c 00 2d 3e a6 05 25 bd
       -0.013465055 0.18993838 0.16894549 -0.04028859
000270 1e e2 10 3e 71 5e 2e be 64 cb a9 bc e5 37 0f 3c
       0.14148757 -0.17028214 -0.020726867 0.008741354
000280 27 a6 26 bd e2 dd b1 3c bc bf 69 be a6 c3 52 be
       -0.0406858 0.021712247 -0.22827047 -0.20582446
000290 95 ed 9f ba 4c 99 fb bc a4 d6 d3 bd 60 63 25 3e
       -0.0012201542 -0.030712746 -0.10343674 0.1615119
0002a0 8d 41 35 bd 90 a6 7f 3d f7 76 bf 3e 95 e9 ff bc
       -0.044251967 0.062414706 0.3739545 -0.03123931
0002b0 4c c1 5a 3e 55 bb 20 3c db 1d f2 bd e3 85 15 3e
       0.213628 0.009810288 -0.11822101 0.14601855
0002c0 65 ca 93 bd 92 eb 0b bd b8 43 eb 3d 3b 37 51 be
       -0.07216338 -0.034160204 0.11487526 -0.20431225
0002d0 31 e1 c4 3d 7a 81 24 bc 4b 57 b0 3c 8a 45 07 3e
       0.09613264 -0.010040635 0.021526 0.13210121
0002e0 80 5e c6 3d a5 a7 34 bd 06 4d 14 3d 1c c0 91 bd
       0.09685993 -0.04410519 0.036206268 -0.0711672
0002f0 e2 1e 7d be 72 e7 0d 3e 64 f3 69 3e 0c c0 45 3e
       -0.24718812 0.1385782 0.22846752 0.19311541
000300 4c d4 6d be fb aa ab bd cc 7e 59 be 9d 1f cf bc
       -0.23225516 -0.08382221 -0.21239775 -0.02528363
000310 6c d2 c3 bd 52 b4 4f 3d 75 ee 19 be 1f 7f 4f 3c
       -0.09561619 0.050709076 -0.1503237 0.012664585
000320 da 90 76 3c 27 4d 98 3d 46 04 2d be 4c ba 07 be
       0.015049184 0.07436591 -0.16896161 -0.1325466
000330 6f f1 80 3d 7a 24 84 3e 99 ac 37 3d 9d 1f ab 3d
       0.0629605 0.2580908 0.044842336 0.08355639
000340 00 19 c7 3c 02 61 bc bc 4e 47 92 bd b4 d0 b8 bd
       0.024303913 -0.022995476 -0.071425065 -0.09024182
000350 59 97 13 bc e4 5e 41 3d 94 a2 14 3d 03 3d 6c 3d
       -0.009008252 0.047209635 0.03628786 0.057675373
000360 85 63 32 3c c8 8f 2d be 41 f7 e6 3d a6 ba 2a be
       0.010887985 -0.1694938 0.11277629 -0.16672763
000370 06 a1 b3 3d c8 d7 56 3e bb b8 a5 3d 2d 46 0d 3e
       0.08770947 0.20980752 0.08091875 0.13796301
000380 6a 59 9c be 11 70 1e 3e 03 16 4d be 02 c6 53 bd
       -0.30536968 0.15472437 -0.20027928 -0.051702507
000390 70 6d 17 be 4b b9 8b 3d 93 0c 4b 3d b4 04 1a 3d
       -0.14787841 0.06822451 0.04957254 0.03760214
0003a0 35 29 98 3d ed ef c7 3c ec 4c 41 3e f3 a7 16 be
       0.074297346 0.024406398 0.18877 -0.14712505
0003b0 78 e3 84 3d 04 7e 28 be 42 03 0e 3c b7 61 af 3d
       0.06488699 -0.16454321 0.008667769 0.085635595
0003c0 67 14 4f bd 99 f6 2e 3e 73 70 2b be 0d 3f 28 bb
       -0.050556567 0.17086257 -0.16742115 -0.0025672347
0003d0 27 2d ce 3d 62 fc 11 be e7 29 44 3e b5 c1 05 be
       0.10067206 -0.14256433 0.1915661 -0.13062175
0003e0 cf b9 d3 3d 79 a1 4a 3d 12 be 52 bd 58 bb 29 3e
       0.103381746 0.0494704 -0.051450796 0.16575372
0003f0 ec f2 5e 3d 3a 2e 2e be 31 1c 44 be f5 c9 04 be
       0.054430887 -0.17009822 -0.19151379 -0.12967665

0.bias f4 [32]
000000 14 62 67 3e 2f 87 92 bd 94 03 81 3b 95 d8 5f bd
       0.22596008 -0.071546905 0.003937194 -0.054649908
000010 98 9b 87 bd 8c b6 7f bc 37 7b 9c 3d 21 61 dc bd
       -0.06621474 -0.015607487 0.07640689 -0.10760713
000020 5d a6 e0 bd 25 f2 32 3d e2 75 02 3d c5 0a 48 bc
       -0.10969231 0.04368796 0.031850703 -0.012209599
000030 91 10 16 3e e5 7a 4d 3e fe a5 08 be be 67 56 bc
       0.14654757 0.20066412 -0.13344571 -0.0130862575
000040 cc 7c 9d bd 28 f1 6d be 24 0c 58 be 8d 15 92 3d
       -0.07689819 -0.23236525 -0.21098381 0.07133017
000050 68 49 d3 3c 40 11 03 3e d5 91 22 3e 11 5d 14 be
       0.025791839 0.12799549 0.15875943 -0.14488627
000060 13 22 a0 3c 0c c9 2a 3e b0 7f da bd 94 89 38 3e
       0.019547498 0.16678256 -0.10668886 0.18021232
000070 2f 1d df 3d 17 ee 87 3e 37 4a 80 3d d7 8e 94 3c
       0.10894238 0.26548836 0.06264155 0.018134518

1.weight f4 [32]
000000 e7 bd 7a 3f 59 db 2e 3f 7a f3 78 3f 80 ab 55 3f
       0.9794602 0.6830345 0.97246516 0.83464813
000010 f6 27 b3 3f c9 6a 43 3f 2e 91 5a 3f c2 76 8b 3f
       1.399657 0.76334816 0.85377777 1.0895617
000020 f9 54 9f 3f a8 32 09 3f b2 d4 23 3f af d8 6b 3f
       1.2447807 0.5359292 0.6399642 0.9212751
000030 95 ef 7a 3f 3a 16 5d 3f 90 16 23 3f 3c 61 a0 3f
       0.98021823 0.8636204 0.637063 1.2529674
000040 fb a9 44 3f 9b fd 8f 3f bb 17 66 3f d3 14 5c 3f
       0.7682187 1.1249269 0.8987996 0.85969275
000050 db 32 71 3f 71 e3 8b 3f 62 8f 54 3f bc e5 83 3f
       0.94218224 1.0928785 0.83031285 1.0304484
000060 1f a2 48 3f d5 bf 88 3f 11 e0 76 3f 16 c7 32 3f
       0.7837238 1.0683542 0.9643565 0.6983503
000070 3c 05 77 3f 08 e0 15 3f a2 65 9b 3f 8d 63 72 3f
       0.9649236 0.5854497 1.2140391 0.9468315

1.bias f4 [32]
000000 46 6f e1 be 5a ee 00 bf bb e6 b0 be 11 24 e8 bd
       -0.44030207 -0.50363696 -0.34551033 -0.11335004
000010 74 5b 47 be d3 56 e5 be 64 46 80 be a0 01 48 be
       -0.1946848 -0.44792804 -0.25053704 -0.1953187
000020 a5 69 7c be 76 2f 6c bd 6d 86 17 be b7 17 ad be
       -0.24649675 -0.05766245 -0.14797373 -0.33807155
000030 7c 3e 2b bf 17 c3 77 be ae 6f 68 be 65 15 e1 be
       -0.6689222 -0.24195515 -0.22698852 -0.43961635
000040 f2 a0 a8 be 96 02 12 bf a7 68 c6 be cc 07 d2 be
       -0.32935292 -0.57035196 -0.38751718 -0.41021574
000050 21 fe 8a be 26 66 8e be d9 db 35 bd 36 a9 20 bf
       -0.2714701 -0.27812308 -0.044399116 -0.62758195
000060 a2 d3 08 bf c9 6b ec be eb 90 a3 be 0d 86 da 3d
       -0.53447926 -0.46175984 -0.319465 0.106700994
000070 87 15 8c bd 67 5f a1 3d 9f 07 9e be 30 66 85 be
       -0.068400435 0.07879525 -0.3086519 -0.26054525

1.running_mean f4 [32]
000000 e6 e9 60 3e e8 a9 3e be 78 6e c6 3c 76 dc 96 bd
       0.21964225 -0.18619502 0.024222597 -0.07366268
000010 f4 00 a6 bd e4 30 7c bd 5a d1 c8 3d 69 2b bc bd
       -0.081056505 -0.061570063 0.09805556 -0.09187967
000020 f4 99 e9 bd ad de 2e 3e 07 68 5d bc f7 1f 67 bc
       -0.11406317 0.17077132 -0.013513572 -0.014106742
000030 79 33 bb 3d 37 82 36 3e 37 d5 0d bd 91 78 89 bc
       0.09140677 0.1782311 -0.034627166 -0.016781123
000040 5b ac 33 3d ce 20 7a be 70 33 37 be b5 62 44 3d
       0.043865543 -0.24426576 -0.17890716 0.047945697
000050 7e a2 e6 3c e1 1d 10 3e 9d 34 21 3e 02 0e f9 bd
       0.028153654 0.14073898 0.15742727 -0.12160875
000060 b3 06 0c 3e 9a 74 36 3e 65 9f a3 bd d1 67 2d 3e
       0.1367443 0.17817917 -0.079893865 0.16934134
000070 8a 1e f4 3d c7 f3 c9 3e 52 7f a5 3d 03 61 93 3c
       0.11919887 0.394438 0.08080925 0.017990595

1.running_var f4 [32]
000000 19 26 d1 3d 13 49 2e 3f 4c ad 68 3d 92 a0 8a 3e
       0.10212345 0.6808025 0.056805894 0.2707563
000010 ff 2f 4f 3d 5f a6 83 3d e7 fb 16 3d 2c bd 6e 3d
       0.050582882 0.06428217 0.036861327 0.058285877
000020 42 75 dd 3c ef 15 07 3e e4 9d 9b 3d 7a 7b e4 3c
       0.027033452 0.13191961 0.075984746 0.02789091
000030 74 05 50 3e f4 3e 05 3d 7e 6f 37 3f 9d 5b 75 3c
       0.2031458 0.03253074 0.716545 0.014975456
000040 7a 08 6a 3e 51 22 99 3d 96 57 18 3d bd d9 32 3d
       0.22854796 0.074772485 0.037192903 0.043664683
000050 39 b6 26 3d 4b 7f 4e 3d 0c 55 b3 3e 5d 98 a8 3d
       0.040701125 0.050414365 0.35025823 0.08232186
000060 1a 7c 27 3e ed 20 2e 3d 55 c0 2e 3e aa 9e 4c 3e
       0.16355935 0.04251187 0.17065556 0.199824
000070 64 c8 8c 3e 74 1d 96 3d 96 f6 04 3d 0e a3 9b 3b
       0.27496636 0.073298365 0.032461725 0.0047496622

5.weight f4 [64, 32, 3, 3]
000000 5b c4 c7 bc 13 3a 05 38 e8 f9 ed bc d3 47 68 3d
       -0.024385622 3.1763757e-05 -0.029049829 0.056709122
000010 bc fc 0c 3d fa c0 6d 3d ed 73 4e 3e b4 1f 26 3e
       0.034420714 0.058045365 0.2016141 0.16223031
000020 0b 42 74 3d 9e c2 25 3e e8 7c ba 3d ff 7f 99 3d
       0.059633296 0.16187522 0.09105855 0.074951164
000030 35 e9 62 3d e4 10 2c 3c 3c 43 b0 bb f4 92 a3 bc
       0.055398185 0.010502074 -0.0053791087 -0.019967534
000040 70 bd c3 bd db 2d 45 be ba 25 3f bb f4 32 ec bc
       -0.09557617 -0.19255774 -0.0029166774 -0.02883289
000050 8a d5 00 3e 8c b9 30 be 77 2a f7 bd 3d dd fd bb
       0.12581459 -0.1725828 -0.120686464 -0.007747321
000060 d3 5b 3c be db 7f 46 be 4e 71 b0 bd 88 c2 a2 3c
       -0.18394403 -0.1938471 -0.08615361 0.01986815
000070 71 56 90 3d bb 20 09 3d 4e c7 73 3d 80 be 97 3d
       0.070477374 0.03347848 0.059516244 0.07409382
000080 0a 7a c0 3d 19 21 ff bc 33 1b 31 3e 8f 1b 4f be
       0.09398277 -0.031143712 0.17295532 -0.20225357
000090 10 da 01 bc 6c 24 71 3d b2 45 9c bc 7e 44 46 ba
       -0.007925525 0.058872625 -0.019076202 -0.0007563307
0000a0 45 51 fd 3d d4 ae b2 bd aa 72 0f be 3b 4a ab 3d
       0.123690166 -0.08724752 -0.14008585 0.08363768
0000b0 78 ce 96 bd fd ec 99 bd 43 9d 19 bd 7d d7 54 bc
       -0.073635995 -0.07515905 -0.037503492 -0.01299083
0000c0 de f7 20 bd c8 81 04 3d 7b 2d 46 3d 3d 18 d2 bd
       -0.039298885 0.03235033 0.048383217 -0.10258529
0000d0 d9 e6 ee 3c b6 20 ec bc eb db f6 bd 63 3a 44 bd
       0.029162811 -0.028824192 -0.12053665 -0.047907244
0000e0 fe dc 1f bc dd 44 aa bd b4 15 1d 3a 1e bc 25 bd
       -0.0097572785 -0.08313916 0.0005992309 -0.040462606
0000f0 7a 64 ee bd 4e 9c 8d 3c d7 52 49 be 28 84 33 bd
       -0.11640258 0.017286446 -0.19660507 -0.043827206
000100 26 fc 66 bc 35 3c 32 3d 5a 94 13 3d 33 f2 52 3b
       -0.014098203 0.04351445 0.03603015 0.003218782
000110 a8 30 30 bb 9d d7 b5 3c 91 71 8e 3a 65 10 c9 bd
       -0.002688447 0.022197539 0.0010867586 -0.0981758
000120 89 03 02 3e be 0a 11 3e 3a 6b e7 3b 3c 13 23 3e
       0.12696661 0.14164254 0.007062343 0.15925306
000130 f5 4a 34 3e 40 a5 a3 3d 77 c3 23 3e 96 70 47 3e
       0.17606719 0.07990503 0.15992533 0.19476542
000140 1d 99 dd bd 56 3d 8b bd 3d 6f 36 be e3 3c d1 3b
       -0.1082022 -0.06798808 -0.17815872 0.006385432
000150 bf b0 c6 bc 91 85 25 bd e0 3f 1e 3d 61 bb 4e bb
       -0.024254201 -0.040410582 0.038635135 -0.0031544792
000160 3d 3a 92 3d a7 a0 b7 3b 1d ae 2f 3d 39 42 01 3c
       0.07140014 0.005603868 0.042890657 0.007889324
000170 4e 3f 33 bd e1 53 74 bd 88 ab 12 be 43 e6 d8 bd
       -0.043761544 -0.059650306 -0.14323246 -0.10590794
000180 18 30 de bd 37 0e a5 bd ba 55 b5 bc f8 a1 c7 bd
       -0.10849017 -0.08059352 -0.022135604 -0.0974769
000190 2c fb 27 bd 41 26 09 be 02 b2 36 bd 69 b3 7a bc
       -0.04101102 -0.13393499 -0.044603355 -0.015301564
0001a0 04 0d c2 bc dc 9b 00 be f4 f7 db 39 46 d3 50 be
       -0.023687847 -0.12559456 0.00041955675 -0.20393094
0001b0 7e 3f 5d be 62 7b 65 be f4 f0 5e be 55 10 c8 bd
       -0.21606252 -0.22410348 -0.21771604 -0.0976874
0001c0 6d 8a 25 bd 3e 72 c9 3c bf 5c b0 bd f5 ff 11 3d
       -0.040415216 0.024590608 -0.0861144 0.03564449
0001d0 60 18 24 3e aa 25 f0 3c 11 1c 00 3c 22 f1 d6 bd
       0.16024923 0.029314835 0.007819192 -0.10495211
0001e0 7d 8c 62 bc 7e 29 40 bd 9c 8b 07 be 0a a7 eb bd
       -0.01382744 -0.04691457 -0.1323685 -0.115064695
0001f0 39 e3 22 bc 28 cd 3b 38 ba ec 8a bc 08 cb 94 3d
       -0.009941869 4.477534e-05 -0.016958583 0.07265288
000200 b2 c9 94 bc 70 0a 21 3d 5c 17 57 3d 89 bf d9 3d
       -0.018162582 0.039316595 0.05251251 0.106322356
000210 4e 7e 1a be 52 f4 8e bd 0f 2b c2 bd 96 55 4b 3d
       -0.15087244 -0.06980194 -0.09480869 0.049642168
000220 03 7f a4 3d 4b 9d ba 3d 32 3c 9e 3c 6a 37 88 3d
       0.08032038 0.091120325 0.019315813 0.066511944
000230 50 72 58 bd e8 4c 2a be 3e ea 9a bc 62 e2 98 be
       -0.052843392 -0.166309 -0.018910524 -0.29860216
000240 4a 89 d8 3c bc d7 1b 3d 85 61 31 bb 79 8e 2f bc
       0.026432652 0.038047537 -0.0027066183 -0.0107151205
000250 f7 e2 01 3c 11 2f 19 3d ef e4 5e bd 89 d1 6f bc
       0.007927648 0.0373984 -0.054417547 -0.014637359
000260 57 8a 33 be e9 44 79 bd f7 ab 14 bc 7b 39 e7 3c
       -0.17533241 -0.060856733 -0.009074203 0.028225651
000270 18 43 53 3d e4 3f 8b 3d 22 b5 db 3d 92 b4 16 be
       0.051577657 0.067992955 0.10727908 -0.1471732
000280 4f fb f5 bd c5 25 da bd 40 e9 35 bd de bd 8e 3d
       -0.12010824 -0.10651735 -0.044411898 0.06969808
000290 1c 1f 2e bd e8 98 17 bb a2 aa 1e 3b 10 a4 14 3d
       -0.042510137 -0.002313191 0.0024210592 0.036289275
0002a0 51 cd 6d be f1 8f 38 be 38 2d cb bc 25 bd d2 3d
       -0.23222853 -0.1802366 -0.024801835 0.10289983
0002b0 60 bc 1b 3e aa f0 a8 3d dc 27 e9 3d 91 21 76 3d
       0.15208578 0.08249028 0.11384556 0.060090605
0002c0 42 06 8c 3c ce 28 af bd e5 83 17 3d 95 ef c5 bd
       0.017092828 -0.08552705 0.03699102 -0.09664837
0002d0 3d 0b ec 3d ce 70 ac 3d 91 61 8e 3d 98 d2 0c 3e
       0.11525581 0.08419953 0.06952203 0.1375221
0002e0 fa d1 a0 3d ad 15 f2 3c f8 fd de 3d ed d0 b1 bd
       0.0785255 0.029551351 0.108882844 -0.086824276
0002f0 17 4b 27 bd a3 49 b1 3d 2e e5 07 39 11 92 5d bd
       -0.040843096 0.08656623 0.0001295998 -0.054094378
000300 7e 30 21 3e a2 ed 4f 3c 24 7d 5e bd 7d 36 59 3b
       0.15741155 0.012690933 -0.054318562 0.003314405
000310 2a 84 98 3d f1 24 f5 3d ef 99 b5 bd a3 8d 05 3b
       0.07447083 0.11969937 -0.08867251 0.0020378612
000320 c4 ba ae bd 2f a0 68 bc 8d ae 2a 3d c0 0b 06 3d
       -0.085317165 -0.014198347 0.04167037 0.03272605
000330 0d 83 7a be 94 84 e3 bd 5e 80 ec bd ad f3 eb bc
       -0.24464054 -0.11109272 -0.115479216 -0.028802717
000340 f1 d2 a6 bd c1 be 60 be 23 71 26 bc ae 8e 21 bd
       -0.08145703 -0.21947767 -0.01015881 -0.03944271
000350 ae 8a 1f be 1a 1d 8c bd eb 3e 76 3d b9 85 a8 bd
       -0.15580246 -0.06841488 0.060118597 -0.082286306
000360 3d 7b 01 be 87 ff 5f bc ec 88 95 bd 4c 83 02 be
       -0.12644668 -0.013671762 -0.073015064 -0.12745398
000370 ce 0d 2c 3d 9f c1 77 3d 45 48 75 be 40 b5 b8 bd
       0.042005353 0.060487386 -0.2395335 -0.09018946
000380 5f 78 5b bd 12 9b d3 bc 2a ec 71 bc 71 4d c2 3d
       -0.05358159 -0.02583078 -0.014765779 0.09487427
000390 bc 1d da 3c aa 0a f7 3d be 6d c7 3d 53 da af bd
       0.026625507 0.12062581 0.097377285 -0.08586564
0003a0 c3 33 74 3d 60 65 07 3e e1 14 09 bc 3b 67 cc 3d
       0.059619676 0.13222265 -0.008366794 0.09980627
0003b0 d8 b6 7f 3d f7 42 68 3d 56 34 49 3c 7f 81 5f 3d
       0.062430233 0.056704488 0.012280544 0.054566856
0003c0 ba a0 83 3d 67 ba 0b 3e a9 f0 39 3e 1e ea 7f bb
       0.064271405 0.13645326 0.18158211 -0.0039049457
0003d0 37 75 f6 3d 42 ab 41 bc f9 06 2b 3c 4e ff d5 3c
       0.12034076 -0.011820616 0.010438674 0.026122715
0003e0 76 d5 c8 3b 22 92 c5 bd 1f 4e 19 be 48 e4 9b be
       0.006128962 -0.09647013 -0.14971207 -0.30447602
0003f0 38 aa 58 be bc 00 73 bd 26 3f d6 bc 18 3e 81 bd
       -0.21158683 -0.059326872 -0.026153158 -0.063106716

5.bias f4 [64]
000000 31 59 b9 bb de 12 25 bc 96 3e 93 bd 7b 49 79 bc
       -0.0056563844 -0.010075299 -0.07189672 -0.015215273
000010 73 8e 07 bb b1 fc 40 bd 23 4b b8 3d 3e 0d 83 bd
       -0.0020684272 -0.047115985 0.08998706 -0.0639901
000020 1d 83 b9 bd aa 6d 7b 3d 68 9a 2d bd 0a d9 c0 3d
       -0.09058211 0.06138388 -0.04238358 0.09416397
000030 8c fb 27 bc 4e fd 86 bd da 82 2d bd 1a 79 29 bd
       -0.010252845 -0.06591283 -0.042361118 -0.041375257
000040 36 e9 ab ba 43 71 8c ba 87 2f b1 39 f0 e8 a9 3d
       -0.0013115767 -0.0010714907 0.0003379548 0.082963824
000050 24 f6 ba bc b0 04 cc bb af 36 23 bc 1d 34 b6 bd
       -0.022822447 -0.0062261447 -0.009961768 -0.088966586
000060 98 cc 99 3d bf e0 89 3d f8 00 12 bd 74 7b b3 bd
       0.07509726 0.0673232 -0.035645455 -0.08763781
000070 29 e6 b8 bc 23 d9 50 3d 02 cd 7e 3d 8c 1e 06 bd
       -0.022570686 0.050988328 0.06220723 -0.032743976
000080 2a 2f 0e 3d ed 14 0e 3d 47 c3 24 ba e6 c7 a8 bd
       0.034712948 0.034687925 -0.0006285202 -0.082412526
000090 5b 40 19 bd 36 71 36 bd f0 99 e4 bd 5a c8 6a 3d
       -0.03741489 -0.04454156 -0.11162174 0.057319976
0000a0 8a 12 12 be 6a 4c 32 bd 45 ab 55 3d 97 7e 16 3d
       -0.14264885 -0.043529905 0.05216529 0.03674182
0000b0 c1 3e 9e 3c 4d af 54 3d 29 0f 2b 3d 54 6b 45 bb
       0.019317033 0.051924992 0.041762505 -0.0030123787
0000c0 be 70 e0 bc b8 cd 75 bd 99 12 35 bd 89 86 2a bd
       -0.02739751 -0.06001064 -0.04420719 -0.04163221
0000d0 d6 65 5c bd 41 de d2 bb 8f 88 a2 bc 5b ba 91 3c
       -0.053808056 -0.006435186 -0.019840507 0.017789057
0000e0 43 3a 1c 3d b3 6d 5f 3c 5f 01 c8 bd 0c 9d 88 bd
       0.0381415 0.013636994 -0.097658865 -0.06670579
0000f0 44 29 bb 3d 9c 4d 4b 3d 94 e9 27 bd 96 5b cb 3d
       0.0913873 0.04963456 -0.04099424 0.09929578

6.weight f4 [64]
000000 cf d8 54 3f 45 e8 51 3f 64 2c 48 3f 03 0c 5d 3f
       0.83143324 0.8199504 0.78192735 0.86346453
000010 a5 a2 6c 3f ce 6c 5b 3f fe 8c 4e 3f 18 7d 5f 3f
       0.92435676 0.857129 0.80683887 0.8730025
000020 12 60 47 3f 73 47 4b 3f f4 23 79 3f c3 7d 43 3f
       0.77880967 0.794059 0.97320485 0.7636377
000030 01 55 5b 3f 58 f6 48 3f b0 f7 48 3f 26 04 4d 3f
       0.8567658 0.7850089 0.7850294 0.80084455
000040 e0 8e 5c 3f 65 5d 44 3f 95 a8 4a 3f a1 b4 5a 3f
       0.8615551 0.7670501 0.79163486 0.8543187
000050 45 ac 5f 3f 50 89 4a 3f bd 87 4f 3f 54 ab 3d 3f
       0.8737224 0.7911577 0.81066495 0.7408955
000060 f1 e1 53 3f 4d 43 58 3f 45 81 68 3f ff 43 35 3f
       0.82766634 0.8447769 0.9082225 0.7080688
000070 bb 04 4e 3f bc 3d 45 3f 6b d3 5c 3f a2 a0 54 3f
       0.8047597 0.77047324 0.862601 0.83057606
000080 30 2b 40 3f 3d ab 50 3f b1 a6 53 3f dc 10 51 3f
       0.750659 0.8151129 0.82676226 0.8166635
000090 14 a6 59 3f 94 28 52 3f 43 d2 43 3f ee c5 42 3f
       0.8501904 0.8209317 0.7649271 0.76083267
0000a0 d0 36 52 3f 7a 61 49 3f b3 f0 36 3f 5b c1 5c 3f
       0.8211489 0.7866436 0.7146103 0.8623254
0000b0 b2 58 40 3f 9e ef 35 3f e1 5e 3b 3f 6a f0 54 3f
       0.7513534 0.7106875 0.7319165 0.8317934
0000c0 17 e6 4a 3f b0 32 4d 3f bc 17 45 3f a6 37 57 3f
       0.7925734 0.8015547 0.7698934 0.8406929
0000d0 84 d6 25 3f 57 43 48 3f 94 e2 58 3f b0 46 5a 3f
       0.6478045 0.7822775 0.8472073 0.8526411
0000e0 61 e3 43 3f 66 ea 53 3f da 6b 53 3f 1e 77 5b 3f
       0.7651883 0.8277954 0.82586443 0.85728633
0000f0 54 cb 4c 3f 41 e4 55 3f 5e a4 58 3f 3e 98 3f 3f
       0.79997754 0.8355141 0.84625804 0.7484168

6.bias f4 [64]
000000 dc 52 1c bf a6 7f 1d bf bf 4d 22 bf 8d 3a 21 bf
       -0.61063933 -0.615229 -0.6339988 -0.62979966
000010 6c 0a 21 bf 13 6a 3c bf db 37 1b bf 8e 40 1f bf
       -0.6290653 -0.73599356 -0.60632104 -0.6220788
000020 c6 34 06 bf 97 31 e6 be fd 04 34 bf bc 0f 0b bf
       -0.52424276 -0.4495971 -0.7032011 -0.54320884
000030 e1 84 19 bf 27 0d 0e bf 26 d5 05 bf e8 22 1a bf
       -0.5996838 -0.5548882 -0.52278364 -0.6020951
000040 ab b9 1a bf 87 b1 0f bf 3b b3 f3 be e9 d8 06 bf
       -0.60439557 -0.5613026 -0.4759768 -0.5267473
000050 b1 24 0c bf 55 40 0c bf 5e bf 2f bf 60 81 f8 be
       -0.54743487 -0.5478566 -0.6865138 -0.48536205
000060 35 ec 21 bf dc 0d 1e bf c1 08 40 bf 82 8a f3 be
       -0.6325105 -0.617399 -0.7501336 -0.4756661
000070 10 fa 07 bf 7f 74 09 bf 89 79 df be dd f0 02 bf
       -0.5311594 -0.53693384 -0.4364741 -0.5114878
000080 41 ec eb be 1b 94 20 bf 94 2f 13 bf d1 0c 19 bf
       -0.46078685 -0.6272599 -0.57494473 -0.5978518
000090 ce a8 2b bf f7 e2 10 bf fb b3 32 bf 8f 04 07 bf
       -0.6705445 -0.5659632 -0.6980588 -0.5274133
0000a0 04 02 12 bf 43 05 1d bf f8 11 f5 be 76 da 10 bf
       -0.57034326 -0.61336154 -0.47865272 -0.56583345
0000b0 ff 60 da be 2c 2a fa be 07 cd e0 be ac 7c 0f bf
       -0.42652127 -0.488603 -0.43906423 -0.5604961
0000c0 c7 e0 24 bf 04 09 29 bf e1 44 15 bf b0 f1 18 bf
       -0.64405483 -0.6602938 -0.58308226 -0.59743786
0000d0 22 03 a1 be ed 61 17 bf 1e ea 27 bf e4 93 22 bf
       -0.31447703 -0.591338 -0.6559161 -0.63506913
0000e0 66 eb f5 be 99 f6 12 bf 16 fb 18 bf 0a 96 1e bf
       -0.48031157 -0.5740753 -0.59758127 -0.6194769
0000f0 fc 5f 0d bf 01 99 1d bf 17 6e 26 bf 54 62 0f bf
       -0.55224586 -0.6156159 -0.65011734 -0.5600941

6.running_mean f4 [64]
000000 8e eb 3b bf 63 ea 06 bf ab 0e d6 be b0 65 d7 be
       -0.734063 -0.52701396 -0.41808066 -0.4206977
000010 92 da 66 bf 0e 08 20 bf 2f 9d 59 bf 1c 46 f2 be
       -0.9017726 -0.6251229 -0.8500547 -0.47319114
000020 81 f9 06 bf 23 b4 35 bf b7 0a a8 bf 71 37 a4 be
       -0.5272446 -0.7097799 -1.312827 -0.32073548
000030 76 08 03 bf 47 ed f3 be 44 46 df be fa 6c 37 bf
       -0.51184785 -0.47641966 -0.43608296 -0.7165066
000040 66 91 31 bf 66 12 2d bf f3 b8 7f bf 1a 68 52 bf
       -0.69362485 -0.676062 -0.99891585 -0.82190096
000050 08 a2 6d bf f6 31 24 bf 63 76 e7 be 66 13 56 be
       -0.92825365 -0.64138734 -0.4520751 -0.20905837
000060 95 08 11 bf 91 5e 82 bf 1e 34 a1 bf 70 92 f7 3e
       -0.5665372 -1.0185109 -1.259403 0.4835391
000070 20 a9 01 bf 91 84 78 bf f7 a2 08 bf 3b a6 1e bf
       -0.5064869 -0.9707728 -0.53373665 -0.619724
000080 b0 a1 79 bf 2b 1b 04 bf 35 fb 41 bf 19 47 57 bf
       -0.9751234 -0.51603955 -0.75773937 -0.8409286
000090 86 01 fa be 66 56 d1 be 76 4a 48 bf 23 fd b8 be
       -0.48829287 -0.4088623 -0.7823862 -0.36130628
0000a0 19 a1 16 bf 3d 4d db be f8 da c4 3c e1 aa 8a bf
       -0.58839566 -0.42832366 0.024030194 -1.0833398
0000b0 6b e8 92 be e4 56 01 bf 06 84 34 bf ac 1f 40 bf
       -0.28692946 -0.5052321 -0.7051395 -0.7504833
0000c0 45 2c 56 bf 1f 9b 59 bf 7f 38 86 be 8f dc 61 bf
       -0.836613 -0.8500232 -0.26214978 -0.8822717
0000d0 d9 68 db be 9a 4e 35 bf 6a 69 c8 be 16 55 59 bf
       -0.4285343 -0.7082306 -0.39142925 -0.84895456
0000e0 1d 10 f0 be d7 2a 39 bf b0 07 21 bf f6 7c 30 bf
       -0.46887293 -0.72330993 -0.62902355 -0.68940675
0000f0 8c 04 14 bf 88 01 1e be 7d f1 65 bf ca 26 ff be
       -0.5781944 -0.15430272 -0.89821607 -0.4983428

6.running_var f4 [64]
000000 bd 77 8f 3f 82 e0 88 3f 35 aa 2d 3f 5a 65 51 3f
       1.1208416 1.0693514 0.6783784 0.81795275
000010 61 40 f3 3f 65 bd 3b 3f d2 56 89 3f 77 34 5e 3f
       1.9004022 0.7333587 1.072962 0.86798805
000020 f5 d2 2d 3f 67 56 82 3f 93 01 51 40 40 8d 33 3f
       0.6790002 1.0182618 3.265721 0.70137405
000030 e9 2d 48 3f 0d f1 2d 3f c7 e1 58 3f 4a 53 44 3f
       0.78195053 0.6794594 0.8471951 0.7668959
000040 4b 42 a3 3f 91 e5 5a 3f 20 ae f8 3f b0 2d 9a 3f
       1.2754606 0.8550654 1.9428139 1.2045193
000050 b7 9d bd 3f 5f 23 5c 3f 82 bd 33 3f 15 49 2e 3f
       1.4813756 0.8599147 0.7021104 0.68080264
000060 21 5a 37 3f 2f 14 03 40 be 6f 1b 40 79 a4 4a 3f
       0.716219 2.048107 2.4286952 0.79157215
000070 d8 61 5f 3f a1 51 9f 3f 0e 8e d3 3f b6 c8 84 3f
       0.8725867 1.2446786 1.6527727 1.0373752
000080 d6 f0 de 3f 48 f9 d2 3f ea 34 72 3f 74 f0 80 3f
       1.7417247 1.6482325 0.9461199 1.007338
000090 8f 79 33 3f 49 62 3d 3f 18 50 39 3f fb d2 1b 3f
       0.7010736 0.73978096 0.7238784 0.60868806
0000a0 23 01 98 3f 3d eb 1b 3f dc d8 74 3f 1f 4e fd 3f
       1.1875347 0.6090582 0.956434 1.9789466
0000b0 d1 9b 1d 3f 74 33 2f 3f 7d 1a b2 3f 17 d6 98 3f
       0.6156588 0.68437886 1.3914334 1.1940335
0000c0 44 4f 87 3f ce 43 3e 3f 67 3b 2f 3f 45 4b a2 3f
       1.0571065 0.7432221 0.68450016 1.267922
0000d0 ef 98 f7 3e b4 c2 76 3f a6 0c 3b 3f c1 42 b2 3f
       0.48358867 0.96390843 0.73066175 1.3926622
0000e0 a6 ff 79 3f d0 18 65 3f 6f f5 44 3f 49 7f 5f 3f
       0.97655714 0.89490986 0.76937 0.87303597
0000f0 ed 58 ca 3f d7 d0 5d 3f 5a 52 cd 3f 07 c8 46 3f
       1.5808388 0.8664679 1.6040757 0.7764897

10.weight f4 [64, 64, 3, 3]
000000 91 22 0c 3d bd a9 19 bd c4 cf 08 bc a5 16 88 bd
       0.034212653 -0.03751539 -0.008350316 -0.06644944
000010 68 56 04 be 91 a8 bc bd 2b 25 13 3e e9 35 e2 3d
       -0.12923586 -0.09211839 0.14369647 0.11045439
000020 bc 58 0a 3e 1b 38 41 bd 64 8c 1f 3e 85 8c e4 3d
       0.13510412 -0.047172647 0.15580899 0.111596145
000030 64 6e c1 bd ea 31 30 bc 84 f4 1b 3d ce b6 94 3c
       -0.094448835 -0.010754088 0.038074985 0.018153574
000040 62 7a 75 bb 1f 1c 51 bc 9c 1f 3e be 34 57 1c be
       -0.003745698 -0.012763052 -0.18566746 -0.1526764
000050 63 df d1 bd 27 b7 29 be 4d 2a d2 bd de 93 b1 bd
       -0.10247686 -0.16573773 -0.102619745 -0.086707816
000060 66 40 a2 3c fc f7 14 3d 4f ae a6 3d b6 59 ba bb
       0.019806098 0.03636931 0.081387155 -0.005686964
000070 c0 38 94 bd b7 90 b3 bd ed 8a 44 bc a0 ce b4 bd
       -0.07237387 -0.087678365 -0.011996013 -0.08828473
000080 37 f2 00 be cd 5a 4a be aa 49 82 be 3b bf 9d be
       -0.12592398 -0.197612 -0.25446826 -0.3080996
000090 50 3b f9 bd a5 1c ce bd 1f 2d 92 bd 45 79 3f bd
       -0.12169516 -0.10064057 -0.071375124 -0.04674651
0000a0 51 9a e7 bd 0b b6 2b be db 9f 10 bd 48 b6 d7 bd
       -0.113087304 -0.16768663 -0.0353087 -0.10532814
0000b0 ad 82 16 be ae b1 b2 3d cd 84 16 bd e3 5c 3d bd
       -0.14698286 0.08725296 -0.036747742 -0.04623116
0000c0 a0 23 14 bb 9d 43 a1 bd 16 ae dc bd 7d 87 6d bd
       -0.0022604242 -0.07874224 -0.10775392 -0.05799054
0000d0 87 a7 2e bd d8 3b 57 bd 5c af 8e bd 00 ef 6c 3d
       -0.042640235 -0.052547306 -0.06967041 0.057845116
0000e0 5c 4f 42 3d 64 e0 87 3d 1b 8c 5a 3c f9 92 2e 3d
       0.047438964 0.06634596 0.013339068 0.042620633
0000f0 98 26 2a 3e 37 1b 09 3e bb be d1 3d 8b b1 8d bc
       0.16616285 0.13389288 0.10241457 -0.017296573
000100 c8 90 00 be df a2 f4 bd af f7 49 bd 6a e5 f8 bd
       -0.1255523 -0.11945128 -0.049308475 -0.12153132
000110 19 05 db bd fa b6 12 bd 45 ba 02 3d a3 48 1a 3d
       -0.10694332 -0.03581903 0.03191592 0.037666928
000120 e7 d2 76 bd ac 58 4d 3d c4 c9 85 bd 3d 0d f3 bd
       -0.060259726 0.050133392 -0.06532624 -0.118677594
000130 cf e4 ba bc 8c f3 f4 bd 73 ce 21 bd 31 83 09 3d
       -0.022814183 -0.119605154 -0.039503526 0.03357238
000140 ef dc 7f 3d c6 a2 30 3e db ec 2f 3e 41 b3 85 3e
       0.062466558 0.17249593 0.17180197 0.26113322
000150 9b ef 82 bc a6 64 c2 bd 4b fb 9b bc 23 d4 1e bd
       -0.015983393 -0.094918534 -0.019040724 -0.038776528
000160 78 23 d9 bd c6 9b ef 3c fd 3a 98 3d 32 04 33 3d
       -0.10602468 0.029249083 0.07433126 0.043705173
000170 d2 53 48 3e b5 cf 9d 3c 30 d4 78 3d 2b d0 38 bd
       0.19563225 0.019264081 0.060749233 -0.0451204
000180 22 dd 24 bd 8d fe a6 3d 2f dc 70 3d ac bb cc 3d
       -0.04024995 0.081540205 0.058803733 0.09996733
000190 bf 75 2f 3d b4 9c 45 3d 36 cb 8b bc 66 53 5e bd
       0.0428369 0.048245147 -0.017064672 -0.054278754
0001a0 a1 b0 2b bd d3 a2 ec bd ec 0c cf bd b0 45 bc bd
       -0.041916493 -0.11554494 -0.101098865 -0.09192979
0001b0 69 79 05 3d 85 02 59 3c 0f 88 99 3a 97 7e f5 bc
       0.03258649 0.01324523 0.0011713522 -0.02996759
0001c0 35 e0 e3 bb 2f 6b 2d bd ca 70 b7 3d 5f 9a 84 3d
       -0.006954218 -0.042338546 0.0895706 0.064747564
0001d0 22 15 bc 3c 57 31 d2 bd 3c 4c 41 be 01 db 4c bd
       0.022959296 -0.10263317 -0.18876737 -0.050013546
0001e0 cf b8 49 bd 62 5e 24 be eb 34 0b be 01 4d d5 bc
       -0.049248513 -0.16051629 -0.13594405 -0.026037695
0001f0 4a 4e 4a be ea 03 53 be 2f 9c 89 3d fc cf d6 3d
       -0.19756427 -0.20606962 0.06719243 0.104888886
000200 1d ce 68 3b ac 52 ad 3d 2d 67 4a 3e 03 c8 69 3d
       0.0035523244 0.08463034 0.19765921 0.05707551
000210 24 99 18 3c 8d e8 d1 3d df 30 14 bd 1b 76 4e 3e
       0.009313855 0.10249434 -0.03617942 0.20162241
000220 b7 13 e4 3d 7a 83 e2 3d ef 2f e4 3d af f8 45 3d
       0.11136573 0.110602334 0.11141955 0.048332866
000230 47 2b 99 3d 3a a1 39 3c 10 1f 73 3c 83 77 c1 3c
       0.074789576 0.011329943 0.014838949 0.023616558
000240 a5 8d 02 3d 51 85 80 bd b2 f4 e8 bd cb 51 9b bd
       0.031873364 -0.06275428 -0.11374797 -0.0758396
000250 4f 09 ac bd 11 3c 04 be a3 bc 14 be 70 c6 a2 bd
       -0.08400213 -0.12913539 -0.14525084 -0.07948005
000260 b5 de 00 be 99 4c 1d 3d 8a 23 04 3e ee 26 ad 3d
       -0.12584956 0.038403127 0.12904182 0.08454691
000270 64 6a c5 bd e4 94 1d bd 2c 83 3d bc 86 5c fa bd
       -0.09639433 -0.03847207 -0.011566918 -0.12224679
000280 64 4e 7a 3d 24 2a 15 3e ed b0 c1 3c 5c a1 98 3d
       0.061109915 0.14566857 0.023643935 0.07452652
000290 16 bc 99 3d 22 01 dc 3d f8 38 fa 3d 15 ef 13 3e
       0.07506578 0.107424036 0.12217897 0.14446671
0002a0 c7 6a f9 3c d9 a7 10 3d 93 0a 0e 3e af bf ba 3d
       0.030446423 0.035316322 0.13871221 0.09118592
0002b0 e2 5d e2 bc 98 75 b7 3c f6 dc 0f be f3 36 5c be
       -0.027632657 0.02239494 -0.14049134 -0.21505336
0002c0 52 1c 15 be 16 ab 24 be ac cc 20 be f1 a7 a8 bd
       -0.14561585 -0.16080889 -0.15703076 -0.08235157
0002d0 f3 d3 22 bd 7d d4 ee bd bb da 3a bd b8 39 00 bc
       -0.03975291 -0.11661623 -0.045618754 -0.007826261
0002e0 33 9e 13 be 73 c6 cd bd b4 06 68 3d 17 33 46 bd
       -0.14415817 -0.10047617 0.056647018 -0.048388567
0002f0 d0 1f b8 bd 95 3a ad bc a5 b8 42 3d f2 36 d3 bd
       -0.08990443 -0.021146098 0.047539372 -0.10313214
000300 e8 58 74 bd e0 c0 37 bd a2 47 85 bd ef 80 e7 3c
       -0.0596551 -0.044861674 -0.065078035 0.028259723
000310 fa dd 1c 3d 64 76 ae 3d db ff ba bd f3 ee d9 bc
       0.03829763 0.08518675 -0.09130832 -0.026603198
000320 3d 4f 8c bd f0 6f 8a 3c b8 26 56 3d 0e 6f 13 3d
       -0.06851051 0.01689908 0.05228302 0.035994582
000330 1a 48 d9 3d cc 24 e7 3d de f1 1d 3e fd 0e e8 bd
       0.106094554 0.11286315 0.15424296 -0.11330984
000340 1d d9 a6 bd d6 f9 5a bc 3b a1 6e bc 03 21 35 bc
       -0.0814688 -0.01336523 -0.0145648075 -0.011055234
000350 1f 9a 1d 3d 51 2f 26 be 93 ee 0d bd ba 4d 35 bd
       0.03847706 -0.16228987 -0.03465135 -0.04426358
000360 81 65 ea bd af 6c 29 bd e1 db 39 bc 0a 2f 7f bc
       -0.114451416 -0.041363414 -0.011343927 -0.01557518
000370 37 21 47 3d fb 9c 97 bd 1e 11 c3 3d a7 83 4c 3c
       0.04861566 -0.074029885 0.09524749 0.01248256
000380 bd b8 d9 bd e6 81 bd 3d 83 a3 ae bd 78 cb f8 3d
       -0.10630939 0.09253292 -0.08527281 0.121481836
000390 1e d1 fd bc 27 a5 3d be 41 ec f0 3d 6c 68 7a bb
       -0.030983504 -0.18520032 0.11763812 -0.0038209213
0003a0 29 03 97 bd 31 6e 10 3e 63 28 2a be 95 f0 23 be
       -0.073736496 0.14104535 -0.16616969 -0.16009744
0003b0 f9 80 89 be eb 18 0f be 79 f4 12 be 1f 1a 64 be
       -0.2685621 -0.13974349 -0.14351071 -0.2227559
0003c0 4b 22 f2 3d d8 8f e3 3d 87 fb 23 3e 3e b4 c7 3d
       0.11822947 0.111114204 0.16013919 0.09751175
0003d0 e4 88 1d 3c e9 bc cb bb c4 86 d6 3c d4 1c a4 3c
       0.009615157 -0.006217588 0.026187308 0.020033278
0003e0 b9 81 b4 3c 2e 9a b2 bb 38 50 1a 3d 89 91 98 3c
       0.022034513 -0.0054505086 0.03767416 0.018624084
0003f0 a1 0f a9 3d 36 6a bd 3d c8 c1 c2 3c 35 5d 19 bd
       0.08254934 0.09248774 0.023774043 -0.037442405

10.bias f4 [64]
000000 e3 14 2d bc 73 81 d7 bc 74 a4 f9 bb 3e c8 09 3d
       -0.010564062 -0.026306843 -0.0076184813 0.03363823
000010 30 37 12 3c c1 5b 1d 3d ec 46 0c bd ae b7 7e bd
       0.008924291 0.03841758 -0.034247324 -0.06218689
000020 22 c9 a0 3d 13 74 7f 3d 34 a0 a1 bc 55 00 a9 3b
       0.07850863 0.062366556 -0.019729711 0.0051575103
000030 03 ab c1 3c 57 8d 2e bc c3 01 b3 3d 90 8f 1e 3d
       0.023641115 -0.010653815 0.087405704 0.03871113
000040 03 c0 a9 3d 87 fe 38 3c 5f fc 3d 3d a5 d0 18 3d
       0.082885765 0.011291153 0.046383258 0.037308354
000050 08 b2 6f bc 9f 1e 8b bc 99 2c 62 3d 6f e6 2e 3d
       -0.014629848 -0.016982375 0.055218313 0.042700227
000060 0d 81 28 3d b2 20 4e bc 7e e2 3e 3c e6 16 2c 3d
       0.041138697 -0.012581037 0.01165068 0.042014025
000070 34 ca a9 3c 85 22 d1 3c 19 46 0e 3c 86 13 aa 3c
       0.0207263 0.025529156 0.008683705 0.020761263
000080 ab 11 fb 3c 94 2d 93 3d f6 7b d0 3a 14 1b 62 bd
       0.030648073 0.07186428 0.0015906084 -0.055201605
000090 50 b6 34 bb bc d8 0c 3d 6b ed 07 bc 95 70 bb 3c
       -0.0027574487 0.03438638 -0.008296351 0.022880832
0000a0 a3 3f 5e bd 4a b0 7d bc 65 86 12 3d 6b 18 21 bd
       -0.054259907 -0.015483925 0.0357727 -0.039329927
0000b0 b4 f9 13 3c a1 ba 82 3d 1c 9c b2 bb 79 7a c0 bc
       0.009031702 0.06383253 -0.0054507386 -0.0234959
0000c0 7f 5e aa bc d1 59 52 bd 1e a5 37 3c 81 db 0f 3d
       -0.020797012 -0.051355187 0.011208801 0.035121445
0000d0 91 7d 0a bc bf 79 8b bc 7b fe d3 3c 0b 82 1c 3c
       -0.008452789 -0.017025826 0.025878182 0.009552489
0000e0 27 56 08 3c 1d 82 a3 3c 0f 34 93 3c 9d d5 1f bb
       0.008321322 0.019959504 0.01796916 -0.0024388798
0000f0 4b b2 99 3c c5 f7 2d 3b 0b c6 a8 ba 0f 8f 9b bc
       0.018761775 0.0026545387 -0.0012876404 -0.018989114

11.weight f4 [64]
000000 98 a7 a7 3f dc ca aa 3f be 9a a9 3f 7f 84 ad 3f
       1.309802 1.3343158 1.3250349 1.355606
000010 4b fc a9 3f 8b 89 a3 3f 24 ab a4 3f 79 e5 b3 3f
       1.3280119 1.277635 1.2864728 1.4054404
000020 04 43 a5 3f 33 6b ab 3f 5b 14 aa 3f c4 86 ad 3f
       1.2911077 1.339209 1.3287462 1.3556752
000030 f6 44 a8 3f e7 77 ae 3f a3 fe ab 3f 15 0d 9e 3f
       1.3146045 1.3630341 1.3437084 1.2347742
000040 cb 21 ac 3f 9b 8e af 3f 20 a9 a3 3f a5 dd a4 3f
       1.3447813 1.3715395 1.2785988 1.288014
000050 cd 3e af 3f ca 67 a9 3f 11 3e 9f 3f 3f 8f a9 3f
       1.369104 1.3234799 1.2440816 1.324684
000060 41 05 b2 3f ea 53 a3 3f 68 bc 9d 3f 12 1d ba 3f
       1.3907853 1.2759984 1.2323122 1.4540122
000070 67 18 ad 3f 5f 3a b2 3f 98 5b 9f 3f d5 fb a6 3f
       1.3523072 1.3924063 1.2449827 1.3045603
000080 bf 31 a4 3f 30 05 a7 3f 4a 10 aa 3f 8d e2 ac 3f
       1.2827681 1.3048458 1.3286221 1.3506638
000090 cf c6 93 3f 27 24 9c 3f 98 1c a7 3f 1b 9d a3 3f
       1.1545047 1.2198533 1.3055601 1.278232
0000a0 10 dd 9a 3f 27 a8 a6 3f a1 f1 b9 3f c3 ec ad 3f
       1.2098713 1.3020066 1.4526864 1.3587879
0000b0 29 e9 9f 3f 94 5c b4 3f 8e 3f a8 3f 54 e7 af 3f
       1.249303 1.4090753 1.3144395 1.3742471
0000c0 88 e2 a7 3f 93 65 ad 3f 02 03 a3 3f a3 79 ad 3f
       1.3116007 1.3546623 1.2735293 1.3552746
0000d0 f0 a6 ab 3f 7f c4 a5 3f 0a c9 a5 3f f9 73 c8 3f
       1.341032 1.2950591 1.2951977 1.5660392
0000e0 c5 f4 a0 3f d2 9d ad 3f f8 0b a1 3f 99 6a bb 3f
       1.2574698 1.3563788 1.2581778 1.4641906
0000f0 f7 75 9e 3f 08 27 9e 3f 23 25 a4 3f 26 0b ad 3f
       1.237975 1.2355661 1.2823833 1.3519027

11.bias f4 [64]
000000 bd 7f 68 bf 4c eb 80 bf 78 64 89 bf f9 6b 5e bf
       -0.90819913 -1.0071807 -1.0733786 -0.86883503
000010 47 89 8a bf 1c 1b 91 bf 4f 4d 6d bf a7 8f 84 bf
       -1.0823144 -1.1336398 -0.9269609 -1.0356339
000020 36 26 87 bf 3b db 9f bf 24 53 87 bf fc 69 44 bf
       -1.0558536 -1.2488779 -1.0572248 -0.7672422
000030 5a 25 78 bf 08 75 82 bf 5a 32 8c bf 6b 1a 72 bf
       -0.96931994 -1.0191965 -1.0952866 -0.9457156
000040 b0 60 a4 bf e6 54 70 bf 2f b0 4c bf 05 96 85 bf
       -1.2842007 -0.93879545 -0.79956335 -1.0436407
000050 52 39 4d bf 33 cc a2 bf de dc 62 bf e3 77 88 bf
       -0.8016559 -1.2718567 -0.88618267 -1.0661587
000060 3e 9b 79 bf 75 74 76 bf 43 46 5b bf f8 f1 96 bf
       -0.97502506 -0.9627145 -0.85654086 -1.1792593
000070 46 26 88 bf 0a a2 92 bf 82 4f a3 bf dc af 5f bf
       -1.063668 -1.14557 -1.2758639 -0.87377715
000080 c0 c4 58 bf c7 23 8d bf ea 4f a6 bf 15 67 a6 bf
       -0.84675217 -1.1026543 -1.2993138 -1.3000208
000090 18 13 48 bf 5d f1 48 bf 51 f7 7d bf 87 03 44 bf
       -0.78154135 -0.7849329 -0.992055 -0.7656788
0000a0 3d ac ac bf 1c 9a 82 bf c6 3e 37 bf 4c 37 91 bf
       -1.3490063 -1.020328 -0.7158016 -1.1345
0000b0 84 7f 73 bf 5f c9 8d bf 9a f2 2c bf 54 f2 98 bf
       -0.9511645 -1.1077079 -0.6755768 -1.1948953
0000c0 64 cc 81 bf 3d 0d 88 bf b2 0a 9a bf 8c 87 6d bf
       -1.01405 -1.062904 -1.2034514 -0.92784953
0000d0 6a 19 57 bf 64 3c a9 bf 6c d9 85 bf 5f 0a b8 bf
       -0.84023154 -1.3221555 -1.0456977 -1.4378165
0000e0 ce 5c 95 bf 71 fb 72 bf e1 e7 8c bf 99 b8 83 bf
       -1.1668947 -0.9491492 -1.1008264 -1.029071
0000f0 7b 23 52 bf 5e 6f 85 bf be 17 7c bf 0e 3d 88 bf
       -0.8208539 -1.0424612 -0.9847373 -1.0643632

11.running_mean f4 [64]
000000 67 b1 bd be 05 16 e1 be 07 45 e8 be c3 81 b0 be
       -0.3704941 -0.43962112 -0.45365164 -0.34474
000010 82 e3 ea be 08 49 a9 be f7 66 f5 be be b0 dd be
       -0.458767 -0.3306353 -0.47930118 -0.43298906
000020 1a c1 97 be 88 63 7a be d7 82 07 bf 7e f8 bb be
       -0.29639512 -0.2445203 -0.5293402 -0.36713022
000030 d8 0f cf be ec 40 b9 be 1b a1 81 be 9c 9c 9a be
       -0.40441775 -0.36182344 -0.25318226 -0.30197608
000040 71 eb 60 be af bd 01 bf 9f b8 45 be 8e 03 d1 be
       -0.21964814 -0.5068006 -0.19308709 -0.40823025
000050 72 41 bb be a9 67 fe be 78 77 e0 be 8e cc e5 be
       -0.36573368 -0.4968846 -0.43841147 -0.44882625
000060 12 e3 83 be df 0b e1 be c5 a1 e9 be 75 98 42 be
       -0.25759178 -0.4395437 -0.45631233 -0.1900347
000070 08 2f b0 be e8 da 12 be 54 c0 04 bf 27 ac f7 be
       -0.34410882 -0.14341319 -0.5185597 -0.4837353
000080 d4 0c c0 be 38 e5 8d be 91 c9 0c bf ac ad 9c be
       -0.37509787 -0.27713943 -0.54995066 -0.3060125
000090 3b de d9 be 2b 26 af be 44 f3 f6 be 22 ed ec be
       -0.4255236 -0.34208807 -0.48232472 -0.46274668
0000a0 dc 64 d2 be 96 60 db be 97 8a 82 be ff 41 b3 be
       -0.41092575 -0.42847127 -0.2549636 -0.3501129
0000b0 10 60 ff be 38 1d d6 bd 22 9e d6 be c2 d4 d0 be
       -0.49877977 -0.10454792 -0.4191752 -0.4078732
0000c0 dc b0 e3 be 07 89 d9 be e8 a4 06 bf cd 51 9c be
       -0.4447087 -0.42487356 -0.52595377 -0.3053116
0000d0 17 06 2d bf 2b ec 0b bf 98 2a 53 be d6 8b c2 be
       -0.6758742 -0.5465724 -0.20621717 -0.3799731
0000e0 b4 79 c9 be 16 b0 cb be 89 a9 cf be ec a8 d8 be
       -0.39350665 -0.3978278 -0.40559033 -0.42316377
0000f0 b4 bd d3 be 24 6f 99 be 0e 8e ed be fe 79 07 bf
       -0.4135567 -0.29967606 -0.46397442 -0.5292052

11.running_var f4 [64]
000000 3a e1 61 3e 74 0c 29 3e a4 af 80 3e 14 05 0a 3e
       0.22058573 0.16508657 0.25134003 0.134785
000010 80 38 5b 3e 6f 87 37 3e 09 8b 54 3e 50 15 2a 3e
       0.21408272 0.17922758 0.20756163 0.16609693
000020 d7 e9 01 3e 32 f9 ff 3d 06 5c 90 3e bc a6 51 3e
       0.12686859 0.12498702 0.28195208 0.2047376
000030 2f 85 9c 3e 1a 94 0c 3e ff ae 0b 3e 32 b3 31 3e
       0.3057036 0.13728371 0.13640974 0.17353514
000040 82 35 15 3e 2e b9 7f 3e d3 93 cb 3d 3c 24 51 3e
       0.14571193 0.24972984 0.099403046 0.20423979
000050 f0 34 07 3e 84 5b 82 3e 02 23 77 3e 4c cf 33 3e
       0.13203788 0.25460446 0.24134448 0.17559546
000060 8d 10 50 3e 65 09 77 3e 7c 13 3a 3e 4f eb e7 3d
       0.20318814 0.24124677 0.18171495 0.113241784
000070 74 3c 27 3e d0 58 e4 3d e3 18 68 3e 7e d1 72 3e
       0.16331655 0.11149752 0.22665744 0.23712727
000080 9c 51 80 3e c4 74 ec 3d 8a 27 7e 3e 85 90 df 3d
       0.25062263 0.11545709 0.2481977 0.10916237
000090 3f 95 83 3e 3c fe 7b 3e 48 0c 6e 3e b6 86 c4 3e
       0.25699803 0.24608701 0.23246872 0.38384026
0000a0 6d a8 23 3e 2b 69 1a 3e 23 f8 21 3e b8 c3 02 3e
       0.15982218 0.15079181 0.15817313 0.12769973
0000b0 e6 c9 86 3e 25 c4 f4 3d f4 93 1f 3e 75 48 46 3e
       0.2632591 0.11951474 0.15583783 0.19363578
0000c0 af b4 7c 3e 08 9f 1e 3e 24 02 8d 3e d4 fe 25 3e
       0.246783 0.15490353 0.27540696 0.1621049
0000d0 74 64 ad 3e 36 b3 66 3e 60 f6 17 3e 5b 2e 46 3e
       0.33865702 0.22529301 0.14840078 0.1935362
0000e0 9d 3b 15 3e dd 0b 21 3e da a5 21 3e fa d7 51 3e
       0.14573522 0.15727182 0.15785924 0.20492545
0000f0 01 3b 88 3e b1 cf 02 3e 81 1b 70 3e d3 da 61 3e
       0.26607516 0.1277454 0.23447992 0.22056131

16.weight f4 [32, 64]
000000 7a 8d 30 be 95 8e a8 bd 2e 4b 12 be 47 c7 b2 3e
       -0.17241469 -0.0823032 -0.14286491 0.34917662
000010 57 71 28 be dd 43 87 3e 6b 49 ea 3e 97 33 fd 3d
       -0.16449486 0.26418963 0.45759138 0.123633556
000020 80 60 88 3d 10 73 35 3e 95 d9 87 3d e2 51 6a be
       0.06659031 0.17719674 0.06633297 -0.22882798
000030 e5 f6 76 bd de 68 03 3e 45 16 3c be 73 09 52 be
       -0.06029405 0.12832972 -0.1836787 -0.20511417
000040 46 c9 73 3d 84 99 48 3d 20 24 f0 bd 96 27 07 3e
       0.05951812 0.04897453 -0.1172564 0.13198695
000050 11 21 4b 3d f0 a4 a9 bd 1e 60 5a be 47 a7 02 3e
       0.04959208 -0.082834125 -0.21325728 0.12759124
000060 bf f8 8e bc 82 ee d5 bc 36 8f ef bd 02 3c 41 bd
       -0.017452596 -0.026114706 -0.11697237 -0.04717637
000070 70 3e 4a be cd 9d 15 3e 93 0d e6 3e 36 3d d3 be
       -0.1975038 0.14610977 0.4493223 -0.41257638
000080 39 39 ad bc d9 2d b5 bd b3 bb a3 3e 05 f9 27 3d
       -0.02114545 -0.08846635 0.3197914 0.041008968
000090 dc a8 96 bd 9c 1e be 3d 5a b4 4b be 2c 62 a4 be
       -0.07356426 0.09283182 -0.19893017 -0.3210615
0000a0 f9 8d 0c 3e 81 d7 68 bb 03 de b3 3e fc b3 a1 3c
       0.13726033 -0.003552884 0.3513032 0.019739144
0000b0 38 22 b0 be bc 0b 25 be 80 37 55 be 0b dc 92 3d
       -0.34401107 -0.16117758 -0.20821953 0.07170876
0000c0 6d d8 30 bd 71 23 15 3e 60 06 55 3d 20 b6 b4 bd
       -0.04317515 0.14564301 0.052008033 -0.088238
0000d0 8c e3 b3 bd ba 24 86 3e 01 8b ad be 42 4b 18 3f
       -0.087836355 0.26199895 -0.33895114 0.59489834
0000e0 81 3a 54 be 1e f2 2e bd e4 01 1c 3d 54 ad ab 3e
       -0.20725442 -0.04271137 0.03808774 0.33530676
0000f0 76 39 43 3c 90 0b ad 3e b1 bd 49 be 06 5e 6b 3e
       0.011915555 0.33797884 -0.19701268 0.22985086
000100 eb 92 17 bf 11 e5 7c 3e 7d 6d 77 be 2c d4 09 3f
       -0.59208554 0.24696757 -0.2416286 0.53839374
000110 bb a6 f3 3d 58 ef ac 3d a4 26 cf be c4 ad a6 be
       0.11897036 0.08444089 -0.40459168 -0.32554448
000120 a4 96 97 3d d4 f8 04 bf 56 da 75 be bf 63 08 be
       0.07401779 -0.5194218 -0.2400907 -0.133193
000130 13 16 74 be c4 b4 07 3e 8f 6e 42 be 2c 09 9c be
       -0.23836546 0.1325255 -0.18987487 -0.30475748
000140 a3 5c 60 3f 81 1f 0f be 76 de 95 be 42 5b 0d 3e
       0.8764135 -0.13976862 -0.29271287 0.13804343
000150 21 95 ce 3d 96 5c 49 3f fc ed 5f 3e fc 73 60 3c
       0.10087038 0.786569 0.21868128 0.013699528
000160 4b 20 af 3e 6b 6e 88 bd 91 d0 85 be 4a f0 b4 be
       0.34204325 -0.066616856 -0.26135686 -0.35339576
000170 7e 56 8e bc 5f a6 19 be 1c 56 46 be a8 a2 82 be
       -0.017375227 -0.15004872 -0.19368786 -0.25514722
000180 65 ac 1d 3e 4c 5c d9 bd 8a e2 35 3f f9 e8 aa 3e
       0.15397795 -0.10613307 0.71048796 0.3338087
000190 17 1e 23 3d c8 99 58 bc 9f b9 e4 3d e4 0e 54 3e
       0.039823618 -0.013220258 0.11168217 0.20708805
0001a0 b6 26 56 3e 18 66 32 be e2 a2 50 3e c4 7b 9b be
       0.20913205 -0.17421758 0.20374635 -0.30367863
0001b0 25 49 a9 3e 19 b0 8e be 94 38 f2 bd ee 0a 2c 3f
       0.33063617 -0.27868727 -0.11827198 0.6720418
0001c0 3a e7 0f 3e 77 4d f9 bb 1b 88 d5 bd c3 af 2a 3f
       0.1405305 -0.0076081115 -0.10426351 0.6667444
0001d0 cb 8c c2 3c 75 b8 61 3e ec 19 17 3f 3d 20 19 3d
       0.023748776 0.22043021 0.5902393 0.03738426
0001e0 7f 9b 86 3e 29 6c 99 be ce df fe 3e ae 46 ec be
       0.2629051 -0.29965332 0.49780124 -0.46147674
0001f0 24 95 02 bf a9 0f 8f 3e 55 d9 e5 bd 50 a1 67 3e
       -0.5100882 0.27941635 -0.112230934 0.2262013
000200 b2 a4 db 3d c2 6f 17 be 2a 04 3b 3f 97 d4 f3 bd
       0.107247725 -0.14788726 0.7305323 -0.11905783
000210 91 1a e8 be 88 39 14 3f f8 b7 8e 3e 0f f1 a1 be
       -0.4533277 0.57900286 0.27874732 -0.31629226
000220 4e 5c 95 be e2 51 d8 3e 33 10 e6 3e e1 49 2a bd
       -0.29171985 0.42249972 0.44934234 -0.041574363
000230 e2 1c dc 3e 76 93 1b be 3c a5 ac be 32 68 19 be
       0.42990786 -0.1519297 -0.33719814 -0.14981154
000240 3b cb 8e bc aa d7 64 be bf 76 8d be 6c cb 96 3e
       -0.017430892 -0.22347894 -0.2762966 0.29452074
000250 af ad a9 be 8d a7 e3 bd 11 52 77 3e 26 f2 c4 be
       -0.33140323 -0.11115942 0.241524 -0.38465995
000260 2a 34 c5 be 96 83 9c 3c 97 f9 c3 bd a3 32 19 bf
       -0.3851636 0.019105714 -0.0956909 -0.5984289
000270 f6 f0 eb be 9b 87 ab 3e 66 5a 83 3d c4 b4 34 3d
       -0.46082276 0.33501896 0.064137265 0.044117704
000280 ea 77 2d 3f 78 ce d8 3d 02 3b 40 be 04 47 a5 be
       0.677611 0.10586256 -0.1877251 -0.32280743
000290 95 e6 cc 3e 01 79 a9 3d 40 18 4c 3d e5 7d 48 bd
       0.4001967 0.08275033 0.049827814 -0.048948187
0002a0 bb 8b 61 3f 8f dd 12 bf c9 38 f7 3d 87 48 3a bc
       0.88103837 -0.5736932 0.12071378 -0.011369831
0002b0 b0 af 90 3e d8 be 22 3f 8f 67 62 be 92 9f fc be
       0.2825904 0.63572454 -0.22109817 -0.49340492
0002c0 01 1f eb 3e e7 1f ea be 70 8c 27 3f ee 99 8f be
       0.45922092 -0.45727465 0.65448666 -0.28047127
0002d0 97 1c 0f 3e cd 06 5d bf cf ee 42 3e 25 6d c6 be
       0.1397575 -0.863385 0.19036411 -0.38755146
0002e0 b7 b1 8c be 54 22 9a be 79 19 7a 3e bf 97 2c 3d
       -0.27479336 -0.30104315 0.2442378 0.042136904
0002f0 ac 73 18 3e af 95 18 be 33 16 52 3e 17 97 10 be
       0.14887875 -0.1490085 0.20516281 -0.14120136
000300 12 b9 93 3e 37 c7 7b 3e 24 32 de be f1 e8 f0 bc
       0.28852135 0.24587713 -0.4339763 -0.02940795
000310 eb 3f 38 bf a6 16 f5 3d cb e3 89 be cb ab fb 3c
       -0.7197253 0.119672105 -0.26931605 0.030721566
000320 8a 2d 39 3f 04 2f 87 3d 71 45 f1 3d 5d 6f b8 bd
       0.7233511 0.066007644 0.11780823 -0.09005616
000330 3e f0 ce 3e dc 42 58 3e fc b5 f6 3e 01 83 a1 bd
       0.40417665 0.21119255 0.48185718 -0.07886315
000340 8a e7 25 3f cf 6d 8e 3e b8 fe 92 3e 63 9c 59 bc
       0.64806426 0.27818152 0.2870996 -0.013281914
000350 9c 08 2c bd c4 6d c1 be 13 c0 96 3d 4b 1f 9d 3e
       -0.042000398 -0.37779057 0.07360854 0.30687937
000360 bb 89 ca be dd ed fc be 9b 62 39 bf 01 ca 51 3e
       -0.39558205 -0.49400225 -0.72416085 0.20487215
000370 09 65 4a 3c ac 24 ae be ec 72 fb 3c 3f 97 15 bf
       0.01235319 -0.34012353 0.030694447 -0.5843391
000380 85 e3 d7 be c9 f2 3e 3e c7 5f 9b 3e 85 a5 57 3e
       -0.4216577 0.18647303 0.3034651 0.21059234
000390 87 ab 96 be 4d ca bb 3b 38 9f 0f 3f 2e 30 02 3e
       -0.2942774 0.0057309032 0.56102324 0.12713692
0003a0 c9 52 0f 3e 49 92 05 3d 8b 4f d4 be 0e 61 39 3f
       0.13996424 0.03261021 -0.41466936 0.7241372
0003b0 e0 3b ba 3e 3c 1c 4c 3e ed 83 76 3c 54 4b 96 be
       0.36373806 0.19932646 0.015046102 -0.29354346
0003c0 c7 79 6a be ee a7 d1 3d 66 71 aa bd 37 87 83 be
       -0.22898017 0.10237108 -0.0832241 -0.25689098
0003d0 a0 bf bd 3e 37 1c 9f 3a 60 85 0c bd e7 5d 6d bd
       0.3706026 0.0012139146 -0.034306884 -0.05795088
0003e0 83 db 09 3f a4 d2 6a 3c db 1d c0 3e 62 11 9e bd
       0.53850573 0.014332447 0.37522778 -0.07718159
0003f0 37 b4 7a bd da 0f dd be c5 07 76 3e 28 23 6b bd
       -0.061207023 -0.43176156 0.24026401 -0.057406574
