03_AML2425_Unlearning/Practice/checkpoint/forget_model.pth (torch, 245340 bytes, 22 tensors)

0.weight f4 [32, 3, 3, 3]
000000 f8 3d 0d 3e 9a 11 e1 3d 20 29 11 be 6b 58 1b be
       0.1379317 0.10989685 -0.14175844 -0.15170448
000010 f5 b1 f2 bd 60 b9 a2 3d b5 0a 52 bc af 26 37 3e
       -0.11850349 0.07945514 -0.012819936 0.1788585
000020 3a 35 a4 bd a9 59 39 3e ab 55 3e bd c0 79 f5 ba
       -0.08017965 0.18100609 -0.046468418 -0.0018728301
000030 a2 b0 83 be 40 15 38 be fa 12 3d bc d7 28 3e bd
       -0.25720698 -0.17976856 -0.011540169 -0.046425667
000040 13 79 ff 3d 71 0d fe 3d 73 f9 fe bd fb ff 3d be
       0.12474265 0.124049075 -0.124499224 -0.1855468
000050 cd 19 71 bc 63 ed 64 3d 1f 09 f6 bd 83 c2 27 3e
       -0.014715624 0.055890452 -0.120134585 0.16382794
000060 ce 39 2f bd 7a df cd 3d a0 2f 4c 3e 40 49 52 3b
       -0.042779736 0.100523904 0.19940042 0.0032087117
000070 e8 5e a5 bb f9 73 23 3e 62 52 ad bd 0b ca a1 3d
       -0.005046714 0.15962209 -0.08462979 0.07899865
000080 59 ed 15 3d f9 99 96 bd c8 de 88 be 8d 08 23 be
       0.036603305 -0.07353587 -0.2673247 -0.1592123
000090 b3 14 39 bd a9 b6 a5 3d d8 33 e1 bc 6e 16 f7 3d
       -0.045185756 0.0809148 -0.027490541 0.12064825
0000a0 35 69 20 be e6 86 74 be 86 bb a3 3d e7 ee b3 be
       -0.15665133 -0.23879585 0.07994752 -0.35143206
0000b0 c3 8d b1 be 22 22 ce bd e3 41 02 bc b3 83 90 bd
       -0.34678468 -0.10065104 -0.007950279 -0.0705637
0000c0 f5 c9 a4 bb 54 bf d8 bc a9 87 b0 3d c6 7c a7 3e
       -0.005028958 -0.02645842 0.08619625 0.32712382
0000d0 14 39 ca 3d 46 d1 9b 3c 9f 28 35 3d 9e 7d 68 be
       0.09874168 0.019020688 0.044228192 -0.22704169
0000e0 cc 19 92 bd ef 4d 2f be f5 7b 06 be d1 f9 33 bd
       -0.071338266 -0.17119573 -0.13133223 -0.043939415
0000f0 67 62 38 3e 4a 4d 8b 3e 7a 80 15 3e 12 8d d0 3b
       0.18006288 0.27207404 0.14599791 0.006364473
000100 65 d6 b0 3d 8e 3b 8d bd da 65 88 bd 56 27 f3 3c
       0.086346425 -0.06896125 -0.06660052 0.029681843
000110 00 05 08 3e 71 ec 99 3d 2e 61 24 be 8b 90 05 bd
       0.13283157 0.07515801 -0.16052696 -0.03260855
000120 dd cd d2 3d 79 79 6f 3e 8e 53 66 3e 1d cf 92 3d
       0.102931716 0.23386182 0.22492811 0.0716841
000130 cc 52 e2 3c 34 26 f2 bd 34 f8 23 be 10 95 55 be
       0.027627371 -0.11823693 -0.1601265 -0.20857644
000140 50 11 41 be a2 b2 fc 3d d0 92 5f 3e 1f 8f 18 be
       -0.1885426 0.12338759 0.21833348 -0.14898346
000150 f0 19 a2 3c 80 f4 5a bd bf 55 cf bd 26 d0 ce bd
       0.019787759 -0.05345583 -0.10123777 -0.10098295
000160 cd 99 8f 3d b3 a6 fd bb 6c 76 01 3e 6b f1 64 3e
       0.07011757 -0.0077408194 0.1264283 0.22357719
000170 d3 30 1d 3e 8a 6b 9e 3d 7e 79 69 be d7 65 8e be
       0.15350656 0.07735355 -0.22800252 -0.27812073
000180 2d 60 36 3d a5 0f c6 3b 83 78 b5 bd 48 bb ee bc
       0.044525314 0.0060443454 -0.088608764 -0.029142037
000190 44 54 90 3e 96 f6 31 3e 27 b9 a7 bd aa 21 bb bd
       0.2818929 0.17379221 -0.08189612 -0.0913728
0001a0 26 df 96 be ba ee 88 3b ca b6 c1 bd b3 7c ef 3c
       -0.29467124 0.004178849 -0.09458692 0.029234266
0001b0 34 07 95 bc 13 26 62 bb 2c a3 2b bd 65 59 ed 3d
       -0.018191911 -0.0034507557 -0.04190366 0.11589316
0001c0 f6 18 83 be 30 4f 4a 3e b2 17 10 3e 77 f6 5d be
       -0.2560498 0.1975677 0.14071539 -0.2167605
0001d0 d9 8e 94 3d 00 6a 11 3a 1b 69 d1 bc a9 2a 5e 3d
       0.072538085 0.0005547106 -0.025562814 0.054239903
0001e0 e7 99 07 3e e3 88 df bd d9 b5 1d bd 5e bc 30 3e
       0.13242303 -0.10914781 -0.0385035 0.17259356
0001f0 50 ea 5c be db 60 0c 3d 4e 8f c2 3c 34 fb 3e bd
       -0.21573758 0.034272056 0.023749974 -0.046626285
000200 87 21 83 3c ee cf ad bc 40 d5 bf bd dd 86 f5 3d
       0.016007198 -0.021217313 -0.09366846 0.11988614
000210 5d c1 54 bd 3f eb cf bd 7f 01 26 3e 16 79 13 be
       -0.051942218 -0.101522915 0.16211508 -0.1440166
000220 c0 2b 50 bd 98 af 8b bd 09 e5 80 3c 61 6d 2f 3e
       -0.050822973 -0.06820601 0.015734212 0.17131568
000230 a1 d9 47 3e fa 18 09 3e f6 90 63 3e 53 b4 75 3c
       0.19516613 0.13388434 0.22223267 0.014996606
000240 ea 9b 06 be 36 ac 95 bd d4 6c 82 3e f7 77 72 bd
       -0.13145414 -0.07308237 0.25473654 -0.05919644
000250 44 75 40 be bf 6b 22 be fe f4 4e be 77 55 87 be
       -0.18794733 -0.15861414 -0.20210645 -0.26432392
000260 88 1b 99 bc b7 30 3b 3e 68 42 26 3e e6 f4 41 bd
       -0.018689886 0.18280302 0.1623627 -0.047352694
000270 31 69 0a 3e e3 1f 34 be 64 e1 e6 bc f0 29 24 3b
       0.1351669 -0.17590289 -0.028183647 0.002504941
000280 03 b6 3a bd 21 22 82 3c 2a 8a 6c be c3 cc 57 be
       -0.045583736 0.015885415 -0.2309958 -0.21074204
000290 35 f2 c6 bb f5 1a 07 bd 13 be dd bd e9 b1 20 3e
       -0.006071354 -0.032984693 -0.108272694 0.15692867
0002a0 8e 30 3f bd 88 a3 70 3d 36 a6 bd 3e 58 64 ea bc
       -0.046677165 0.058749706 0.3704087 -0.0286123
0002b0 c2 75 5a 3e 8d b3 f2 3b 9c 36 ec bd b6 8c 14 3e
       0.21333984 0.007406658 -0.115338534 0.14506802
0002c0 7d b0 9a bd 5d 2c 0c bd d4 a4 e6 3d 48 c2 54 be
       -0.07553194 -0.034221996 0.11261907 -0.20777237
0002d0 04 e5 c8 3d 45 f6 0d bc cb e9 b7 3c 20 54 0a 3e
       0.09809306 -0.008664672 0.022450348 0.13508654
0002e0 83 38 c9 3d 99 42 32 bd de 85 21 3d 43 b7 8d bd
       0.09825232 -0.043520544 0.039434306 -0.0691972
0002f0 50 a5 7c be 69 44 10 3e c0 cf 6e 3e 37 ac 49 3e
       -0.24672437 0.14088596 0.23321438 0.19694601
000300 cd 81 6b be 34 23 a5 bd f1 2c 57 be 87 ab bc bc
       -0.22998734 -0.08063355 -0.21013238 -0.02303101
000310 f0 dc bf bd 00 fe 55 3d 62 ad 1c be eb db 44 3c
       -0.09368312 0.052244186 -0.15300515 0.012015323
000320 50 b4 5a 3c c5 f3 93 3d a4 07 2e be 8d 52 09 be
       0.013348654 0.0722423 -0.16995102 -0.13410397
000330 33 a8 77 3d b0 da 82 3e b7 5f 2e 3d 50 ff a2 3d
       0.06046314 0.2555747 0.04257175 0.07958853
000340 a2 f2 aa 3c 27 04 de bc 4d 4e 99 bd 67 33 bf bd
       0.02086765 -0.02710159 -0.07485638 -0.09335976
000350 a4 65 4a bc 5f 01 2e 3d 7b 9f fd 3c 5d 03 58 3d
       -0.012353335 0.042481776 0.030959835 0.052737582
000360 4c 5d 6f 3c 35 d7 2c be c1 24 e5 3d ea ed 27 be
       0.014609646 -0.1687897 0.11188651 -0.16399351
000370 9a ce b4 3d 3d 7e 53 3e 92 a0 a5 3d 0f 59 0a 3e
       0.088284686 0.20653625 0.08087267 0.13510536
000380 12 1b 9f be 11 5a 26 3e 3c af 48 be de 3d 4c bd
       -0.3107534 0.16245295 -0.19598097 -0.04986369
000390 6f e1 10 be 0a 6e 93 3d 1d 55 47 3d 9d 3a 25 3d
       -0.14148496 0.07198723 0.048665155 0.0403391
0003a0 77 52 97 3d 32 27 ac 3c 14 3a 45 3e a5 4f 16 be
       0.07388776 0.021014784 0.19260436 -0.1467882
0003b0 d5 1d 7f 3d 86 65 26 be 06 92 e7 3b a8 73 a4 3d
       0.06228431 -0.16249666 0.007066968 0.08029872
0003c0 72 05 5c bd e1 a4 29 3e 85 75 31 be 29 d4 66 ba
       -0.05371613 0.16566803 -0.17329986 -0.0008805418
0003d0 e0 3f d0 3d 1b 37 11 be 58 cd 49 3e 47 9a 00 be
       0.10168433 -0.14181177 0.19707239 -0.12558852
0003e0 f9 d7 dd 3d 23 d3 6a 3d 61 79 37 bd 5f 49 30 3e
       0.10832209 0.057330262 -0.04479349 0.17215489
0003f0 7d 5c 68 3d 85 7c 2d be eb 94 43 be 9d ee fe bd
       0.05672883 -0.16942032 -0.19099776 -0.124478556

0.bias f4 [32]
000000 99 e9 62 3e 97 c3 90 bd 64 a1 a2 3b ab 97 5d bd
       0.22159423 -0.07068556 0.004963087 -0.05409972
000010 92 15 85 bd 61 27 81 bc 54 a0 9d 3d 68 77 db bd
       -0.06498255 -0.015765848 0.07696596 -0.10716134
000020 60 56 e0 bd 25 db 34 3d 30 20 15 3d d9 bf fe bb
       -0.10953975 0.044154305 0.03640765 -0.007774335
000030 2e 4b 15 3e a2 93 52 3e 5e 45 09 be a1 5f 15 bc
       0.1457946 0.2056413 -0.13405368 -0.009117038
000040 c4 c0 99 bd ac fe 6d be 0a b9 5a be 3c 9b 8f 3d
       -0.0750747 -0.23241681 -0.2135965 0.070120305
000050 be 2a c8 3c c3 cf 02 3e 0b 8d 21 3e 80 95 13 be
       0.024434444 0.12774567 0.1577646 -0.14412498
000060 58 90 a9 3c ab 24 28 3e e5 e4 d7 bd 56 29 3d 3e
       0.020698711 0.16420238 -0.10541705 0.184728
000070 5f 84 e2 3d de fb 88 3e 8f c9 80 3d 6a ba bc 3c
       0.11060404 0.2675466 0.06288444 0.023038108

1.weight f4 [32]
000000 98 be 7c 3f bb 26 31 3f 7c 53 7a 3f 7b 6d 56 3f
       0.98728323 0.69199723 0.9778364 0.83760804
000010 ed 23 b2 3f e0 0f 47 3f 81 9c 5b 3f c6 5f 8c 3f
       1.3917214 0.777586 0.8578568 1.0966728
000020 c5 ed 9e 3f ea 71 0a 3f b6 a7 27 3f 79 18 6b 3f
       1.2416312 0.5408007 0.6549028 0.9183422
000030 19 ce 7d 3f bc 7d 61 3f c8 3c 23 3f 24 c6 9f 3f
       0.99142605 0.8808248 0.6376462 1.2482343
000040 a5 19 45 3f d6 81 8f 3f 23 7a 68 3f f2 f4 5a 3f
       0.76992255 1.1211498 0.90811366 0.85530007
000050 90 18 6f 3f ab 80 8c 3f ce 6c 53 3f 4b 22 85 3f
       0.93396854 1.0976766 0.825879 1.040109
000060 d3 4b 4a 3f e5 f5 87 3f bb 1b 79 3f 67 bc 33 3f
       0.7902195 1.0621916 0.9730794 0.70209354
000070 c0 ea 73 3f a0 7d 14 3f 76 22 9c 3f 12 06 75 3f
       0.95280075 0.5800419 1.2198017 0.9571239

1.bias f4 [32]
000000 41 49 de be dd 1e fe be 9e 50 ab be b1 96 d3 bd
       -0.43415263 -0.49632922 -0.33459944 -0.103314765
000010 18 87 40 be f7 5e db be 23 03 7f be 77 51 38 be
       -0.18801534 -0.4284589 -0.2490354 -0.17999826
000020 a1 32 6e be af db 76 bd 47 44 08 be fe 0b aa be
       -0.23261501 -0.0602681 -0.13307296 -0.33212274
000030 ec a3 28 bf 72 8d 61 be 1d 0a 67 be 27 a4 da be
       -0.65875125 -0.22026613 -0.22562452 -0.42703363
000040 64 8f aa be a9 94 0f bf 92 f2 c2 be d2 9b cd be
       -0.33312523 -0.5608621 -0.3807569 -0.40157944
000050 71 c3 88 be 89 15 8d be 65 45 fb bc 9d 92 1e bf
       -0.2671161 -0.27555493 -0.030672738 -0.61942464
000060 83 a8 08 bf 12 43 eb be fe 3e 9f be 9d 94 f8 3d
       -0.5338213 -0.45949608 -0.31102747 0.12137721
000070 03 fb 6b bd 35 fe 88 3d 21 8b 9a be 13 e7 71 be
       -0.05761243 0.06689111 -0.30184272 -0.23623304

1.running_mean f4 [32]
000000 84 bb 60 3e c7 18 51 bd 85 14 1f 3c 4d 79 45 bd
       0.21946532 -0.05104902 0.009709482 -0.048211385
000010 e1 ea 86 bd 06 68 97 bb ee 36 a0 3d b1 aa e2 bd
       -0.06587768 -0.004620555 0.07822977 -0.11067713
000020 07 47 de bd 3d 38 bf 3c d3 e6 3a 3d 37 89 e1 bb
       -0.10853391 0.023342246 0.045630287 -0.0068828124
000030 7d c4 24 3e f2 35 52 3e c5 a1 18 be b7 0f 1e bc
       0.1609058 0.20528391 -0.1490546 -0.009647301
000040 cd bb a5 bd 7c b7 6a be 4d d8 5d be 5a ca a0 3d
       -0.08092461 -0.22921556 -0.21664543 0.078510955
000050 dd f7 be 3c 08 2b 05 3e 05 2f 22 3e 02 3d 15 be
       0.02331155 0.13004696 0.15838249 -0.14574054
000060 aa 39 d2 3a 56 95 26 3e 3e 3e d6 bd 3b bf 39 3e
       0.0016038914 0.16267905 -0.104610905 0.18139355
000070 b9 c4 e1 3d ba 0b 81 3e ec 78 83 3d af d9 bc 3c
       0.1102385 0.2520426 0.064195484 0.023053018

1.running_var f4 [32]
000000 02 58 e1 3d f8 4b 4b 3f f3 1e 2d 3d 05 6c 8c 3e
       0.11003114 0.79412794 0.042265844 0.27426162
000010 26 2c 86 3d ed 7f cb 3d 0b f3 09 3d e3 c4 66 3d
       0.065513894 0.09936509 0.03367905 0.05634011
000020 a3 b3 f5 3c de 57 12 3e 58 cc db 3d 01 75 c6 3c
       0.029992884 0.14291331 0.10732335 0.024225714
000030 f2 96 49 3e d4 96 d3 3c 24 e9 59 3f b1 70 89 3c
       0.19686487 0.025828756 0.8512137 0.016777368
000040 66 c4 6d 3e 67 ce cc 3d 49 5f 0c 3d ec 35 63 3d
       0.23219451 0.100003056 0.03427056 0.055471346
000050 97 36 3c 3d 90 70 4c 3d 23 20 e3 3e b0 d4 c3 3d
       0.0459505 0.049912035 0.44360456 0.09562051
000060 c1 95 4c 3e 58 4e 42 3d 17 48 1c 3e 51 c8 34 3e
       0.19979002 0.047437996 0.15261875 0.1765454
000070 0c 82 b2 3e ef b0 63 3d 2a 44 26 3d 34 2a cb 3b
       0.34864843 0.05558866 0.04059235 0.0062000994

5.weight f4 [64, 32, 3, 3]
000000 58 68 11 bd 80 98 35 bc bf 99 2d bd db 8e 37 3d
       -0.0354999 -0.011083722 -0.04238295 0.044813972
000010 72 80 a8 3c f5 4c 38 3d 03 7d 47 3e 87 07 1f 3e
       0.02056906 0.044995267 0.19481282 0.15530215
000020 07 cd 53 3d 14 64 1b 3e 9d c8 a6 3d d8 fb 86 3d
       0.0517092 0.15174896 0.08143733 0.06591004
000030 71 28 2f 3d d7 a9 07 ba 04 59 91 bc ab 33 04 bd
       0.042763177 -0.00051751494 -0.017742641 -0.032275837
000040 94 dc de bd 36 b2 51 be 8e 20 c2 bb 9c 54 f8 bc
       -0.10881916 -0.20478138 -0.005924291 -0.030313782
000050 2e ca fe 3d 5f 82 38 be 5d 44 02 be c3 26 77 bc
       0.124409065 -0.18018483 -0.12721391 -0.015084925
000060 95 d4 40 be 52 cd 4d be f3 5c ba bd 38 e1 44 3c
       -0.18831094 -0.20097855 -0.0909976 0.012016587
000070 a5 46 89 3d 26 df f5 3c 01 97 4e 3d c6 88 8d 3d
       0.067029275 0.030013632 0.050436977 0.06910853
000080 2f 81 ad 3d a8 20 0e bd cf 49 2e 3e 21 9a 56 be
       0.084719054 -0.034699112 0.17020343 -0.20957233
000090 2d 65 8d bc c2 4d 47 3d 6d 20 c6 bc 8c a0 1c bc
       -0.017260158 0.04865814 -0.024185384 -0.009559762
0000a0 8f d6 f0 3d 65 31 b5 bd f7 bb 14 be 86 48 9e 3d
       0.11759674 -0.08847312 -0.14524828 0.077286765
0000b0 b9 07 9a bd 4d 06 ab bd 01 36 3a bd 01 06 b1 bc
       -0.07521004 -0.08350811 -0.04546166 -0.021609308
0000c0 b4 ca 3d bd e6 d6 d8 3c 3d b6 2e 3d e6 3a db bd
       -0.04633589 0.026469659 0.042654265 -0.10704593
0000d0 04 b9 cc 3c 73 a4 0b bd d0 b4 01 be 94 cd 5b bd
       0.024990566 -0.034092378 -0.1266663 -0.05366285
0000e0 44 e3 79 bc c3 1f c0 bd 36 4e 0f bc c0 2a 50 bd
       -0.015251938 -0.09381058 -0.008746674 -0.05082202
0000f0 28 5b 02 be 97 96 20 3c 67 0f 56 be e9 8c 55 bd
       -0.12730086 0.009801528 -0.20904313 -0.052136336
000100 59 00 b9 bc 71 62 0c 3d b6 3e dc 3c fa 0b c7 bb
       -0.022583174 0.03427357 0.026885372 -0.0060744258
000110 63 29 30 bc 74 3c 40 3c 30 2c 16 bc fb b9 dd bd
       -0.010752055 0.011733163 -0.009165809 -0.108264886
000120 7f 2b f3 3d 9b b5 08 3e 74 1f 3e 39 2b 30 1b 3e
       0.118735306 0.13350527 0.00018131529 0.15155093
000130 79 3d 2b 3e ea 35 95 3d 89 02 1d 3e dc 41 41 3e
       0.16722669 0.07285674 0.15332998 0.1887278
000140 a0 57 e7 bd 35 47 9f bd b7 6a 3f be 50 9b 9d ba
       -0.1129601 -0.077772535 -0.18693052 -0.0012024436
000150 12 50 01 bd a0 d2 37 bd 40 fe 05 3d 33 2c fa bb
       -0.0315705 -0.044878602 0.032713175 -0.0076346635
000160 8f 4d 8c 3d 7d 94 bd b9 28 f9 27 3d 16 c1 c6 3b
       0.06850731 -0.00036159522 0.0410091 0.006065498
000170 ba ed 39 bd 00 60 84 bd 89 e5 15 be e4 a5 e0 bd
       -0.04539273 -0.06463623 -0.14638342 -0.10969141
000180 98 7b ec bd 7f 24 b2 bd 10 1f 06 bd 3c c6 de bd
       -0.11547011 -0.08698367 -0.032744467 -0.10877654
000190 bd aa 45 bd ec 96 0e be 3e 6d 65 bd a4 83 af bc
       -0.04825853 -0.1392476 -0.056012385 -0.021425076
0001a0 e7 7e 07 bd 83 ea 08 be a7 59 7b bb c3 7e 58 be
       -0.033080008 -0.13370709 -0.0038352998 -0.21142106
0001b0 a6 0d 69 be c6 10 71 be e4 7c 65 be 7a ea db bd
       -0.22759113 -0.23541555 -0.22410923 -0.10738082
0001c0 ed 64 4a bd 3c 62 89 3c 83 0a bf bd 90 12 e7 3c
       -0.049412657 0.016770475 -0.09328177 0.028207093
0001d0 fd 41 1b 3e c4 7c a0 3c ad ce e0 b9 fc a3 eb bd
       0.15161891 0.019590743 -0.00042878595 -0.11505887
0001e0 11 eb cc bc c6 a2 67 bd 0a 74 12 be ec ac 01 be
       -0.025014432 -0.056551717 -0.14302078 -0.1266362
0001f0 18 49 9e bc 04 3c 0f bc 6d e7 93 bc 5a 55 90 3d
       -0.019321963 -0.008742336 -0.018054688 0.070475295
000200 b7 58 b3 bc a8 fe 1b 3d a3 e2 49 3d b5 01 d3 3d
       -0.021892888 0.038084656 0.049288403 0.1030306
000210 38 fb 1b be a2 c3 97 bd 80 e3 cd bd cd 48 25 3d
       -0.15232551 -0.07410361 -0.10053158 0.04035263
000220 75 e4 9a 3d 90 66 ac 3d e8 d7 2e 3c 87 d9 7c 3d
       0.07563106 0.08418 0.010671593 0.061730888
000230 b8 56 76 bd f6 9a 2e be 6d ff b2 bc 1b cb 9a be
       -0.060141295 -0.170513 -0.021850312 -0.30233082
000240 a4 7e 80 3c c9 fe fb 3c 36 51 15 bc e4 5d bc bc
       0.015685387 0.03076114 -0.0091136005 -0.02299399
000250 32 19 cd ba 44 64 e3 3c fc 38 82 bd 41 c4 c5 bc
       -0.0015647768 0.027757771 -0.06358525 -0.024141433
000260 c9 c1 3c be 9a 4f 96 bd ae 70 90 bc a5 15 b2 3c
       -0.18433298 -0.073394015 -0.017631855 0.021738837
000270 38 94 1e 3d 79 0e 75 3d 37 91 d2 3d 0b 52 1e be
       0.03871557 0.059828255 0.10281604 -0.15460984
000280 c4 77 02 be 99 01 de bd 57 1a 5e bd a5 6c 80 3d
       -0.12741 -0.108401485 -0.05422434 0.06270722
000290 f3 f9 45 bd 61 a0 97 bc 15 f8 1e bc 52 ee c6 3c
       -0.048334073 -0.018509092 -0.009702702 0.024283562
0002a0 78 fd 7a be c5 7b 40 be 92 1b 19 bd 19 04 c2 3d
       -0.24510753 -0.18797214 -0.03737981 0.09473438
0002b0 78 03 13 3e 8d 05 9c 3d ae 16 d9 3d 97 f8 58 3d
       0.14356792 0.07618246 0.10600029 0.05297145
0002c0 67 3e 18 3c 3b 92 bf bd 74 c5 f8 3c f2 b4 d0 bd
       0.009292222 -0.09354063 0.03036759 -0.101907626
0002d0 73 b3 d5 3d bc 32 97 3d 94 c4 7b 3d a5 7e 02 3e
       0.10434618 0.07382724 0.06146677 0.12743624
0002e0 c6 90 8c 3d 8d 5c c1 3c 41 28 cd 3d ad 68 be bd
       0.06863551 0.023603702 0.100174434 -0.09297309
0002f0 b5 76 34 bd 82 e4 a4 3d 54 bc d3 bb cd 1b 77 bd
       -0.04405852 0.08051397 -0.0064616594 -0.060329247
000300 f2 46 19 3e 1a 7d 29 3b 84 55 84 bd 6c 26 12 bb
       0.1496847 0.002586192 -0.06461623 -0.0022300733
000310 6a 2b 8e 3d 83 a2 e4 3d 96 68 cb bd 32 75 db b8
       0.06941874 0.11163809 -0.099320576 -0.00010464563
000320 c9 13 b5 bd cc 62 be bc c0 30 23 3d ae 30 ec 3c
       -0.08841664 -0.02324047 0.039841413 0.028831806
000330 f6 10 7f be 99 cb e7 bd 6d 0e f3 bd bc 93 24 bd
       -0.24908814 -0.1131813 -0.11867986 -0.040179953
000340 4b 60 bc bd d4 22 66 be 9a f3 bd bc 8d d7 4e bd
       -0.09198054 -0.22474223 -0.023187447 -0.050498534
000350 8f f9 2d be 86 84 9a bd fa cf 57 3d b9 e3 b2 bd
       -0.1698973 -0.07544808 0.052688576 -0.08734841
000360 06 5d 0a be a5 53 c4 bc f0 4b ab bd 5f 97 0b be
       -0.13512048 -0.023965666 -0.08364093 -0.13631962
000370 65 a6 fd 3c 8e 99 50 3d 8a 95 7e be 4f 52 ce bd
       0.030963132 0.05092769 -0.24861732 -0.10074293
000380 f7 4c 83 bd 89 2a 15 bd c9 1d c0 bc 37 e3 ba 3d
       -0.06411164 -0.036417518 -0.023451703 0.09125369
000390 6b 1d 63 3c 64 6d e3 3d 6b ae b4 3d e2 70 be bd
       0.013861994 0.11104849 0.0882233 -0.092988744
0003a0 30 7e 5d 3d 79 c0 00 3e f8 86 86 bc 74 52 b9 3d
       0.05407542 0.12573422 -0.01642178 0.0904893
0003b0 0c 7a 59 3d 79 83 3a 3d 29 44 ec 39 3b 9c 31 3d
       0.05309491 0.04553554 0.0004506421 0.043361884
0003c0 a0 33 60 3d d2 dd 00 3e 3a 8e 2f 3e 35 3f 53 bc
       0.054736733 0.12584618 0.17144099 -0.012893488
0003d0 1a d3 e2 3d c9 43 c0 bc 0a 7e da ba 40 67 4e 3c
       0.11075421 -0.023469822 -0.0016669643 0.012597859
0003e0 74 7c da bb 6e 14 dd bd dc 14 27 be 1e aa a3 be
       -0.006667668 -0.10794912 -0.16316551 -0.31965727
0003f0 a4 4f 64 be ce a8 8e bd 14 d8 0e bd 0f 70 90 bd
       -0.22296005 -0.06965791 -0.034874037 -0.070526235

5.bias f4 [64]
000000 5b 5b c1 bb cd c7 41 bc 37 63 92 bd 7a 2d 9b bc
       -0.005900783 -0.011827421 -0.0714783 -0.018942583
000010 6d 02 6e bb ce 72 3f bd 02 40 bb 3d 50 47 7e bd
       -0.0036317364 -0.046740346 0.09143068 -0.062079728
000020 37 64 b1 bd 97 c5 73 3d 67 6a 24 bd 3c d6 bf 3d
       -0.086616926 0.05951461 -0.040140536 0.09367034
000030 64 b1 63 bc e9 aa 89 bd 32 a7 26 bd dd b5 2c bd
       -0.013897274 -0.06722052 -0.040686794 -0.042165626
000040 fa a5 16 39 d2 ef d0 3a e5 e3 95 ba 1b 78 aa 3d
       0.00014366946 0.0015940613 -0.0011435716 0.083236896
000050 9f b7 d2 bc 2f d5 9c bb d9 a9 2a bc 24 c5 b6 bd
       -0.025722323 -0.0047861557 -0.010416471 -0.0892432
000060 8e f3 9b 3d 23 99 86 3d c2 86 18 bd eb 3b b1 bd
       0.07614814 0.06572177 -0.03723789 -0.086540066
000070 56 a0 a7 bc 1f fc 4f 3d 6f ba 78 3d 02 14 0d bd
       -0.020462196 0.05077755 0.060724672 -0.03444291
000080 25 ef 0b 3d 54 47 10 3d 0f d5 19 bb 47 75 aa bd
       0.034163613 0.035224274 -0.002347294 -0.0832315
000090 83 59 23 bd 08 4d 31 bd 70 dc e5 bd 47 70 71 3d
       -0.039880287 -0.043286353 -0.11223686 0.058944967
0000a0 b5 9c 11 be 7e 12 2a bd b2 53 5a 3d b2 ec 12 3d
       -0.14219935 -0.04152154 0.053302474 0.03587026
0000b0 81 a9 a9 3c 7f 7c 5a 3d 91 52 26 3d 10 ba 1b 36
       0.020710709 0.053341385 0.040606085 2.3205102e-06
0000c0 80 98 fc bc 59 b0 63 bd 12 39 34 bd 82 c0 32 bd
       -0.030834436 -0.0555881 -0.04399974 -0.04364062
0000d0 03 92 53 bd fc 09 e6 bb 15 69 b1 bc b8 75 9f 3c
       -0.05165292 -0.007020233 -0.021656552 0.019465312
0000e0 64 bb 1b 3d b9 58 90 3c 7b eb c6 bd 4b b8 8e bd
       0.038020507 0.017620431 -0.09712883 -0.06968745
0000f0 a2 d5 b9 3d 49 1b 4e 3d 37 80 2f bd 48 0a cf 3d
       0.0907395 0.05031899 -0.042846885 0.10109383

6.weight f4 [64]
000000 1f d0 56 3f 7f 9b 52 3f c3 29 48 3f b5 6f 5b 3f
       0.8391132 0.8226852 0.78188723 0.85717326
000010 1e bf 6c 3f 29 73 5b 3f ee 1c 52 3f 08 a1 5f 3f
       0.9247912 0.85722595 0.82075393 0.8735509
000020 be d0 49 3f 89 79 4c 3f 25 de 7a 3f 30 4b 45 3f
       0.7883414 0.7987295 0.97995216 0.7706785
000030 ff ab 5c 3f b0 b4 4a 3f 85 b5 47 3f 94 eb 4e 3f
       0.86199945 0.7918196 0.7801135 0.80828214
000040 f5 8d 5d 3f 01 df 44 3f 79 8b 4b 3f 90 e2 58 3f
       0.86544734 0.76902777 0.79509693 0.84720707
000050 52 8b 5f 3f 7e 37 4a 3f bb 79 4d 3f 52 54 3b 3f
       0.8732196 0.78990924 0.8026387 0.7317554
000060 b7 56 57 3f ba 59 58 3f 13 28 68 3f 6a e9 32 3f
       0.8411669 0.8451191 0.9068615 0.6988741
000070 4b a0 4e 3f 44 81 43 3f a9 75 5c 3f a2 00 55 3f
       0.8071334 0.7636912 0.86117035 0.8320409
000080 80 7d 41 3f bd fb 4e 3f 98 3a 56 3f c2 95 52 3f
       0.7558212 0.8085287 0.83683157 0.8225976
000090 5b 81 58 3f 10 66 50 3f 84 0f 45 3f 96 7f 46 3f
       0.8457238 0.81405735 0.769768 0.7753843
0000a0 2d 46 4f 3f a1 a0 4a 3f de 08 35 3f 83 67 5c 3f
       0.80966455 0.7915135 0.70716655 0.86095446
0000b0 ef ac 40 3f 79 7a 3a 3f 36 96 3d 3f 21 f7 55 3f
       0.75263876 0.7284313 0.7405733 0.83580214
0000c0 71 8f 4d 3f 2f ba 4f 3f 1c e7 44 3f d2 cf 58 3f
       0.80297 0.8114347 0.76915145 0.8469211
0000d0 6d ed 28 3f e4 af 49 3f 18 a6 56 3f 51 c5 5a 3f
       0.65987283 0.7878401 0.8384719 0.8545733
0000e0 e5 e7 43 3f f9 50 57 3f c5 1e 57 3f 6b 7f 5c 3f
       0.7652572 0.8410793 0.84031326 0.86131924
0000f0 95 46 4e 3f 10 ee 53 3f aa 8e 59 3f d5 90 40 3f
       0.8057645 0.8278513 0.84983313 0.75220996

6.bias f4 [64]
000000 ef 3a 1a bf 20 aa 1c bf e0 54 22 bf 7e 33 22 bf
       -0.60246176 -0.6119709 -0.6341076 -0.6335982
000010 e2 cd 20 bf 35 72 3c bf 2c 85 18 bf 4f 4e 1f bf
       -0.6281415 -0.73611766 -0.59578204 -0.62228864
000020 1b 62 03 bf 6b d0 e3 be c8 97 32 bf a2 0d 09 bf
       -0.5132157 -0.44494948 -0.6976285 -0.5353643
000030 6d 30 17 bf d6 79 0c bf f8 f1 06 bf 25 1b 18 bf
       -0.59058267 -0.54873407 -0.52712965 -0.5941642
000040 7d e0 19 bf ec 43 0f bf ab 1b f1 be 17 12 07 bf
       -0.60108167 -0.55963016 -0.4709142 -0.5276198
000050 38 a5 0c bf 55 2d 0c bf d3 72 30 bf 3c 03 fd be
       -0.54939604 -0.5475667 -0.6892521 -0.4941653
000060 6c cd 1e bf 66 21 1e bf f8 6b 40 bf 11 d0 f6 be
       -0.620322 -0.6176971 -0.7516475 -0.48205617
000070 a4 8a 07 bf ce 92 0b bf 72 2f df be 02 7c 02 bf
       -0.52945924 -0.5452088 -0.43590885 -0.5097047
000080 b6 37 e8 be 1b e8 21 bf 89 a3 10 bf 4d 66 18 bf
       -0.45355004 -0.6324479 -0.56499535 -0.595311
000090 7d ff 2c bf 62 84 12 bf 4f 02 31 bf 14 9e 03 bf
       -0.67577344 -0.5723325 -0.6914415 -0.51413083
0000a0 2e 1b 15 bf cf d3 1b bf d3 fe f7 be 79 2a 11 bf
       -0.582446 -0.6087007 -0.48436603 -0.56705433
0000b0 0e e3 d9 be fa 34 f1 be 07 98 db be 20 99 0e bf
       -0.4255604 -0.4711073 -0.42889425 -0.557024
0000c0 c4 95 22 bf 44 40 26 bf 48 a4 14 bf 56 60 17 bf
       -0.63509774 -0.6494181 -0.58063173 -0.5913137
0000d0 27 a8 99 be d3 0e 16 bf 52 fc 29 bf b8 d5 21 bf
       -0.30011103 -0.5861637 -0.66400635 -0.63216734
0000e0 9b ea f5 be 70 6a 10 bf b4 64 15 bf a7 f1 1d bf
       -0.48030552 -0.5641241 -0.58356786 -0.6169686
0000f0 17 d5 0b bf 7e 40 1f bf 34 8f 25 bf 89 e5 0d bf
       -0.54622024 -0.6220778 -0.64671636 -0.5542837

6.running_mean f4 [64]
000000 14 ec 9c bf 8b 6d 51 bf b0 7b e5 be 65 82 29 bf
       -1.2259545 -0.81807774 -0.4482093 -0.6621459
000010 8f 01 90 bf fd d3 6c bf 02 7a 4a bf 19 af 4b bf
       -1.1250476 -0.9251097 -0.7909242 -0.7956405
000020 ef fc 40 bf 1d 00 84 bf 1a 0b b8 bf a3 45 2b bf
       -0.75385946 -1.0312535 -1.4378388 -0.6690313
000030 bb 02 27 bf f7 7b 40 bf f5 c5 1c bf fb bc 52 bf
       -0.6523854 -0.75189155 -0.6123956 -0.8231961
000040 0d e0 41 bf f3 c3 4e bf 0b 5b 97 bf 9e 00 8c bf
       -0.757325 -0.80767745 -1.1824659 -1.0937688
000050 cf 9f 98 bf 3f 2e 55 bf a0 8a 1c bf e5 f5 e9 be
       -1.192377 -0.8327369 -0.61149025 -0.45695415
000060 69 76 1f bf cb 1d 8d bf 59 e0 b4 bf cc 8c 3c 3e
       -0.62290055 -1.1024717 -1.4130965 0.18413085
000070 76 5b 40 bf 39 e4 7a bf b6 7e 60 bf 9a 54 44 bf
       -0.7513956 -0.9800449 -0.87693346 -0.7669159
000080 c3 92 9c bf 74 0a 40 bf dc d9 87 bf b4 31 56 bf
       -1.2232288 -0.7501595 -1.061336 -0.8366959
000090 23 fc 25 bf 3c a6 27 bf 22 26 2d bf 93 d3 1a bf
       -0.64837855 -0.6548803 -0.6763631 -0.60479087
0000a0 1b d5 58 bf 9a 26 20 bf a6 d8 b2 be 6a f3 ae bf
       -0.84700173 -0.625589 -0.34930915 -1.3668034
0000b0 33 c1 00 bf 51 00 fa be 36 1d 58 bf 71 6e 67 bf
       -0.502948 -0.48828366 -0.8441957 -0.90402895
0000c0 50 74 69 bf 11 c9 43 bf b8 64 fd be 68 8a 43 bf
       -0.91193104 -0.7647868 -0.49490905 -0.76383066
0000d0 16 63 16 bf 73 11 5e bf ca ea 30 bf df e7 57 bf
       -0.58744943 -0.86745375 -0.6910826 -0.8433818
0000e0 6e bf 31 bf b5 19 46 bf a5 67 42 bf 80 ef 8b bf
       -0.69432724 -0.77382976 -0.759394 -1.0932465
0000f0 71 14 33 bf 3c fc 02 bf 0c 89 92 bf e0 d2 39 bf
       -0.69953066 -0.5116613 -1.1448073 -0.72587395

6.running_var f4 [64]
000000 ae e9 a0 3f aa a1 9f 3f 4d c7 2b 3f 29 83 58 3f
       1.2571313 1.2471211 0.67100984 0.84575135
000010 ff 30 ef 3f d4 0b 4d 3f 7c 58 6e 3f 01 29 70 3f
       1.8686827 0.80096173 0.93103766 0.93812567
000020 f8 b7 26 3f 8a 5b 88 3f 64 f1 34 40 a6 a7 37 3f
       0.65124464 1.0652936 2.8272333 0.71740186
000030 38 2d 49 3f d4 f0 48 3f 90 49 6d 3f 67 9a 3b 3f
       0.78584623 0.78492475 0.9269037 0.73282474
000040 01 8b 9a 3f d9 cd 60 3f 8d 76 d6 3f 05 c4 b3 3f
       1.2073671 0.878141 1.6754929 1.4044195
000050 d6 5c a5 3f 5b 5c 45 3f fa a4 3c 3f 16 57 3a 3f
       1.2918956 0.7709405 0.73689234 0.7278913
000060 86 eb 1d 3f d3 31 c8 3f 55 35 0d 40 3e 8b 39 3f
       0.61687505 1.5640205 2.2063801 0.7247809
000070 89 11 72 3f e3 e6 89 3f c5 ea dc 3f 2c 80 8a 3f
       0.94558007 1.0773586 1.7259146 1.0820365
000080 3e 97 e6 3f f5 38 ca 3f 43 fc 79 3f f7 1a 52 3f
       1.8014905 1.5798632 0.97650546 0.82072395
000090 71 60 33 3f dd 8c 2f 3f 1f ca 0a 3f 9f cf 20 3f
       0.7006903 0.68574315 0.5421466 0.62816805
0000a0 1f a9 a0 3f 5d 6b 0f 3f d6 16 4f 3f 85 32 da 3f
       1.2551612 0.560232 0.8089422 1.7046667
0000b0 54 5b 38 3f c3 cb 0c 3f 5f 01 ae 3f e0 95 82 3f
       0.72014356 0.54998416 1.3594168 1.0201988
0000c0 26 93 72 3f ab 2c 1d 3f fc 58 3d 3f 63 d9 7f 3f
       0.9475578 0.6139628 0.73963904 0.9994108
0000d0 1c a0 f0 3e a3 c5 62 3f bf 17 47 3f 3c 02 90 3f
       0.46997154 0.8858282 0.7777061 1.1250682
0000e0 6c 80 6c 3f f2 fa 4f 3f 05 29 53 3f b6 e5 86 3f
       0.92383456 0.8124229 0.82484466 1.0538852
0000f0 6f 2c 98 3f 3e a9 5c 3f 35 11 b9 3f 33 c3 4a 3f
       1.188856 0.86195743 1.4458376 0.792041

10.weight f4 [64, 64, 3, 3]
000000 d8 56 07 3d 47 43 1b bd a1 be b9 bb a4 99 8b bd
       0.033041805 -0.037905958 -0.0056684767 -0.06816414
000010 7a 3c 05 be ae 98 ba bd e6 34 1a 3e 2b bc ea 3d
       -0.13011351 -0.091111526 0.15059242 0.114616714
000020 f2 5a 0d 3e d9 e7 66 bd f6 bd 1c 3e a3 3b da 3d
       0.13804224 -0.05637345 0.1530684 0.10655906
000030 a0 d4 c2 bd 70 3d 1b bc 22 5d 18 3d b6 6f 93 3c
       -0.09513211 -0.009475097 0.037198193 0.017997604
000040 28 95 1e 3a 1c 8c 51 bc 4d 75 32 be b1 ea 0f be
       0.00060494477 -0.012789752 -0.17427559 -0.14054371
000050 4c 10 b4 bd 3d de 21 be 9a 1c c2 bd cf 79 a5 bd
       -0.08792171 -0.15807433 -0.094781116 -0.08079874
000060 cd 5a 9b 3c d1 09 0d 3d 67 83 a0 3d bf 53 eb bb
       0.018964196 0.03443319 0.07837563 -0.007181614
000070 bf 78 97 bd a3 bf ba bd b8 37 51 bc 12 91 b6 bd
       -0.07396077 -0.09118583 -0.012769632 -0.08914389
000080 f9 97 ff bd 23 58 4c be 5e b3 81 be 61 6e 9b be
       -0.12480158 -0.19955496 -0.2533216 -0.3035765
000090 08 b0 01 be aa bf d2 bd e6 50 99 bd ff b5 46 bd
       -0.12664807 -0.10290463 -0.07486133 -0.04851341
0000a0 93 05 e0 bd dc 4e 2a be 78 b0 00 bd 23 7c d2 bd
       -0.10938563 -0.16631645 -0.031418294 -0.102775835
0000b0 5c 88 13 be ad 04 b5 3d e7 94 00 bd 2b 84 2a bd
       -0.14407486 0.088387825 -0.031392004 -0.04162995
0000c0 b5 82 33 3a cf 2e 94 bd 78 13 cb bd 86 2b 61 bd
       0.0006847785 -0.072354905 -0.09915823 -0.054973148
0000d0 3f a9 18 bd e9 8f 4b bd 91 87 90 bd 82 e1 7f 3d
       -0.03727078 -0.04969779 -0.07057107 0.06247092
0000e0 00 c9 5f 3d 19 64 92 3d 1c 48 b7 3c 52 1d 6a 3d
       0.054635048 0.07147998 0.022373252 0.05715687
0000f0 d1 b1 33 3e d7 da 13 3e 5d 4a e3 3d 5c 86 97 bc
       0.175483 0.1443895 0.11098168 -0.018496685
000100 76 f7 00 be d9 b8 f7 bd 9e e3 4b bd f0 40 fc bd
       -0.12594399 -0.12095804 -0.04977762 -0.12317073
000110 45 06 dc bd 2e 4e 14 bd f7 1a 08 3d a7 27 23 3d
       -0.10743383 -0.03620737 0.03322884 0.039832737
000120 0d 13 80 bd 47 57 44 3d c8 c7 86 bd 0e fe f3 bd
       -0.06253634 0.047934797 -0.06581074 -0.119136915
000130 75 a0 b1 bc 3c c6 f0 bd e7 97 22 bd be 0b 14 3d
       -0.021682957 -0.1175656 -0.039695647 0.03614401
000140 f3 86 88 3d be 40 26 3e 07 77 27 3e d2 84 80 3e
       0.066663645 0.16235635 0.16353999 0.25101334
000150 1c fb da bc f6 da d5 bd 8c 92 fc bc ed 71 41 bd
       -0.026731066 -0.10442154 -0.030831598 -0.04722779
000160 07 b3 ea bd c3 4e 9d 3c a0 1a 94 3d d7 44 3e 3d
       -0.11459928 0.019202596 0.07231641 0.04645237
000170 ea 54 4c 3e 2d 8b 8b 3c 68 49 87 3d 08 1a 38 bd
       0.19954267 0.017034138 0.06605798 -0.0449467
000180 b2 f8 1b bd 81 15 b1 3d 00 c9 79 3d 7a 0c c9 3d
       -0.03807897 0.0864668 0.060982704 0.09816833
000190 16 2a 1e 3d 1f e6 33 3d 56 13 4c bc a3 74 66 bd
       0.038614355 0.043920632 -0.012455782 -0.056263577
0001a0 f2 be 38 bd d6 53 e2 bd 8b 00 ce bd bb 07 b9 bd
       -0.045103975 -0.11051147 -0.10058697 -0.090346776
0001b0 5d 27 dc 3c 9e 7d 97 3c 63 d4 e1 3a 70 f6 05 bd
       0.026874239 0.018492516 0.0017229434 -0.032705724
0001c0 23 75 6e 3a 5e cf 2e bd 2f a3 b0 3d ac cc 90 3d
       0.0009096434 -0.04267823 0.08624875 0.07070288
0001d0 f4 a2 b5 3c 48 3e eb bd 83 5d 4a be 44 e0 65 bd
       0.022172429 -0.114864886 -0.19762234 -0.05612208
0001e0 0a 5e 68 bd 95 87 2a be 58 78 12 be 35 80 02 bd
       -0.056730308 -0.16653283 -0.1430372 -0.03186055
0001f0 d5 14 4f be 7b 05 59 be c0 d5 82 3d 20 f7 d2 3d
       -0.2022279 -0.21193497 0.06388426 0.103010416
000200 5d 27 78 3b ce 56 b1 3d 29 57 4b 3e 39 09 75 3d
       0.003786526 0.08659135 0.19857468 0.05982325
000210 37 b6 90 3c a1 3d e0 3d ff 43 fe bc 6c 9f 46 3e
       0.017665012 0.10949255 -0.031038282 0.19396752
000220 7e e7 d2 3d 4d 5e d0 3d c8 71 d9 3d 31 9c 2d 3d
       0.1029806 0.101742364 0.10617405 0.042385284
000230 86 68 8c 3d a0 70 3e 3b 9e 94 59 3c 9f 7c 9c 3c
       0.06855874 0.002905883 0.013280062 0.019102393
000240 38 c0 04 3d 50 9c 5a bd c4 99 d7 bd fa 14 8a bd
       0.032409877 -0.053371727 -0.10527375 -0.06742282
000250 a6 09 9d bd 09 b1 01 be 6a 43 0b be fe b5 91 bd
       -0.07667856 -0.1266519 -0.13599935 -0.071147904
000260 62 89 f4 bd 6f 36 da 3c 8e 89 fa 3d dd 86 9c 3d
       -0.11940266 0.026637284 0.12233268 0.07642911
000270 35 bc d7 bd 52 88 35 bd c6 79 aa bc 4c fb 07 be
       -0.105339445 -0.04431946 -0.02081002 -0.13279456
000280 86 b5 57 3d 29 02 0b 3e 8a ba c1 3c 69 53 99 3d
       0.05266335 0.13575043 0.02364852 0.07486612
000290 1f 61 93 3d 80 10 d6 3d 1c 9c f3 3d 0e 2d 0e 3e
       0.07196259 0.10452366 0.1189501 0.13884374
0002a0 07 df 01 3d a4 23 26 3d d8 b7 12 3e 58 9e a1 3d
       0.031706836 0.040561333 0.14327943 0.0789153
0002b0 1d ee 1f bd 1b 88 3e 3c f7 6b 1e be 51 fd 69 be
       -0.039045442 0.01162913 -0.15470873 -0.22850539
0002c0 f8 31 22 be 4e 02 30 be b6 1b 2e be 48 df c0 bd
       -0.15839374 -0.17188379 -0.17002758 -0.094175875
0002d0 cb 15 06 bd 59 13 e0 bd 5e 27 15 bd a6 05 ae bb
       -0.032735627 -0.1094119 -0.036414497 -0.005310732
0002e0 9a ce 10 be ab cf c1 bd 55 0e 69 3d c9 94 3b bd
       -0.14141312 -0.09463438 0.056898434 -0.04579619
0002f0 72 1c b3 bd 77 18 45 bc a1 72 66 3d a3 9c c9 bd
       -0.0874566 -0.012029759 0.056261662 -0.09844329
000300 16 aa 5f bd d5 52 1c bd 33 80 7a bd 15 0d 08 3d
       -0.054605566 -0.038164932 -0.061157417 0.0332156
000310 80 c5 2c 3d 9f cf b4 3d a4 c7 ad bd 6e 4b aa bc
       0.04218054 0.08828663 -0.08485344 -0.02078792
000320 99 6b 85 bd 38 8a 8d 3c c3 a2 60 3d 24 2b 14 3d
       -0.06514663 0.017277822 0.05484272 0.036173955
000330 8b d3 d6 3d 29 08 e6 3d e5 e1 1d 3e 84 18 03 be
       0.10489567 0.11232025 0.15418203 -0.1280232
000340 c0 36 c0 bd 93 e6 e6 bc 72 57 9b bc a6 c7 82 bc
       -0.09385443 -0.028186118 -0.018962596 -0.01596434
000350 f5 57 ec 3c f4 06 21 be 42 f6 04 bd 39 3c 32 bd
       0.028850535 -0.15725309 -0.032461412 -0.043514464
000360 bb 03 fe bd f0 39 49 bd dd 08 a8 bc 15 2c 8d bc
       -0.12403055 -0.04912752 -0.020512039 -0.017232934
000370 34 68 28 3d 5c 76 a3 bd 5f 55 c3 3d 84 2b 1c 3c
       0.041115 -0.0798156 0.095377676 0.009531859
000380 51 76 d8 bd 7e 75 b6 3d c6 36 a5 bd 3d ed f7 3d
       -0.10569442 0.089091286 -0.08067088 0.121057965
000390 c0 c5 17 bd 09 a8 37 be 28 ed f0 3d c9 fe 2f bb
       -0.037053823 -0.17935194 0.11763984 -0.0026854745
0003a0 b3 05 83 bd 15 cf 14 3e 19 c4 38 be 3c f7 2d be
       -0.063975714 0.1453212 -0.18043555 -0.16988844
0003b0 47 e6 8d be b5 8f 14 be 48 a9 16 be 4e 7e 6b be
       -0.2771475 -0.14507945 -0.14713013 -0.229974
0003c0 64 9f f8 3d 96 23 e8 3d 7a 31 24 3e ce 2a c7 3d
       0.12139776 0.113349125 0.16034499 0.09724961
0003d0 a6 27 35 3c 4f 35 c2 bb b4 cc ed 3c 66 74 ab 3c
       0.011056816 -0.005926765 0.029028274 0.020929527
0003e0 ee 1b bf 3c 76 bc e7 ba 14 cc 27 3d 40 fb af 3c
       0.023328748 -0.0017680067 0.04096611 0.02148211
0003f0 95 d4 a1 3d dc 83 b3 3d 27 34 95 3c b0 2f 2c bd
       0.07901875 0.087653846 0.018213345 -0.042037666

10.bias f4 [64]
000000 d6 57 4d bc b4 2b dc bc 26 f9 05 bc 76 55 0d 3d
       -0.012533149 -0.026876308 -0.008177077 0.03450533
000010 6c 94 1a 3c ca 65 13 3d 79 03 12 bd b9 77 73 bd
       0.009434801 0.035985745 -0.035647843 -0.05944035
000020 d6 09 a0 3d 92 a6 7d 3d e6 ee 9b bc d1 37 bd 3b
       0.07814376 0.061926432 -0.019034814 0.005774476
000030 7b 7e da 3c 51 e7 35 bc 51 c3 af 3d 59 e9 22 3d
       0.026671639 -0.011102513 0.085821755 0.03977332
000040 46 1c a8 3d 1e da 47 3c 1f b4 37 3d d5 27 15 3d
       0.08208518 0.012197999 0.04484951 0.03641494
000050 da c6 68 bc 0a d4 6f bc fd 63 64 3d 2d 94 31 3d
       -0.014207566 -0.014637956 0.05575942 0.043354202
000060 2a 82 30 3d fb 3a 44 bc b7 2b 58 3c 05 92 25 3d
       0.043092884 -0.011976953 0.013194016 0.04042246
000070 9b 72 9e 3c 92 ce f1 3c 2e cd 13 3c 16 39 9a 3c
       0.019341758 0.029517446 0.009021087 0.018826049
000080 c8 2c 05 3d 15 54 97 3d 9a 48 43 3b 9d c6 65 bd
       0.03251341 0.07389084 0.0029797913 -0.056097616
000090 ac 15 6c bb e9 35 0c 3d 61 8a 01 bc fc 97 ab 3c
       -0.003602366 0.0342311 -0.007906527 0.020946495
0000a0 bc 54 61 bd 5d 92 79 bc eb a6 0a 3d 16 18 1a bd
       -0.05501245 -0.01523265 0.03385059 -0.037620626
0000b0 38 5a bc 3b bc 5a 87 3d 1f a2 c3 bb d4 b2 c9 bc
       0.0057480596 0.06609103 -0.005970254 -0.024621405
0000c0 a8 1d ae bc ef ad 4a bd 6a 08 fc 3b 70 67 10 3d
       -0.021254376 -0.049482282 0.0076914327 0.035254896
0000d0 56 00 3b bc 83 72 8f bc dd 3f db 3c b8 d6 0f 3c
       -0.011413654 -0.017510658 0.02676385 0.00877922
0000e0 33 18 cf 3b 2b 22 9d 3c b6 5d aa 3c 05 f5 f5 39
       0.0063200234 0.019181332 0.020796638 0.00046912595
0000f0 e6 a3 a6 3c 64 dd 6e 3b 69 97 33 bb a6 0d 9f bc
       0.020341825 0.0036447877 -0.002740348 -0.019415688

11.weight f4 [64]
000000 8b 14 a8 3f 0b 6e ad 3f 3d 98 a9 3f 9a 1d ac 3f
       1.3131269 1.3549207 1.3249584 1.3446534
000010 79 0f ac 3f 79 96 a2 3f 3c e2 a6 3f 13 7d b6 3f
       1.3442222 1.2702171 1.3037791 1.425692
000020 de 79 a4 3f 4e 65 ab 3f 86 23 aa 3f cd c1 b0 3f
       1.2849691 1.3390291 1.3292091 1.3809143
000030 46 7d a7 3f 2a fe ae 3f 3b 5c ac 3f b7 b7 9d 3f
       1.3085105 1.3671315 1.3465647 1.232169
000040 d6 e7 ab 3f 36 29 b0 3f da 90 a6 3f 85 4c a6 3f
       1.3430126 1.3762577 1.3012955 1.2992102
000050 9b 55 b2 3f 0a dd aa 3f 10 4f a0 3f 20 e4 a9 3f
       1.3932375 1.3348706 1.2524128 1.3272743
000060 5f d4 b2 3f 4f 45 a5 3f 18 3f 9e 3f 0d 74 ba 3f
       1.397106 1.2911776 1.2363005 1.4566666
000070 95 5a af 3f 33 b0 b1 3f 0c c8 a0 3f 2d f6 a8 3f
       1.3699518 1.3881897 1.256105 1.3200127
000080 3e 65 a5 3f 17 52 a7 3f 9b 0d aa 3f 91 06 ad 3f
       1.2921522 1.3071927 1.3285402 1.3517629
000090 55 5d 92 3f b7 1d 9c 3f c5 89 a6 3f bd 45 a3 3f
       1.1434733 1.2196568 1.3010794 1.2755657
0000a0 0c e1 9a 3f ca cc a7 3f 61 b3 b8 3f fb 35 ae 3f
       1.2099929 1.3109372 1.4429742 1.3610224
0000b0 00 e6 a1 3f a0 49 b4 3f 8b 83 ab 3f b1 ad b0 3f
       1.2648315 1.4084969 1.3399519 1.3803006
0000c0 0d 94 a6 3f df 4a ae 3f 41 1c a5 3f 27 01 af 3f
       1.3013932 1.3616599 1.2899247 1.3672227
0000d0 2b 20 ab 3f c4 01 a7 3f 06 6d a5 3f 21 9d c8 3f
       1.3369192 1.3047414 1.2923896 1.5672952
0000e0 14 f4 a0 3f f8 4a ad 3f 47 dd 9f 3f 9f 1f bb 3f
       1.2574487 1.3538504 1.2489403 1.4619025
0000f0 41 b7 9e 3f 9d 98 9e 3f a0 41 a5 3f 31 21 af 3f
       1.2399675 1.2390324 1.2910652 1.3682004

11.bias f4 [64]
000000 38 25 69 bf d5 bc 7d bf b6 39 8a bf 31 9c 61 bf
       -0.91072416 -0.9911626 -1.0798862 -0.88128954
000010 0b fb 88 bf 92 19 93 bf 42 b3 6a bf cf 6e 82 bf
       -1.0701612 -1.1492178 -0.91679776 -1.0190066
000020 9b eb 88 bf 4b a2 a0 bf dd e6 87 bf 0f 57 3e bf
       -1.0696901 -1.2549528 -1.0617329 -0.7435159
000030 66 2f 7b bf d7 72 82 bf e8 7a 8c bf e4 1d 74 bf
       -0.981192 -1.0191296 -1.0975008 -0.9535811
000040 f9 b1 a5 bf 4b b7 70 bf 65 95 48 bf 45 13 85 bf
       -1.2944938 -0.9402968 -0.7835296 -1.0396506
000050 c2 de 47 bf 2c 56 a2 bf ce cc 61 bf 8b 2a 89 bf
       -0.78074276 -1.2682548 -0.8820313 -1.0716108
000060 07 f5 79 bf c5 0c 74 bf 5e bc 5b bf a7 cc 97 bf
       -0.9763951 -0.95331985 -0.858343 -1.185933
000070 2a b8 86 bf 12 4c 94 bf ba e4 a2 bf 6a c1 5c bf
       -1.0524952 -1.1585715 -1.2726052 -0.86232626
000080 cb d9 57 bf 47 cf 8d bf 5e 88 a7 bf f0 f6 a6 bf
       -0.843167 -1.1078881 -1.3088491 -1.3044109
000090 99 44 4b bf 7e c2 4a bf c3 1f 80 bf 1f 5a 45 bf
       -0.79401547 -0.7920302 -1.0009693 -0.7709064
0000a0 65 10 ae bf 9a 36 82 bf 3b c7 3a bf 64 c1 91 bf
       -1.3598753 -1.0172913 -0.7296025 -1.1387143
0000b0 da c9 70 bf b5 dd 8e bf c8 e4 26 bf 41 5e 99 bf
       -0.94058 -1.116141 -0.6519284 -1.1981889
0000c0 a3 89 83 bf 80 c3 87 bf 11 ed 98 bf 33 40 6c bf
       -1.0276378 -1.0606537 -1.1947347 -0.9228546
0000d0 ad 7a 59 bf d1 04 a9 bf a5 bf 86 bf e5 fb b8 bf
       -0.84952813 -1.3204595 -1.0527235 -1.4451872
0000e0 6a d3 96 bf 31 b2 74 bf 3d 86 8e bf 41 ca 84 bf
       -1.1783268 -0.955844 -1.1134716 -1.0374223
0000f0 08 05 53 bf 0e cc 85 bf 68 5e 7b bf 10 c2 86 bf
       -0.8242955 -1.0452898 -0.9819093 -1.0527973

11.running_mean f4 [64]
000000 8e 92 bb be 09 20 b4 be d5 2e d5 be 95 42 63 be
       -0.3663525 -0.3518069 -0.41637293 -0.22193368
000010 6d 28 a7 be 1d cb 93 be 99 f5 99 be 2a 17 98 be
       -0.3264803 -0.288659 -0.3007019 -0.29705173
000020 04 02 8d be 83 e8 95 be cb 4b e3 be 6d 9e 09 be
       -0.275406 -0.29278955 -0.44393763 -0.13439341
000030 76 63 b2 be 1e 41 af be 9b 1d 5f be 6e b3 11 be
       -0.34841508 -0.34229368 -0.21788637 -0.14228603
000040 8c 97 2d be 7c 56 ae be 04 ba 25 be 6e c8 75 be
       -0.16952342 -0.34050357 -0.1618424 -0.24002239
000050 5d 61 bb be 74 1a 9b be d0 11 99 be 2f 14 b0 be
       -0.3659772 -0.3029362 -0.29896402 -0.343904
000060 10 71 7c bb 98 20 8f be 66 7c e8 be 3c ac 17 be
       -0.003851954 -0.27954555 -0.45407408 -0.14811796
000070 1c be 33 be a2 0a ca bd ce 0e ec be ca 65 0e bf
       -0.1755299 -0.09865309 -0.46105045 -0.5562407
000080 61 17 9f be 24 bc 61 be 0f 6b de be f0 c3 9d be
       -0.31072524 -0.22044426 -0.43441054 -0.3081355
000090 6c d1 ae be 2d b0 3d be cd 3d d0 be 8b 0d a5 be
       -0.3414415 -0.18524237 -0.4067215 -0.32236895
0000a0 46 61 a7 be a7 56 bb be 46 34 22 be 76 67 b7 be
       -0.326914 -0.36589548 -0.15840253 -0.35821122
0000b0 f3 fe b9 be 70 33 17 be d5 e8 fa be 86 93 8c be
       -0.36327323 -0.14765716 -0.49005762 -0.274563
0000c0 6c d6 b5 be af fa a5 be b3 5d c4 be 71 8a e3 bd
       -0.35515153 -0.3241782 -0.38352737 -0.1111039
0000d0 b6 5b fd be 99 73 e5 be d8 fd 3f bd bd b6 b5 be
       -0.49484032 -0.44814757 -0.046872944 -0.3549098
0000e0 14 f8 a7 be e9 ec c7 be 12 34 a3 be 48 a8 d6 be
       -0.32806456 -0.39047936 -0.31875664 -0.41925263
0000f0 49 02 bf be 55 9a 27 be 03 12 c5 be 11 cb b9 be
       -0.3730643 -0.16367467 -0.38490304 -0.3628774

11.running_var f4 [64]
000000 c7 c2 d6 3d 23 1e c0 3d 6f 13 e5 3d d9 01 a8 3d
       0.104863696 0.09380748 0.11185347 0.082034774
000010 27 85 d1 3d 3b 72 d7 3d c8 01 d3 3d 77 c1 ba 3d
       0.10230475 0.105198346 0.10303074 0.09118932
000020 b6 d6 c5 3d 81 70 c4 3d bd 9e 01 3e db 39 bc 3d
       0.096600935 0.09591771 0.1265821 0.091907226
000030 e3 0f 00 3e ea 6f e0 3d c2 15 d5 3d 76 29 d1 3d
       0.1250606 0.10958846 0.104045406 0.10212986
000040 ce 4d bf 3d d0 6d ee 3d 81 2d 9c 3d d8 b5 c8 3d
       0.09341012 0.11642039 0.07625867 0.09800309
000050 9c f3 d3 3d 77 90 cd 3d dc ad b8 3d f4 1d c9 3d
       0.10349199 0.1003732 0.09017536 0.09820166
000060 5c 37 c2 3d d7 3d b7 3d 8d 6c dc 3d 3a 20 d6 3d
       0.09483215 0.08947342 0.10762892 0.104553655
000070 4f b6 c5 3d 0e b1 ba 3d e6 a6 d7 3d b3 80 ed 3d
       0.09653913 0.09115802 0.1052988 0.11596813
000080 c8 79 e7 3d a5 59 df 3d 34 64 d8 3d 53 ca ac 3d
       0.11302525 0.1090577 0.10565987 0.08437028
000090 80 75 cf 3d f4 a4 e1 3d 88 5a f1 3d 25 71 05 3e
       0.10129833 0.110177904 0.117848456 0.13031442
0000a0 68 42 d6 3d bb b9 db 3d 2c 73 be 3d 19 a6 e3 3d
       0.10461885 0.10728785 0.09299311 0.11115665
0000b0 3c 14 d7 3d f5 e0 c9 3d a5 24 ba 3d b6 96 cd 3d
       0.10501906 0.0985736 0.09089021 0.100385115
0000c0 98 52 e3 3d cc 19 db 3d df 38 c6 3d e9 73 9c 3d
       0.11099738 0.1069828 0.09678816 0.076392956
0000d0 ba 51 08 3e 99 c7 f1 3d fe bd c5 3d 92 a9 f8 3d
       0.13312426 0.11805648 0.09655379 0.12141718
0000e0 7c af ba 3d 50 2f f3 3d a2 f6 bc 3d a2 56 da 3d
       0.09115502 0.118742585 0.09226729 0.10661055
0000f0 e9 bc cb 3d 95 fa af 3d 88 d3 cd 3d ad 33 e2 3d
       0.09948141 0.085927166 0.10050112 0.110450126

16.weight f4 [32, 64]
000000 25 8c 3c be 88 7d b6 bd d3 3d 21 be 69 90 af 3e
       -0.18412836 -0.08910662 -0.1574624 0.34289864
000010 37 55 2d be f3 52 84 3e 24 8d ed 3e 2e 8a fd 3d
       -0.16927038 0.25844535 0.46396744 0.12379871
000020 47 5d 83 3d ca 5b 33 3e c6 c8 69 3d 24 dd 77 be
       0.064142756 0.17515483 0.057076238 -0.24205452
000030 31 87 a1 bd 7c 19 06 3e e5 ef 3e be a7 08 61 be
       -0.07887114 0.13095659 -0.186462 -0.21975957
000040 d5 2d 69 3d ee 24 51 3d 4d 45 07 be e8 45 00 3e
       0.056928474 0.05106061 -0.1321003 0.12526667
000050 d1 64 39 3d 33 00 c2 bd 7f 8f 65 be 14 a1 fb 3d
       0.04526216 -0.09472694 -0.2241802 0.122865826
000060 11 7a f7 bc fb 3e 19 bd 82 fd ff bd 46 b5 75 bd
       -0.030209573 -0.03741358 -0.12499525 -0.05998733
000070 47 6f 4f be 8f af 0f 3e ed c7 ea 3e 0e 15 d8 be
       -0.20257293 0.14031814 0.45855656 -0.42203563
000080 52 40 14 bd fb 74 c5 bd 53 c7 a3 3e f4 a1 29 3d
       -0.036194153 -0.09641453 0.3198801 0.041414216
000090 f9 66 c4 bd 34 ef 94 3d 63 17 5d be 9e a0 ae be
       -0.09589953 0.07272187 -0.21590953 -0.34106916
0000a0 0a aa 04 3e e9 5f 82 bb e7 11 b2 3e 6d a8 77 3c
       0.1295549 -0.0039787185 0.34779283 0.015115839
0000b0 bd 00 b7 be 93 25 30 be 3f f2 5f be b6 10 94 3d
       -0.3574275 -0.17201833 -0.21869753 0.0722975
0000c0 58 03 72 bd 27 f5 17 3e 18 ab 50 3d 4c e3 cd bd
       -0.05908522 0.14839612 0.050944418 -0.10053119
0000d0 40 3c cb bd 11 8c 8a 3e 30 40 b7 be e2 96 1b 3f
       -0.09923601 0.27059987 -0.3579116 0.60777104
0000e0 a8 17 63 be 4d ca 66 bd 44 42 dc 3c 83 af ad 3e
       -0.22176993 -0.056345273 0.026887067 0.33922967
0000f0 be 68 88 bb 70 0a af 3e bb d3 53 be 12 e4 69 3e
       -0.004162877 0.3418765 -0.20686238 0.22840908
000100 02 74 18 bf 06 0f 80 3e ab 9c 7a be 3f de 0a 3f
       -0.59552014 0.25011462 -0.24473827 0.5424537
000110 98 d2 02 3e b8 21 ac 3d b3 e1 d0 be 98 8a a6 be
       0.12775648 0.08404869 -0.40797195 -0.32527614
000120 25 05 a1 3d 69 7d 05 bf 30 5d 7f be 8c e2 03 be
       0.07862309 -0.52144486 -0.24937892 -0.1287939
000130 15 08 7a be 69 10 12 3e 99 a0 3b be f9 92 9f be
       -0.24417146 0.14264072 -0.18322982 -0.3116682
000140 ac 26 64 3f 66 6c 08 be a5 24 97 be d8 5c 0d 3e
       0.8912151 -0.133226 -0.29520145 0.13804948
000150 05 93 db 3d c1 93 4c 3f b0 c9 5e 3e fd e2 80 3c
       0.10721401 0.79912955 0.21756625 0.015733236
000160 22 d1 b0 3e d2 77 8b bd 21 b7 85 be f9 fe b3 be
       0.34534556 -0.06809963 -0.2611628 -0.35155466
000170 05 53 4a bc 49 4d 1a be f3 56 47 be 25 ce 81 be
       -0.012348895 -0.15068544 -0.19466762 -0.25352588
000180 33 ce 1c 3e 1e 74 c8 bd 15 96 36 3f 34 47 ae 3e
       0.15313034 -0.097877726 0.71322757 0.340387
000190 ac f7 05 3d 84 50 bb bc 40 16 ea 3d ac 3c 50 3e
       0.0327069 -0.022865541 0.11430025 0.20335644
0001a0 af 9e 5e 3e cb 88 33 be e7 e9 4c 3e 0f 9e 99 be
       0.2174022 -0.17532651 0.20011102 -0.30003402
0001b0 6a 4f a9 3e cc 6b 8f be c4 4e ec bd 24 7b 2e 3f
       0.330684 -0.2801193 -0.11538461 0.6815665
0001c0 d4 05 0d 3e 33 fe 0a b9 7a ec da bd 19 01 2d 3f
       0.13771755 -0.00013255402 -0.106896356 0.675798
0001d0 dd 71 cc 3c 30 82 63 3e 75 cc 17 3f d4 3c 27 3d
       0.024956638 0.22217631 0.5929635 0.040829495
0001e0 1f 7e 86 3e 42 29 9b be c1 21 00 3f 6f 3e eb be
       0.26268098 -0.30304915 0.50051504 -0.4594607
0001f0 31 73 04 bf 7e 04 91 3e 8a 3a ee bd 5a 81 6c 3e
       -0.5173827 0.2832374 -0.11632259 0.23096219
000200 3a f7 e2 3d 1b aa 14 be 62 0c 3c 3f f7 52 05 be
       0.11082311 -0.14518015 0.73456395 -0.1301993
000210 b6 5a eb be 3d a5 12 3f 7b ec 8f 3e 0f 6e a4 be
       -0.45967644 0.57283384 0.28110108 -0.32115218
000220 3b 58 99 be dc a0 d8 3e b4 00 e3 3e 3c bd 1a bd
       -0.29950127 0.42310226 0.44336474 -0.037778124
000230 b9 28 da 3e e4 7b 1c be 04 1a ae be 28 c1 20 be
       0.42609194 -0.15281636 -0.34004223 -0.15698683
000240 ec d6 a2 bc ef cc 65 be c9 f4 8d be f9 fd 95 3e
       -0.019877873 -0.22441457 -0.2772582 0.29295328
000250 0f e0 a9 be c3 8a e6 bd 8b a5 78 3e 41 8f cb be
       -0.33178756 -0.112569354 0.242819 -0.39757732
000260 85 2c cc be a8 fd 20 3c de 75 d3 bd fd 1d 1b bf
       -0.39877716 0.009826101 -0.10325216 -0.60592633
000270 fc 6b f0 be 2d 3c ab 3e f3 e3 78 3d 8d 5c 35 3d
       -0.46957386 0.33444348 0.060764264 0.044277716
000280 d3 6c 2d 3f 46 27 cf 3d 0c 8a 48 be 68 8b a5 be
       0.6774418 0.10114913 -0.1958391 -0.3233292
000290 36 bb c8 3e 0c ce 9b 3d 48 f3 26 3d 6b 2d 64 bd
       0.3920533 0.0760766 0.040759355 -0.055707376
0002a0 49 ef 61 3f 7c eb 13 bf fa c5 e1 3d 63 5b 85 bc
       0.88255745 -0.57781196 0.11024089 -0.016278928
0002b0 b1 d6 8f 3e de b4 23 3f e3 b9 60 be fc 64 01 bf
       0.28093484 0.63947856 -0.2194591 -0.50544715
0002c0 f8 de ea 3e 85 65 ed be 87 00 2a 3f 13 8b 91 be
       0.45873237 -0.46366516 0.66407055 -0.28426418
0002d0 9f e7 09 3e 39 a4 5f bf 6c 1a 3e 3e 40 9b c7 be
       0.13467263 -0.8735996 0.18564767 -0.38985634
0002e0 cf 96 91 be c6 86 9e be ed 56 70 3e 98 7c 2e 3d
       -0.2843537 -0.309622 0.2347066 0.04259929
0002f0 5b 98 19 3e 0c 55 24 be 36 38 56 3e 38 0e 14 be
       0.14999525 -0.16048068 0.2091988 -0.14458549
000300 88 ef 99 3e 89 d4 81 3e b1 b7 dd be a6 17 a3 bc
       0.3006556 0.25357464 -0.43304208 -0.019908737
000310 91 f3 38 bf bd fe 05 3e 49 ea 89 be 82 50 08 3d
       -0.7224665 0.13085456 -0.26936558 0.033279903
000320 78 3b 3e 3f 41 9a 8c 3d 77 88 00 3e 84 4c bc bd
       0.7430949 0.06865359 0.12552057 -0.09194282
000330 30 1c d6 3e c0 27 5f 3e 96 2e fe 3e 99 84 9a bd
       0.4181838 0.21792507 0.49644917 -0.07544822
000340 56 10 2b 3f eb 10 92 3e 83 39 97 3e a3 e8 cd bb
       0.668218 0.28528532 0.29536065 -0.006283836
000350 de d8 2c bd ca fd c1 be d4 ef ab 3d 8f d9 a4 3e
       -0.04219901 -0.37888938 0.08395353 0.32197234
000360 3c 1b c9 be 33 9b fc be 39 1e 3a bf 0b 0c 66 3e
       -0.3927859 -0.49337158 -0.72702366 0.22465532
000370 5a 0b a9 3c ae 30 ab be f0 18 2a 3d f0 d1 16 bf
       0.020635296 -0.33435577 0.04152769 -0.5891409
000380 45 84 d6 be f9 a4 49 3e f6 a7 a3 3e 4d 2a 60 3e
       -0.4189779 0.19691838 0.31964082 0.21891136
000390 85 9e 94 be b6 74 77 3c f5 4d 14 3f ae 99 0a 3e
       -0.2902719 0.01510351 0.57931453 0.13535187
0003a0 7b 84 18 3e c5 69 2c 3d 0d 31 d4 be 73 3c 3d 3f
       0.14894287 0.042093057 -0.41443673 0.73920363
0003b0 f3 ad bf 3e fc 00 56 3e 62 92 97 3c d4 af 95 be
       0.374374 0.20898813 0.018502418 -0.2923571
0003c0 98 1c 61 be 77 c1 da 3d b1 14 9a bd 02 27 83 be
       -0.21983564 0.10681432 -0.07523478 -0.25615698
0003d0 e4 62 c3 3e 38 6a af 3b 9e 9b df bc 7d 03 63 bd
       0.38161385 0.0053532384 -0.027295884 -0.05542325
0003e0 b6 b0 0e 3f 20 05 ac 3c 92 60 c8 3e be ee 90 bd
       0.5573839 0.020998538 0.39136177 -0.070767865
0003f0 72 ab 58 bd c0 bc dc be b1 df 7d 3e 9d 73 73 bd
       -0.052897878 -0.43112755 0.24792363 -0.05943643
