03_AML2425_Unlearning/Practice/checkpoint/gold_model.pth (torch, 245282 bytes, 22 tensors)

0.weight f4 [32, 3, 3, 3]
0.009362216 0.11701428 -0.1529308 -0.12429216 -0.06425213 0.041233618 0.0059518404 0.14642325
-0.033757914 0.048254907 -0.055231158 -0.039730098 -0.17393309 -0.12210495 -0.09098365 0.009205314
0.06567945 0.098474026 -0.13809071 -0.077976696 0.0790209 0.17438154 -0.017725112 0.15807569
-0.019301562 0.03553029 0.19077836 -0.15863995 -0.10950884 -0.04131836 -0.06317909 0.17563084
-0.11641271 -0.074018456 -0.11600101 -0.16073029 -0.08601365 0.18443663 0.0992227 0.11622284
0.031202998 -0.08033258 0.059213124 -0.15042575 -0.11098384 -0.07655905 0.13897698 0.12331557
-0.061577927 0.016573407 0.14194363 0.21985543 0.10727725 0.053322986 0.111116484 -0.1265718
0.035574734 -0.16993529 -0.14206441 -0.09278438 0.07776464 0.08140387 -0.09801666 0.0432552
0.09669543 -0.022108281 -0.016632305 0.033943824 0.12211022 0.16133237 -0.15892284 -0.07094629
0.08748341 0.17289098 0.1822258 0.16336761 0.043112878 -0.15701738 -0.0012985637 -0.12567689
-0.17917441 0.16229711 0.14358096 -0.19667433 0.025975462 -0.030789498 -0.02559311 -0.09241279
0.082061045 -0.10188726 0.085684314 0.115774214 0.15290815 0.08411417 -0.1706924 -0.10272708
0.11458444 0.065878354 -0.12352555 -0.10894585 0.19100603 0.15318137 -0.09827471 -0.051027425
-0.16466127 -0.01346463 -0.14473473 -0.12730053 -0.020068733 0.0132826 -0.08176281 0.11221081
-0.13164355 0.17907849 0.13247624 -0.17091568 -0.035241276 0.024812413 0.03537837 0.06358317
0.09793021 0.017965343 -0.070345715 0.113362014 -0.17561868 -0.08543824 -0.012880203 -0.06530952
-0.033182003 -0.1125035 -0.016767258 0.08212031 -0.07270546 0.022973178 0.18768735 -0.014369733
0.0014869631 -0.022845516 0.042542867 0.11956161 0.17698957 0.12923452 0.1825333 -0.018190783
-0.15601411 -0.088574104 0.13161416 0.0060998076 -0.100812785 -0.15537658 -0.16983013 -0.16563253
-0.046550777 0.15444691 0.13438067 -0.15588857 0.15688352 -0.13332638 -0.025684824 -0.03761278
-0.017297298 -0.021926545 -0.16931304 -0.17021972 -0.04391865 -0.0022433102 -0.09074251 0.06625547
-0.17423771 -0.011916145 0.1685756 -0.06314112 0.18538113 0.06517589 -0.1598269 0.13690183
-0.017674986 -0.07234891 0.16942732 -0.14906862 0.0335702 -0.031092377 0.13067946 0.06546616
0.103616774 0.06639638 -0.0321866 -0.027856821 -0.15928343 0.11252101 0.1630966 0.14842565
-0.13620147 0.011626217 -0.13051023 -0.09968836 -0.10480959 0.07029816 -0.11546205 -0.0014187107
0.018716658 0.1237079 -0.14076117 -0.1246072 -0.099997036 0.14941454 -0.056542844 0.15229769
0.06191382 0.024227487 -0.008248456 -0.041328393 0.023014156 -0.038496923 0.005456396 0.028993752
-0.13447383 -0.10331709 0.15674877 -0.14142394 -0.009852387 0.1927113 0.08944766 0.015320348
-0.17692138 0.09410887 -0.15056258 -0.0589708 -0.06870887 -0.03834163 -0.005546072 0.15512842
0.013160522 0.14152677 0.12769023 -0.11787559 0.10127197 -0.13083524 -0.076717034 0.067033164
0.06764905 0.14573808 -0.07558114 -0.0016427217 0.09268447 -0.16873696 0.1489821 -0.15679874
0.018732823 -0.0070576253 -0.09199727 0.045306668 0.15105337 -0.0682848 -0.103945024 -0.068160266
00000000: fb63 193c 2fa5 ef3d e499 1cbe e38c febd
00000010: 9f96 83bd 95e4 283d a807 c33b faef 153e
00000020: bd45 0abd f0a6 453d 113a 62bd 07bc 22bd
00000030: 841b 32be 2912 fabd a355 babd e3d1 163c
00000040: f382 863d c0ac c93d a767 0dbe 3fb2 9fbd
00000050: b6d5 a13d 1391 323e 4134 91bc 98de 213e
00000060: 4f1e 9ebc 3688 113d 675b 433e 8372 22be
00000070: 2c46 e0bd 713d 29bd 0a64 81bd 92d8 333e
00000080: c969 eebd fd96 97bd f091 edbd 7b96 24be
00000090: ed27 b0bd f5dc 3c3e 4535 cb3d 3e06 ee3d
000000a0: 6e9d ff3c 6885 a4bd 7689 723d 3509 1abe
000000b0: 7f4b e3bd feca 9cbd fb4f 0e3e e08c fc3d
000000c0: 2339 7cbd f4c4 873c ac59 113e c821 613e
000000d0: 2db4 db3d 3469 5a3d 0a91 e33d 0a9c 01be
000000e0: d0b6 113d 8403 2ebe 5579 11be bd05 bebd
000000f0: 1143 9f3d 12b7 a63d f5bc c8bd 5d2c 313d
00000100: 4108 c63d 6d1c b5bc 7940 88bc ae08 0b3d
00000110: ec14 fa3d 5034 253e abbc 22be 4a4c 91bd
00000120: 812a b33d 550a 313e 6699 3a3e d749 273e
00000130: 2197 303d 2ac9 20be 9134 aaba 71b1 00be
00000140: 7f79 37be 3731 263e e306 133e ff64 49be
00000150: 7eca d43c 423a fcbc a4a8 d1bc eb42 bdbd
00000160: 9f0f a83d 45aa d0bd 427b af3d 081b ed3d
00000170: f493 1c3e 0d44 ac3d fdc9 2ebe 9362 d2bd
00000180: 3fab ea3d 3beb 863d f7fa fcbd 001f dfbd
00000190: 1697 433e 94db 1c3e 4044 c9bd 2202 51bd
000001a0: f79c 28be c09a 5cbc 5735 14be 125b 02be
000001b0: 2f67 a4bc 439f 593c 4373 a7bd c8ce e53d
000001c0: 91cd 06be 5a60 373e daa7 073e 8504 2fbe
000001d0: 2859 10bd 6743 cb3c e9e8 103d e537 823d
000001e0: a28f c83d 0e2c 933c 6a11 90bd 582a e83d
000001f0: 62d5 33be 3efa aebd 7d07 53bc ffc0 85bd
00000200: dae9 07bd 3c68 e6bd 7d5b 89bc b12e a83d
00000210: 9ae6 94bd 3f32 bc3c 1d31 403e 076f 6bbc
00000220: 34e6 c23a 8526 bbbc 6e41 2e3d b8dc f43d
00000230: c13c 353e 0e56 043e 02ea 3a3e d604 95bc
00000240: 2ac2 1fbe 5766 b5bd ddc5 063e e5e0 c73b
00000250: ef76 cebd 0a1b 1fbe f3e7 2dbe 939b 29be
00000260: 07ac 3ebd 5527 1e3e 169b 093e 41a1 1fbe
00000270: 13a6 203e b686 08be fb68 d2bc dc0f 1abd
00000280: 10b3 8dbc 4c9f b3bc 6660 2dbe 144e 2ebe
00000290: 0be4 33bd 8004 13bb 36d7 b9bd f3b0 873d
000002a0: 5f6b 32be ef3b 43bc 159f 2c3e 2250 81bd
000002b0: 8dd4 3d3e f07a 853d aaa9 23be fe2f 0c3e
000002c0: 22cb 90bc aa2b 94bd 5b7e 2d3e 72a5 18be
000002d0: e880 093d 71b5 febc d6d0 053e 1f13 863d
000002e0: 0835 d43d d3fa 873d 19d6 03bd fd33 e4bc
000002f0: 321b 23be 6a71 e63d cc02 273e e5fc 173e
00000300: 6678 0bbe e37b 3e3c 79a4 05be 6929 ccbd
00000310: 69a6 d6bd 7bf8 8f3d 5e77 ecbd 08f4 b9ba
00000320: ad53 993c 915a fd3d b223 10be 0f32 ffbd
00000330: 3fcb ccbd 2000 193e 7899 67bd edf3 1b3e
00000340: 5999 7d3d b978 c63c 8824 07bc f647 29bd
00000350: 2f88 bc3c f3ae 1dbd 91cb b23b 4e84 ed3c
00000360: 82b3 09be e997 d3bd c082 203e 70d1 10be
00000370: e86b 21bc 1c56 453e 5630 b73d 3202 7b3c
00000380: e12a 35be 27bc c03d 142d 1abe 5e8b 71bd
00000390: 3cb7 8cbd 1d0c 1dbd d3bb b5bb fcd9 1e3e
000003a0: 3b9f 573c 65ec 103e 3ac1 023e c268 f1bd
000003b0: ae67 cf3d acf9 05be d21d 9dbd af48 893d
000003c0: 968b 8a3d 5d3c 153e 49ca 9abd 9850 d7ba
000003d0: 5bd1 bd3d 62c9 2cbe c38e 183e d98f 20be
000003e0: 9475 993c a743 e7bb 1169 bcbd 7c93 393d
000003f0: bcad 1a3e e7d8 8bbd 21e1 d4bd 9c97 8bbd

0.bias f4 [32]
0.19135363 -0.084746346 -0.010645074 -0.08464569 -0.021203548 0.041784953 0.02393396 -0.03939636
-0.19615643 0.013225066 -0.0075395564 0.031209841 0.14890261 0.18413395 -0.11474959 -0.00934418
-0.07608447 -0.18124887 -0.13716277 0.17984979 0.11370678 0.100157164 0.10931501 -0.15572907
0.020073753 0.17860995 -0.10398565 0.17406616 0.053633943 0.13465941 -0.08881605 0.088516854
00000000: 35f2 433e 7e8f adbd ad68 2ebc b85a adbd
00000010: 10b3 adbc b326 2b3d 2711 c43c 145e 21bd
00000020: 3bdd 48be f2ad 583c 620e f7bb c8ab ff3c
00000030: ed79 183e 9c8d 3c3e d501 ebbd 5518 19bc
00000040: 2dd2 9bbd 4e99 39be 6674 0cbe 8b2a 383e
00000050: 1adf e83d 331f cd3d 8ce0 df3d 7177 1fbe
00000060: b671 a43c 87e5 363e 6ef6 d4bd 663e 323e
00000070: 44af 5b3d 28e4 093e 30e5 b5bd 5348 b53d

1.weight f4 [32]
1.0083718 0.9803769 0.9849402 1.008806 1.0513829 0.9954808 0.9533658 1.0143307
0.9912915 0.9980956 0.9939098 0.9796314 0.97549236 1.0087711 0.96761966 0.983068
0.98566353 1.0341465 0.9685661 1.0062498 1.0554504 1.0139055 0.99411637 0.9804321
0.95233876 0.94797856 1.0252813 1.0067266 1.0557979 0.97548765 1.0424342 0.97391325
00000000: 5412 813f fbf9 7a3f 0a25 7c3f 8e20 813f
00000010: b793 863f d4d7 7e3f c80f 743f 97d5 813f
00000020: 48c5 7d3f 3183 7f3f df70 7e3f 20c9 7a3f
00000030: deb9 793f 691f 813f ecb5 773f 58aa 7b3f
00000040: 7254 7c3f ea5e 843f f3f3 773f cbcc 803f
00000050: 0019 873f a8c7 813f 697e 7e3f 99fd 7a3f
00000060: 79cc 733f b9ae 723f 6b3c 833f 6bdc 803f
00000070: 6324 873f 8fb9 793f 7c6e 853f 6152 793f

1.bias f4 [32]
0.02686269 -0.011590319 -0.014587963 0.05911113 -0.019755391 -0.042515866 -0.041054565 -0.018031562
-0.010123136 -0.0034948464 -0.046711676 -0.02241978 -0.016480811 -0.029566597 -0.0016450947 0.013095604
-0.034781996 0.0037418208 -0.035287235 -0.029363073 0.0024587675 -0.057935983 0.0015757271 -0.035735533
-0.010534725 -0.041224908 -0.08750898 0.00948976 -0.037416734 0.009402787 -0.030104715 -0.025833832
00000000: 250f dc3c 52e5 3dbc 5a02 6fbc 831e 723d
00000010: 0fd6 a1bc 1e25 2ebd d528 28bd edb6 93bc
00000020: 83db 25bc cb09 65bb be54 3fbd b0a9 b7bc
00000030: c402 87bc a635 f2bc 38a0 d7ba f28e 563c
00000040: 9177 0ebd 5639 753b 5989 10bd d48a f0bc
00000050: 4623 213b 484e 6dbd a188 ce3a 6c5f 12bd
00000060: d799 2cbc 73db 28bd e837 b3bd f07a 1b3c
00000070: 4a42 19bd 260e 1a3c 2a9e f6bc 79a1 d3bc

1.running_mean f4 [32]
0.17416742 -0.11689365 -0.021021755 -0.06659838 -0.020270245 0.057953022 0.022093935 -0.04320958
-0.20638318 -0.0085367 -0.00948444 0.028733276 0.11307024 0.19251537 -0.14723165 -0.00029642356
-0.09164719 -0.18135823 -0.15086286 0.18537281 0.11312994 0.099155 0.089480296 -0.1630167
0.005254604 0.17032433 -0.108191215 0.16778187 0.051174514 0.13403456 -0.08732022 0.08501989
00000000: f258 323e f065 efbd d135 acbc bb64 88bd
00000010: c90d a6bc 2660 6d3d 57fe b43c 87fc 30bd
00000020: 1d56 53be 84dd 0bbc a064 1bbc 0c62 eb3c
00000030: 5f91 e73d c022 453e e5c3 16be 4c69 9bb9
00000040: 86b1 bbbd f9b5 39be cb7b 1abe 5fd2 3d3e
00000050: acb0 e73d c711 cb3d 7241 b73d daed 26be
00000060: d02e ac3b 8069 2e3e 5b93 ddbd 03cf 2b3e
00000070: 5e9c 513d 5b40 093e f2d4 b2bd e81e ae3d

1.running_var f4 [32]
0.0858226 0.18147281 0.141738 0.18805946 0.018781608 0.0797004 0.0993786 0.06573335
0.05831403 0.10773867 0.08777146 0.017730342 0.6236476 0.035963055 0.52356434 0.03244204
0.18181357 0.052191738 0.10789214 0.030621175 0.025448883 0.044244446 0.22367714 0.08780831
0.070389904 0.05990262 0.13508463 0.09616145 0.19092903 0.10742331 0.015037216 0.022480225
00000000: c2c3 af3d 02d4 393e c423 113e a992 403e
00000010: e3db 993c f739 a33d 0287 cb3d 359f 863d
00000020: b1da 6e3d 18a6 dc3d 86c1 b33d 393f 913c
00000030: 5ea7 1f3f ff4d 133d 5008 063f f2e1 043d
00000040: 562d 3a3e 01c7 553d 8ef6 dc3d 42d9 fa3c
00000050: 2d7a d03c aa39 353d 9f0b 653e d8d4 b33d
00000060: 9528 903d 735c 753d a053 0a3e 4bf0 c43d
00000070: e682 433e c100 dc3d a85e 763c 7328 b83c

5.weight f4 [64, 32, 3, 3]
-0.037411936 0.003576706 0.016761431 0.01821988 0.042073347 0.043987423 0.046943203 0.02823027
0.033310067 0.00852282 -0.038355336 -0.007655336 -0.0019219576 -0.034415573 0.030968415 0.03557578
0.007041583 0.019651292 0.0293862 0.011693005 -0.033013243 -0.036999352 0.038332444 0.013213139
0.018371139 -0.0604269 -0.05956103 -0.016242886 0.0071348744 -0.052044187 0.007901367 -0.03284031
0.050453655 -0.0076776487 0.048023123 -0.06122392 -0.08390462 0.032781925 0.050126046 -0.0017608386
0.01206573 -0.08035265 0.032732226 -0.06562331 0.0009579559 -0.056688488 -0.036130995 -0.0064896545
-0.017662589 0.004116501 -0.035126865 -0.030532349 0.05447658 0.011958568 -0.010784512 -0.007914353
-0.039698135 -0.041381758 0.028118853 0.02032683 0.011208732 -0.041073535 0.008653958 -0.025938852
-0.05720959 -0.001848215 0.07747945 -0.023845803 -0.040755257 -0.004523754 0.03846587 -0.0402617
0.039473157 0.061703622 0.022197971 0.0071973014 0.04608504 0.023125691 -0.053339116 -0.040334716
-0.00608176 0.04550663 -0.059401374 0.03440997 -0.008176962 -0.052272223 0.0168254 -0.018950213
0.012538799 -0.034514964 -0.047588397 -0.016326457 -0.030456483 0.040404223 0.0012497654 0.039385185
0.02572125 -0.0073223957 0.051635113 0.018431993 0.035858132 0.012185071 -0.0072565773 -0.0053923205
-0.011531992 -0.0623584 -0.002102223 -0.055084515 -0.024898417 0.036542796 -0.046006687 -0.021739248
0.008726899 -0.009135449 0.006813624 0.012028286 0.020515496 -0.059987754 -0.013267453 0.011945656
0.027331505 -0.014593394 -0.03691032 0.023134407 0.048262633 -0.009691039 -0.033089377 0.037835874
-0.0066717933 -0.03870644 -0.0078086066 0.033669222 -0.02287067 0.04508903 0.04004221 0.018585198
0.016359733 -0.011464938 0.00762899 0.033452954 -0.034465928 0.005568436 -0.011587329 0.054238386
-0.033057492 0.046969675 -0.012886121 -0.026470633 0.030225497 0.013039045 0.037112556 0.015550746
-0.054552928 0.059899073 0.035125945 0.0026004356 0.010424854 0.034156505 -0.07797136 -0.057281673
0.019750088 -0.00987581 0.064631455 0.009128238 -0.020885374 0.053856783 0.04060016 0.05983469
-0.040451583 -0.043174587 -0.021598313 -0.03437727 0.032177407 0.042331394 0.01609159 -0.00088042644
0.025203738 -0.037983675 0.06441317 -0.053193085 -0.008212111 0.013207569 0.05205664 0.0061580376
0.035712954 -0.038146667 -0.0032507055 -0.028548026 -0.016212968 0.016568659 0.019869681 -0.025018113
0.004043822 -0.017358799 -0.018379334 0.02384216 -0.012163596 0.040803578 -0.030316541 -0.0016507863
0.0019534098 -0.038625766 0.026514757 0.0027922022 -0.009642241 -0.0027366614 0.037754446 0.029571397
-0.0354651 0.04211016 -0.0128657175 -0.006013158 0.053260736 0.0049101627 -0.012529144 -0.051594403
-0.0061918115 0.03467835 -0.04654287 -0.0700034 -0.021476114 -0.06832084 -0.07611939 -0.048357442
-0.036472667 -0.055912703 -0.028303517 0.014066911 -0.025768615 0.032814257 -0.005768975 -0.03534663
0.03741539 -0.0357479 -0.0534385 0.01595031 -0.019533107 0.054307472 -0.011193429 -0.02271934
0.015745882 0.013556276 0.061418496 -0.049921412 -0.003528196 0.008066993 -0.036895745 -0.038464602
0.0121433 -0.06562574 -0.009584225 -0.056347124 0.07864414 0.028767869 0.04832897 -0.06244072
00000000: 423d 19bd 2b67 6a3b 454f 893c dc41 953c
00000010: 1a55 2c3d 282c 343d 8447 403d 2b43 e73c
00000020: 2370 083d 4ca3 0b3c 7c1a 1dbd 9dd9 fabb
00000030: 32ea fbba 58f7 0cbd 79b1 fd3c e9b7 113d
00000040: 14bd e63b bffb a03c 54bb f03c 0594 3f3c
00000050: e538 07bd a28c 17bd 7b02 1d3d ec7b 583c
00000060: 127f 963c 3282 77bd 44f6 73bd cd0f 85bc
00000070: aacb e93b 492c 55bd bc74 013c 9083 06bd
00000080: 7ea8 4e3d c994 fbbb e5b3 443d efc5 7abd
00000090: 2fd6 abbd 5746 063d f850 4d3d f0cb e6ba
000000a0: 57af 453c ee8f a4bd 3a12 063d 8465 86bd
000000b0: 551f 7b3a 3032 68bd 18fe 13bd 2ba7 d4bb
000000c0: 22b1 90bc b7e3 863b 30e1 0fbd fa1e fabc
000000d0: d622 5f3d dfed 433c 86b1 30bc 34ab 01bc
000000e0: 839a 22bd eb7f 29bd 8259 e63c 7484 a63c
000000f0: d4a4 373c b93c 28bd 55c9 0d3c b77d d4bc
00000100: 9a54 6abd ce3f f2ba 8cad 9e3d 4658 c3bc
00000110: fcee 26bd 003c 94bb 638e 1d3d 74e9 24bd
00000120: 9bae 213d f0bc 7c3d 85d8 b53c 57d7 eb3b
00000130: abc3 3c3d 1772 bd3c 1e7a 5abd 0436 25bd
00000140: 8049 c7bb 2965 3a3d db4e 73bd 78f1 0c3d
00000150: aaf8 05bc 661b 56bd 6cd5 893c 7a3d 9bbc
00000160: 896f 4d3c 905f 0dbd 0dec 42bd 10bf 85bc
00000170: e07f f9bc e67e 253d 2bcf a33a 5c52 213d
00000180: 5fb5 d23c b5f0 efbb 577f 533d b1fe 963c
00000190: fadf 123d e4a3 473c 95c8 edbb 10b2 b0bb
000001a0: aef0 3cbc 866b 7fbd 73c5 09bb 4da0 61bd
000001b0: c4f7 cbbc e6ad 153d 8271 3cbd 8216 b2bc
000001c0: 44fb 0e3c daac 15bc d244 df3b 4a12 453c
000001d0: 1d10 a83c b8b5 75bd bb5f 59bc b6b7 433c
000001e0: 52e6 df3c 2119 6fbc 472f 17bd 5e84 bd3c
000001f0: 0aaf 453d 2ac7 1ebc ba88 07bd caf9 1a3d
00000200: 0f9f dabb a58a 1ebd 57df ffbb bde8 093d
00000210: 455b bbbc 46af 383d 4d03 243d fc3f 983c
00000220: d904 863c 6fd7 3bbc 9bfc f93b f705 093d
00000230: 252c 0dbd 6d77 b63b c8d8 3dbc 1229 5e3d
00000240: 4b67 07bd 4663 403d 4f20 53bc f1d8 d8bc
00000250: 769b f73c b8a1 553c 5603 183d 8ec8 7e3c
00000260: e472 5fbd bb58 753d 39e0 0f3d 126c 2a3b
00000270: 02cd 2a3c b1e7 0b3d 73af 9fbd 30a0 6abd
00000280: f0ca a13c 26ce 21bc 7f5d 843d 9b8e 153c
00000290: ce17 abbc ee98 5c3d 5a4c 263d 3815 753d
000002a0: 8fb0 25bd d6d7 30bd f2ee b0bc 2ecf 0cbd
000002b0: 75cc 033d af63 2d3d 83d2 833c 6bcc 66ba
000002c0: 1278 ce3c c594 1bbd 0deb 833d fee0 59bd
000002d0: 178c 06bc 8f64 583c 5839 553d 5dc9 c93b
000002e0: bf47 123d ae3f 1cbd ca09 55bb 8ddd e9bc
000002f0: 0fd1 84bc ffba 873c bec5 a23c c9f2 ccbc
00000300: 0a82 843b 0a34 8ebc 4290 96bc a250 c33c
00000310: d249 47bc a721 273d 655a f8bc 325f d8ba
00000320: c704 003b 0d36 1ebd 7a35 d93c 61fd 363b
00000330: 7dfa 1dbc 8f59 33bb 68a4 1a3d b73f f23c
00000340: da43 11bd b47b 2c3d bbca 52bc 060a c5bb
00000350: ee27 5a3d 6ee5 a03b 0a47 4dbc a754 53bd
00000360: aee4 cabb e30a 0e3d bda3 3ebd f15d 8fbd
00000370: adee afbc cceb 8bbd 7ce4 9bbd 7412 46bd
00000380: 5d64 15bd b804 65bd c7dc e7bc e778 663c
00000390: b418 d3bc 3e68 063d ab09 bdbb a1c7 10bd
000003a0: e140 193d 646c 12bd 54e2 5abd 39aa 823c
000003b0: e503 a0bc 8371 5e3d a564 37bc e91d babc
000003c0: 82fd 803c 251b 5e3c f691 7b3d 657a 4cbd
000003d0: 4e39 67bb 6c2b 043c fe1f 17bd 0f8d 1dbd
000003e0: b1f4 463c ca66 86bd 2707 1dbc 3ecc 66bd
000003f0: 2e10 a13d 98aa eb3c 99f4 453d d7c1 7fbd

5.bias f4 [64]
-0.0039332877 0.02514917 -0.04859603 0.006310391 0.014046657 -0.056715365 0.0074061616 -0.04842584
-0.05424767 0.04981356 0.029044664 0.04057503 0.051673654 -0.034024786 -0.025293067 -0.0013622252
0.024709318 0.0028363138 -0.0059932163 0.0581711 -0.030318761 0.027979739 0.023862937 -0.030800639
0.029535674 0.039912656 -0.00918379 -0.039552458 0.032864913 0.044158634 0.022316646 0.0070977844
0.028269844 0.016888743 -0.017641345 -0.046520986 -0.028413221 0.017059904 -0.021259053 0.019118326
-0.034897417 -0.04627683 0.043474406 -0.038465373 0.019973971 0.052264947 0.003064128 0.038170226
-0.016133366 -0.051279 -0.026717003 -0.018211128 -0.033738077 -0.034655426 0.02712388 0.053564962
0.037203092 0.015023469 -0.043319967 -0.010112825 0.021518102 0.051672623 -0.033207018 0.034781486
00000000: cfe2 80bb a205 ce3c a10c 47bd 65c7 ce3b
00000010: f323 663c 5f4e 68bd 63af f23b 2c5a 46bd
00000020: ce32 5ebd 4e09 4c3d 13ef ed3c 0132 263d
00000030: c1a7 533d 935d 0bbd 6833 cfbc b18c b2ba
00000040: 326b ca3c 73e1 393b be62 c4bb d244 6e3d
00000050: 0d5f f8bc c435 e53c 357c c33c 9f51 fcbc
00000060: ccf4 f13c 747b 233d 9b77 16bc c201 22bd
00000070: 5c9d 063d afdf 343d 66d1 b63c 8894 e83b
00000080: 2996 e73c 435a 8a3c 9584 90bc ca8c 3ebd
00000090: d8c2 e8bc 36c1 8b3c 7727 aebc 099e 9c3c
000000a0: 98f0 0ebd c68c 3dbd 3812 323d de8d 1dbd
000000b0: 74a0 a33c c513 563d 8acf 483b 6258 1c3d
000000c0: 1f2a 84bc ee09 52bd 9edd dabc 812f 95bc
000000d0: f030 0abd d9f2 0dbd e632 de3c ef66 5b3d
000000e0: 4562 183d ff24 763c 4770 31bd 43b0 25bc
000000f0: bb46 b03c aca6 533d 1504 08bd 0877 0e3d

6.weight f4 [64]
1.030979 0.97394216 0.99780554 1.0180111 1.0087322 0.9924101 1.0096632 0.94305015
1.00936 0.9885773 0.99830186 0.9833792 1.0072644 1.0368592 0.95544994 1.0312685
1.0238321 0.9861308 0.9566277 0.98541385 1.0339504 0.99725366 0.9715486 1.0093582
0.9657479 0.9870138 0.954272 0.96766835 0.97921187 0.96065396 0.9789573 1.0131077
0.9707415 1.026736 0.98902154 0.99898165 0.98788625 0.99219644 1.001153 0.9948008
0.9824087 1.0147934 0.9900902 0.9610303 1.0399384 1.0192854 1.0047176 1.0403426
1.0036697 0.9699228 0.99699897 0.9960371 1.0300645 1.0162157 1.0108309 1.0283798
1.0041028 1.0001342 0.9809353 1.0132583 0.9598262 1.0497535 1.0047729 1.0172013
00000000: 1ff7 833f 4654 793f 2f70 7f3f 304e 823f
00000010: 231e 813f 970e 7e3f a53c 813f bc6b 713f
00000020: b532 813f 6713 7d3f b690 7f3f bdbe 7b3f
00000030: 0aee 803f cdb7 843f 5e98 743f 9b00 843f
00000040: ee0c 833f 1173 7c3f 8ee5 743f 1544 7c3f
00000050: 7d58 843f 044c 7f3f 69b7 783f a632 813f
00000060: 413b 773f f0ac 7c3f 2b4b 743f 1db9 773f
00000070: a1ad 7a3f 6bed 753f f29c 7a3f 83ad 813f
00000080: 8482 783f 166c 833f 8430 7d3f 43bd 7f3f
00000090: 1de6 7c3f 9600 7e3f c825 803f 44ab 7e3f
000000a0: 237f 7b3f c0e4 813f 8d76 7d3f 1506 763f
000000b0: b41c 853f f277 823f 969a 803f f229 853f
000000c0: 4078 803f dc4c 783f 533b 7f3f 4afc 7e3f
000000d0: 27d9 833f 5b13 823f e862 813f f3a1 833f
000000e0: 7186 803f 6604 803f 931e 7b3f 73b2 813f
000000f0: 2bb7 753f 535e 863f 669c 803f a733 823f

6.bias f4 [64]
-0.07946227 -0.07470893 -0.06766457 -0.05241111 -0.038616158 -0.0017328965 -0.048757542 -0.08443379
-0.016503166 0.0028889766 -0.073112875 -0.025735905 -0.078805305 -0.06512906 -0.053231485 -0.022320181
-0.058678944 -0.11560953 -0.055981785 -0.014238266 -0.055620544 -0.050691403 -0.07028164 0.00029712843
-0.06841849 -0.012536304 -0.11016371 -0.047316615 -0.046466906 -0.0648597 -0.11344312 -0.034220077
-0.08239872 -0.0427039 -0.021852931 -0.03764591 -0.043104537 -0.049415104 -0.0945189 -0.047332004
-0.026340699 -0.07459139 -0.002706976 -0.066782594 -0.06706622 -0.029537689 -0.023970539 -0.037857957
0.0035211667 -0.03800973 -0.033591446 -0.064033106 -0.010814231 -0.059572123 -0.06162053 -0.12999783
0.013644715 -0.015628505 -0.034603998 -0.06621113 -0.060600903 -0.042554934 -0.09349648 -0.06785166
00000000: 1dbd a2bd ff00 99bd b993 8abd 08ad 56bd
00000010: fa2b 1ebd 5c22 e3ba fdb5 47bd 9feb acbd
00000020: a631 87bc fc54 3d3b 34bc 95bd 1bd4 d2bc
00000030: ad64 a1bd 6262 85bd 4209 5abd d0d8 b6bc
00000040: 5559 70bd b0c4 ecbd 284d 65bd 9e47 69bc
00000050: 5ed2 63bd caa1 4fbd d2ef 8fbd e7c7 9b39
00000060: fe1e 8cbd 1265 4dbc 839d e1bd 11cf 41bd
00000070: 1554 3ebd 2ad5 84bd de54 e8bd 5a2a 0cbd
00000080: a9c0 a8bd 49ea 2ebd eb04 b3bc 9932 1abd
00000090: 628e 30bd 7e67 4abd 2093 c1bd 34df 41bd
000000a0: 73c8 d7bc 5fc3 98bd 8567 31bb 50c5 88bd
000000b0: 045a 89bd 06f9 f1bc dd5d c4bc f210 1bbd
000000c0: 60c3 663b 17b0 1bbd 2f97 09bd ca23 83bd
000000d0: 2c2e 31bc e601 74bd cf65 7cbd 271e 05be
000000e0: 158e 5f3c 5a07 80bc ecbc 0dbd b399 87bd
000000f0: a738 78bd 154e 2ebd 157b bfbd d0f5 8abd

6.running_mean f4 [64]
-0.2706552 -0.1511627 -0.11369859 -0.28878266 -0.54082155 -0.3411699 -0.09784686 0.2549326
-0.27512038 -0.55695564 -0.35649893 -0.6835269 -0.0015005601 -0.4511099 0.15884006 -0.1507785
0.028293684 -0.16175613 -0.16619733 -0.26194194 -0.5072615 -0.45121804 -0.004079409 -0.2710635
-0.042056054 -0.38215742 0.4227818 0.2572793 -0.23583083 -0.028239312 -0.19216692 -0.25863296
-0.3756955 -0.19995637 -0.4358148 -0.33361626 0.17283958 -0.06890745 -0.29165542 -0.20673898
-0.012442223 -0.061116256 -0.08669297 -0.7335579 -0.39321437 -0.29271072 -0.16236304 -0.49480343
-0.16807777 -0.052106045 -0.098035865 -0.028832788 -0.5318573 -0.27025884 0.030933434 -0.20875691
-0.7415711 -0.39937297 -0.03472257 -0.55098957 -0.4628768 -0.18957117 -0.5023907 -0.059635114
00000000: 5293 8abe 65ca 1abe ceda e8bd 52db 93be
00000010: 4873 0abf d2ad aebe ef63 c8bd 8786 823e
00000020: 94dc 8cbe a594 0ebf 0787 b6be 9efb 2ebf
00000030: 71ae c4ba e0f7 e6be f8a6 223e ae65 1abe
00000040: 28c8 e73c 66a3 25be a22f 2abe 411d 86be
00000050: e4db 01bf 0d06 e7be 90ac 85bb d6c8 8abe
00000060: f842 2cbd 23aa c3be db76 d83e 1dba 833e
00000070: a37d 71be 2156 e7bc 68c7 44be 8a6b 84be
00000080: 295b c0be 5dc1 4cbe 1e23 dfbe c0cf aabe
00000090: dcfc 303e 591f 8dbd dc53 95be 62b3 53be
000000a0: 77da 4bbc 0a55 7abd 158c b1bd 73ca 3bbf
000000b0: 6553 c9be 2ede 95be 7f42 26be e056 fdbe
000000c0: 941c 2cbe 266d 55bd 07c7 c8bd bd32 ecbc
000000d0: cd27 08bf 5e5f 8abe 1d68 fd3c 5fc4 55be
000000e0: 9bd7 3dbf 9d7a ccbe 4139 0ebd a70d 0dbf
000000f0: 30fe ecbe f21e 42be ad9c 00bf f343 74bd

6.running_var f4 [64]
0.09500237 0.106788985 0.058385976 0.09204018 0.17201938 0.11852457 0.08423933 0.069037564
0.16522843 0.16544487 0.12736353 0.21819453 0.12378079 0.09964623 0.23511428 0.108140595
0.07805173 0.14232834 0.1827076 0.11293575 0.13354975 0.15116292 0.118202195 0.16371952
0.07614774 0.110607974 0.12831366 0.15788627 0.09332197 0.09246215 0.13133006 0.13636564
0.12709108 0.113321885 0.21383205 0.09518712 0.08476534 0.07951354 0.14634374 0.09622596
0.113008045 0.08391085 0.19140002 0.2375821 0.09996408 0.07586993 0.13797869 0.11710097
0.10469777 0.14869091 0.08095689 0.07685925 0.11073873 0.10806313 0.09893458 0.08303151
0.19920205 0.12103849 0.12156126 0.16119868 0.14332065 0.12889555 0.12848762 0.0833999
00000000: 9a90 c23d 2fb4 da3d 2226 6f3d 907f bc3d
00000010: d925 303e 02bd f23d ab85 ac3d 9163 8d3d
00000020: a431 293e 616a 293e 966b 023e 636e 5f3e
00000030: c880 fd3d 5313 cc3d ccc1 703e d178 dd3d
00000040: 96d9 9f3d 85be 113e b317 3b3e dc4a e73d
00000050: 44c1 083e 74ca 1a3e fe13 f23d 17a6 273e
00000060: 59f3 9b3d 6f86 e23d a864 033e f0ac 213e
00000070: 971f bf3d cc5c bd3d 637b 063e 6fa3 0b3e
00000080: 2a24 023e 4e15 e83d caf6 5a3e 77f1 c23d
00000090: 7399 ad3d ffd7 a23d 22db 153e 1e12 c53d
000000a0: c370 e73d 74d9 ab3d 5efe 433e b948 733e
000000b0: f8b9 cc3d b261 9b3d 494a 0d3e a2d2 ef3d
000000c0: c96b d63d 6e42 183e bacc a53d 6268 9d3d
000000d0: fdca e23d 3450 dd3d 379e ca3d 6d0c aa3d
000000e0: 9ffb 4b3e 07e3 f73d 1cf5 f83d 4411 253e
000000f0: a6c2 123e 32fd 033e 4292 033e 91cd aa3d

10.weight f4 [64, 64, 3, 3]
-0.0140163135 -0.021865295 -0.057066627 0.010537235 0.020310609 -0.026758151 0.04918079 0.024253376
-0.0037409095 0.012593323 0.007675934 0.0020847397 -0.026908504 -0.033558223 -0.0052046524 -0.0043449313
-0.011107769 -0.009837687 -0.00010871462 -0.017381819 -0.013524515 -0.012510134 -0.0104129575 -0.012679112
-0.029690886 0.0031786677 -0.040031057 0.021409966 0.0006814623 0.025242193 0.0030238843 0.011890679
0.039481238 0.026468594 0.02125469 0.014254361 0.0015353436 0.0034918527 -0.01601703 -0.016787907
0.017307518 0.020402161 0.018975602 -0.03316002 -0.0155936545 -0.03775722 -0.035216607 -0.02805813
-0.031053854 -0.036877107 -0.031649284 -0.0042677964 -0.0051354077 -0.01781576 0.06000925 0.01567035
0.034673747 0.03586441 -0.014689895 0.010969316 0.009572773 0.038315993 0.0066412687 0.0050682095
-0.006053216 -0.008602718 0.0064778547 -0.032860804 -0.007353394 -0.014484973 0.007016114 -0.025430111
0.0059685674 0.03270565 -0.019853178 -0.019172415 -0.011243386 -0.00015519529 0.031168913 -0.0068145245
0.04611489 -0.0415561 0.010487854 -0.019301027 -0.028572708 -0.041931324 -0.032227915 -0.02769907
-0.030772114 -0.017080216 0.03764463 -0.0096175345 0.04700163 0.017542548 0.039518192 0.0348763
-0.00933247 0.036673926 0.062438164 0.016976777 0.024763627 0.028235173 0.008923206 -0.00949098
0.020820146 -0.0017271644 0.046778146 0.02517362 0.049772535 0.02603577 0.06384114 0.028179169
0.033752084 0.018728772 0.030660888 0.025638849 0.040939495 -0.017908113 -0.00042814313 -0.03345366
-0.0014983077 -0.018467078 -0.019847738 -0.006571101 -0.016950225 -0.010121648 0.013709091 0.017919483
0.0007543851 -0.0029347937 0.001438517 0.0016000405 0.033892155 -0.012854405 0.0068174424 0.018015657
0.03585373 0.05956739 0.029320227 0.046432793 0.036059115 0.008068574 0.026239136 0.050749607
-0.04729943 -0.051539376 -0.036637686 -0.0387446 -0.020497056 -0.007066492 -0.016634384 -0.0040136296
-0.018842122 -0.022211213 -0.019747905 -0.01606922 0.007272273 -0.032107078 -0.008607361 -0.028559305
-0.03899836 -0.03335357 0.0089752665 -0.008487742 0.0072837844 0.0069950544 -0.0056076422 0.013111781
0.00865288 -0.01058244 0.013934957 -0.024044853 -0.050264746 -0.008471238 -0.050157785 -0.01032824
-0.03689992 -0.019853786 0.0043023466 0.008493674 0.0119196195 -0.015700545 0.008124947 -0.007320285
-0.038494192 -0.025914023 0.0023212542 0.0012232997 -0.004266916 -0.011515528 0.009523638 0.016801795
0.028983835 0.021363301 0.015031537 -0.009390484 0.029376378 0.0035901584 0.011182573 -0.012721919
0.016417278 0.0052454257 0.028447255 0.007576586 0.044674374 -0.009479271 0.019785993 -0.04321027
-0.038098253 -0.04686901 -0.04246263 -0.031547993 -0.00790945 -0.012376659 -0.019093739 0.0061129928
-0.021371767 0.02069735 0.0025329639 -0.016513733 0.0014932026 0.0037639735 -0.013910377 -0.010145958
-0.010517387 0.018327517 0.0085361395 0.02616585 0.013858354 0.03253226 0.019111361 0.033170696
0.011185414 0.013758204 -0.023189845 -0.0299647 -0.0113126105 -0.009639526 0.005897256 -0.0054214476
-0.0064593772 -0.018580694 -0.0045557893 0.013255868 -0.023802552 0.001964955 0.019118834 0.009953462
-0.024028357 0.04271111 0.021112781 0.014345654 -0.027881702 -0.002775458 -0.015484132 -0.007356344
00000000: aea4 65bc d91e b3bc b2be 69bd 5ea4 2c3c
00000010: 6f62 a63c e933 dbbc cc71 493d 04af c63c
00000020: 0c2a 75bb 3a54 4e3c 6786 fb3b 21a0 083b
00000030: 396f dcbc 5974 09bd ca8b aabb ed5f 8ebb
00000040: 5cfd 35bc 402e 21bc b8fd e3b8 5164 8ebc
00000050: ed95 5dbc 4ef7 4cbc 1c9b 2abc 0dbc 4fbc
00000060: 4d3a f3bc 3251 503b 9bf7 23bd f463 af3c
00000070: 29a4 323a b7c8 ce3c 5c2c 463b 1fd1 423c
00000080: 14b7 213d aad4 d83c 511e ae3c 208b 693c
00000090: 953d c93a 91d7 643b 2636 83bc cb86 89bc
000000a0: 7fc8 8d3c 6f22 a73c b972 9b3c cdd2 07bd
000000b0: 877c 7fbc 51a7 1abd 4a3f 10bd 2ada e5bc
000000c0: a764 febc 730c 17bd aea2 01bd dfd8 8bbb
000000d0: ec46 a8bb 5bf2 91bc 42cc 753d 1b5f 803c
000000e0: 0f06 0e3d 8fe6 123d e3ad 70bc a5b8 333c
000000f0: 1fd7 1c3c 3bf1 1c3d 009f d93b 3913 a63b
00000100: 0e5a c6bb 6af2 0cbc 2f44 d43b 0d99 06bd
00000110: bdf4 f0bb 6152 6dbc 6ee7 e53b cf52 d0bc
00000120: f993 c33b 5cf6 053d 22a3 a2bc 780f 9dbc
00000130: 2e36 38bc ebbb 22b9 f355 ff3c 604c dfbb
00000140: f8e2 3c3d bb36 2abd 3fd5 2b3c 301d 9ebc
00000150: 5011 eabc 2ec0 2bbd 6b01 04bd 29e9 e2bc
00000160: cd15 fcbc cfeb 8bbc 4131 1a3d dd92 1dbc
00000170: c884 403d 64b5 8f3c d4dd 213d 73da 0e3d
00000180: 37e7 18bc 6637 163d 29bf 7f3d e212 8b3c
00000190: 17dd ca3c 734d e73c a332 123c 0e80 1bbc
000001a0: 038f aa3c 0562 e2ba 719a 3f3d e838 ce3c
000001b0: 49de 4b3d f848 d53c 25bf 823d 00d8 e63c
000001c0: a03f 0a3d 156d 993c 8b2c fb3c 9008 d23c
000001d0: 2cb0 273d 09b4 92bc 6678 e0b9 b406 09bd
000001e0: dd62 c4ba 4548 97bc b997 a2bc 6452 d7bb
000001f0: 33db 8abc 45d5 25bc 189c 603c e1cb 923c
00000200: edc1 453a ab55 40bb 9f8c bc3a 73b8 d13a
00000210: 80d2 0a3d 489b 52bc da64 df3b 9295 933c
00000220: 5cdb 123d effc 733d f930 f03c 5030 3e3d
00000230: b9b2 133d 0d32 043c 75f3 d63c d2de 4f3d
00000240: 0cbd 41bd f41a 53bd 6611 16bd a8b2 1ebd
00000250: 71e9 a7bc 088e e7bb d544 88bc c484 83bb
00000260: cb5a 9abc 4af4 b5bc 5cc6 a1bc 99a3 83bc
00000270: 3f4c ee3b b682 03bd e305 0dbc 34f5 e9bc
00000280: bfbc 1fbd c19d 08bd ff0c 133c 2c10 0bbc
00000290: d0ac ee3b c536 e53b 50c0 b7bb ccd2 563c
000002a0: cfc4 0d3c f861 2dbc 724f 643c b6f9 c4bc
000002b0: 68e2 4dbd f3ca 0abc 4072 4dbd c737 29bc
000002c0: 5f24 17bd 68a4 a2bc b3fa 8c3b 0d29 0b3c
000002d0: 824a 433c 6e9e 80bc 7f1e 053c 00df efbb
000002e0: 16ac 1dbd a549 d4bc 2f20 183b 2057 a03a
000002f0: 7cd1 8bbb a0ab 3cbc 0809 1c3c eba3 893c
00000300: 826f ed3c 1702 af3c d646 763c 8bda 19bc
00000310: bba6 f03c dd48 6b3b 1c37 373c 996f 50bc
00000320: 877d 863c d2e1 ab3b 380a e93c 0345 f83b
00000330: 7afc 363d f24e 1bbc 3c16 a23c 41fd 30bd
00000340: ea0c 1cbd b8f9 3fbd 4bed 2dbd 7838 01bd
00000350: a396 01bc 78c7 4abc 796a 9cbc 804f c83b
00000360: d813 afbc 7d8d a93c 1500 263b cf47 87bc
00000370: 91b7 c33a ffac 763b 5ae8 63bc 3b3b 26bc
00000380: 1e51 2cbc 9723 963c 2adb 0b3c c459 d63c
00000390: 260e 633c 8c40 053d 6e8f 9c3c ffdd 073d
000003a0: 0743 373c 176a 613c a1f8 bdbc 8878 f5bc
000003b0: 8758 39bc 1aef 1dbc c53d c13b 66a6 b1bb
000003c0: 2fa9 d3bb 8a36 98bc bb48 95bb 242f 593c
000003d0: 92fd c2bc 79c6 003b 1a9f 9c3c d813 233c
000003e0: 1ed7 c4bc d8f1 2e3d b6f4 ac3c 090a 6b3c
000003f0: 2b68 e4bc 75e4 35bb 28b1 7dbc 7c0d f1bb

10.bias f4 [64]
0.039305758 -0.032236837 -0.0007467292 0.018060451 0.0066325963 0.012834852 0.014289423 -0.038258966
0.03869991 0.026885005 -0.027151197 0.028316379 0.015634565 -0.013535317 0.0074657355 -0.0039753406
0.0022846453 0.013186051 0.029278206 0.036801487 0.00092927954 0.011265371 0.023595989 0.022292545
-0.026026746 0.0059607844 0.040149678 0.035043187 0.020158784 0.009121013 0.023625856 0.038475215
-0.0025599205 0.032910407 0.035694435 -0.019707233 0.0028918039 0.017561961 -0.01149507 0.029770562
-0.031962253 -0.02425365 0.04065498 -0.02740327 0.031972785 0.036966994 0.017567981 0.009912838
-0.008423598 -0.0027357268 0.0016128684 -0.009260528 0.0019651449 0.0127689885 0.018224444 0.03286881
0.017794237 0.032617513 0.009775702 0.010590254 0.026395192 0.004057442 -0.027542768 -0.02339157
00000000: 13ff 203d c60a 04bd 26c0 43ba 83f3 933c
00000010: 4056 d93b 4549 523c 2f1e 6a3c 6fb5 1cbd
00000020: cc83 1e3d f13d dc3c 306c debc c0f7 e73c
00000030: 0f14 803c 3cc3 5dbc 21a3 f43b 9343 82bb
00000040: fdb9 153b 4e0a 583c d9d8 ef3c 28bd 163d
00000050: e59a 733a 6492 383c 604c c13c db9e b63c
00000060: 0b36 d5bc af52 c33b fd73 243d 7289 0f3d
00000070: 0924 a53c 4d70 153c 038b c13c 3098 1d3d
00000080: 57c4 27bb 10cd 063d 5434 123d 1071 a1bc
00000090: 6b84 3d3b 1ade 8f3c d155 3cbc 65e1 f33c
000000a0: daea 02bd 97af c6bc d685 263d d37c e0bc
000000b0: e5f5 023d b46a 173d baea 8f3c 7569 223c
000000c0: 2103 0abc e149 33bb e266 d33a 78b9 17bc
000000d0: a9c9 003b 0535 513c 6e4b 953c 72a1 063d
000000e0: 38c5 913c f199 053d 442a 203c bf82 2d3c
000000f0: bb3a d83c 4af4 843b 5fa1 e1bc ae9f bfbc

11.weight f4 [64]
1.1296027 1.1332794 1.1306487 1.1567439 1.1618778 1.1570774 1.1167657 1.1541947
1.1314411 1.1372404 1.1363444 1.1150513 1.1365001 1.1329789 1.142902 1.1429013
1.1317236 1.1534512 1.1458132 1.1288147 1.1697304 1.1369632 1.1423649 1.1540242
1.1562945 1.1576406 1.1442193 1.1395772 1.1435044 1.1359295 1.1631074 1.1487075
1.1269099 1.1494232 1.1490512 1.1421143 1.1433581 1.1353784 1.1335101 1.1366711
1.1294329 1.0919796 1.1709597 1.1330525 1.138384 1.1448774 1.1510986 1.1477888
1.1321745 1.1296121 1.1599417 1.1567906 1.150768 1.1367016 1.130514 1.1569241
1.1633749 1.1416425 1.1302667 1.1589546 1.1356102 1.1471136 1.1596528 1.1436008
00000000: d296 903f 4d0f 913f 19b9 903f 2f10 943f
00000010: 69b8 943f 1d1b 943f 2ef2 8e3f a7bc 933f
00000020: 10d3 903f 1891 913f bc73 913f 00ba 8e3f
00000030: d678 913f 7405 913f 9d4a 923f 974a 923f
00000040: 52dc 903f 4aa4 933f 02aa 923f 007d 903f
00000050: bab9 953f 0388 913f 0339 923f 11b7 933f
00000060: 7501 943f 912d 943f c775 923f aadd 913f
00000070: 5a5e 923f 2366 913f b4e0 943f d908 933f
00000080: 953e 903f 4d20 933f 1c14 933f cd30 923f
00000090: 8f59 923f 1454 913f dc16 913f 707e 913f
000000a0: 4291 903f fdc5 8b3f 02e2 953f dd07 913f
000000b0: 91b6 913f 588b 923f 3357 933f beea 923f
000000c0: 18eb 903f 2197 903f f878 943f b711 943f
000000d0: 5e4c 933f 707f 913f afb4 903f 1716 943f
000000e0: 78e9 943f 5721 923f 94ac 903f a058 943f
000000f0: ad5b 913f 9ed4 923f 816f 943f 8361 923f

11.bias f4 [64]
0.09159669 0.1162014 0.10543737 0.12702902 0.1284349 0.10807525 0.10668394 0.13350789
0.08238084 0.09180581 0.122562654 0.09858755 0.0712012 0.09350904 0.0656119 0.120373495
0.08348419 0.07194352 0.106799655 0.115489215 0.13461432 0.11433168 0.112298094 0.09811914
0.1337382 0.118796475 0.103911854 0.10012118 0.118446894 0.10355247 0.14046197 0.11499045
0.10468318 0.10672334 0.1198179 0.09549641 0.108085655 0.089358844 0.10369058 0.120732985
0.08610057 0.045097053 0.12974054 0.09646445 0.105244495 0.124359496 0.11042663 0.10345126
0.09739185 0.10460198 0.12785117 0.12591858 0.11942084 0.11629544 0.10195184 0.121424645
0.13574688 0.10590607 0.091947936 0.13025503 0.11795341 0.12752219 0.12002167 0.121625714
00000000: 0c97 bb3d 00fb ed3d 8cef d73d e513 023e
00000010: 7084 033e 8f56 dd3d 1c7d da3d 4bb6 083e
00000020: 49b7 a83d af04 bc3d 2102 fb3d 45e8 c93d
00000030: efd1 913d ab81 bf3d 885f 863d 6186 f63d
00000040: c2f9 aa3d 2057 933d c7b9 da3d 9c85 ec3d
00000050: 56d8 093e ba26 ea3d 8bfc e53d b0f2 c83d
00000060: abf2 083e 914b f33d bdcf d43d 550c cd3d
00000070: 4994 f23d 5113 d43d 43d5 0f3e 1d80 eb3d
00000080: 2364 d63d c491 da3d 1663 f53d 9f93 c33d
00000090: 035c dd3d c501 b73d ba5b d43d db42 f73d
000000a0: 7f55 b03d b0b7 383d b4da 043e 278f c53d
000000b0: 6d8a d73d 31b0 fe3d 5b27 e23d 41de d33d
000000c0: 6175 c73d 9039 d63d 6beb 023e cdf0 003e
000000d0: ea92 f43d 4e2c ee3d 20cc d03d 7cad f83d
000000e0: 3b01 0b3e 48e5 d83d 334f bc3d 9361 053e
000000f0: 8f91 f13d 2d95 023e eccd f53d e716 f93d

11.running_mean f4 [64]
-0.08550527 -0.31103393 -0.35481426 0.06349179 -0.25518313 0.08595684 -0.29664445 -0.5631867
0.021057878 0.010655452 -0.44589433 0.17053236 0.0038577146 -0.0076338113 0.06355302 0.17444676
-0.039538942 -0.17153019 -0.10858797 -0.34271562 0.32151708 -0.053566597 -0.48838556 0.22281417
0.53341764 -0.27916473 -0.38228974 0.005107654 -0.46494234 -0.047756787 0.16831501 -0.24192746
-0.6853293 0.068482466 0.16323473 0.10199201 -0.28648624 0.21512279 -0.13786882 -0.5766718
0.09938757 0.13056836 0.16776 -0.13168941 -0.40640014 -0.6589919 -0.30288324 0.45722228
-0.08455322 0.22229257 -0.19744965 -0.1209072 -0.1365071 0.27509847 -0.50002694 0.5041913
0.11810002 -0.18283772 -0.31469128 -0.028701799 -0.057664458 0.32483307 -0.62455225 -0.1920344
00000000: 631d afbd d73f 9fbe 37aa b5be fc07 823d
00000010: 5da7 82be 240a b03d c8e1 97be 012d 10bf
00000020: 9281 ac3c 3494 2e3c 434c e4be 09a0 2e3e
00000030: b6d1 7c3b 0d25 fabb 1628 823d 2ca2 323e
00000040: 96f3 21bd 9ca5 2fbe 5f63 debd 6c78 afbe
00000050: e39d a43e a668 5bbd ac0d fabe 6629 643e
00000060: 0f8e 083f aeee 8ebe 7bbb c3be 1b5e a73b
00000070: ec0c eebe 9f9c 43bd c55a 2c3e d5bb 77be
00000080: be71 2fbf 8940 8c3d 0127 273e 30e1 d03d
00000090: 53ae 92be 2649 5c3e 7c2d 0dbe c3a0 13bf
000000a0: b68b cb3d b6b3 053e 47c9 2b3e 97d9 06be
000000b0: ae13 d0be b1b3 28bf 8313 9bbe 0a19 ea3e
000000c0: 3d2a adbd aaa0 633e 3e30 4abe 329e f7bd
000000d0: 84c8 0bbe b5d9 8c3e c401 00bf ae12 013f
000000e0: 6cde f13d d039 3bbe 371f a1be 0920 ebbc
000000f0: 9131 6cbd 8550 a63e a8e2 1fbf aaa4 44be

11.running_var f4 [64]
0.06894044 0.072560914 0.09759817 0.079175875 0.0835543 0.11278018 0.07669637 0.071683384
0.08283569 0.09660753 0.0766386 0.08493913 0.09505315 0.10357283 0.0809961 0.08326495
0.06543333 0.08951332 0.08669043 0.11450467 0.058738556 0.10000374 0.08592333 0.063875124
0.09368563 0.10240648 0.087482534 0.0641438 0.08188258 0.06408609 0.075452395 0.084907174
0.10466403 0.08967822 0.07773833 0.090205304 0.058254063 0.099071264 0.078124575 0.07924529
0.10997294 0.08797077 0.07338983 0.084255904 0.067623705 0.089035615 0.07987964 0.08494402
0.08632011 0.095769525 0.08660187 0.07867812 0.08016265 0.115512416 0.083402276 0.062237002
0.07776676 0.062435675 0.09195474 0.08816069 0.07703207 0.10235475 0.08024117 0.102074794
00000000: a530 8d3d d19a 943d 8de1 c73d f626 a23d
00000010: 841e ab3d 4cf9 e63d fd12 9d3d bdce 923d
00000020: c2a5 a93d 2bda c53d b3f4 9c3d 91f4 ad3d
00000030: 3aab c23d fe1d d43d 49e1 a53d d086 aa3d
00000040: e901 863d c252 b73d c18a b13d 6d81 ea3d
00000050: d797 703d c3ce cc3d 92f8 af3d f6d0 823d
00000060: 40de bf3d 7dba d13d 0b2a b33d d35d 833d
00000070: 0eb2 a73d 913f 833d c986 9a3d d0e3 ad3d
00000080: 185a d63d 37a9 b73d 4635 9f3d 8fbd b83d
00000090: d09b 6e3d e0e5 ca3d c7ff 9f3d 5b4b a23d
000000a0: 7e39 e13d 052a b43d 684d 963d 5c8e ac3d
000000b0: 4c7e 8a3d 4e58 b63d f097 a33d 21f7 ad3d
000000c0: 99c8 b03d d022 c43d 525c b13d ff21 a13d
000000d0: 512c a43d c691 ec3d d0ce aa3d 3aec 7e3d
000000e0: 2e44 9f3d 8dbc 7f3d c452 bc3d 988d b43d
000000f0: fdc2 9d3d 5e9f d13d 7c55 a43d 970c d13d

16.weight f4 [32, 64]
0.11640232 -0.08375688 0.102410324 0.1860628 -0.114883624 0.020185417 0.10409722 0.06830305
0.024421854 0.1640153 0.035473414 -0.046811663 0.13477315 0.20971124 -0.023666592 -0.04314467
0.060525417 -0.0744755 0.14554296 -0.050984275 0.1303916 0.10261884 -0.13351274 0.04397967
0.061336525 -0.08619087 2.4299938e-05 -0.1318318 -0.053523578 -0.0610098 0.21092659 -0.21552095
0.030267995 0.10386888 0.17980558 0.031412233 -0.05425385 0.15037991 0.0055811414 -0.11985141
0.05284997 0.022488939 0.19142851 0.07775533 -0.08378298 0.03525476 -0.114527054 -0.021288743
0.13829353 0.099342585 0.01026457 0.06666472 -0.028588297 -0.014893063 -0.22298537 0.25163952
-0.053051468 -0.06536726 -0.10737733 0.16605271 0.09797114 -0.021524666 0.027801469 -0.011810504
0.0137898065 0.09894791 -0.060785607 0.11482274 -0.058063027 -0.049759224 -0.08061821 0.014336812
-0.00010466359 0.094041675 -0.08639383 -0.063105345 0.02111502 0.16499487 -0.064856224 -0.083417535
0.116915435 -0.08173481 -0.030724404 0.019037435 -0.093366474 0.11585549 0.0032463225 -0.072868735
0.052035615 -0.019717433 -0.003339008 0.026557645 -0.11700034 -0.038103666 -1.3283381e-05 -0.11519759
0.05238054 -0.022470644 0.12852943 0.09216448 0.046748355 0.028138423 -0.10389011 0.016671903
-0.021719247 0.094736986 0.14106151 -0.081157096 0.008486078 -0.020712698 0.033342652 0.16598685
0.03876057 0.04712254 -0.06828261 0.13683777 -0.026125455 0.044911876 0.09411959 0.12450522
-0.069196425 -0.11479062 0.08354116 -0.037609234 -0.09744375 -0.00628851 0.035832517 0.07265
0.21683824 0.18303679 -0.049974985 0.11040015 -0.021043891 -0.04598728 0.05006398 0.0032158645
-0.10526727 -0.10398856 0.106403954 -0.12587163 0.009561911 -0.20922895 -0.14368151 -0.055985592
0.01241535 -0.10149103 0.028643085 0.056480724 -0.060408097 0.021613766 0.15136634 -0.09851093
-0.08925485 0.12507543 -0.0070849727 0.026914801 -0.057295047 -0.057162635 -0.06546898 0.12892914
0.19357005 -0.13186502 0.076456785 -0.15172246 0.11884956 -0.15640703 0.17000344 -0.022250872
0.060747 0.041143484 -0.0829457 -0.0030023444 0.19651245 0.15890986 0.030776652 -0.1677613
-0.086805575 -0.17307104 0.14515315 -0.05925664 0.10822662 -0.026427817 0.13741371 -0.07879406
0.08153935 0.12237572 0.24370152 0.04106132 -0.059552465 0.05114325 0.1345199 -0.027952421
0.005260842 -0.0015175834 0.06231184 0.12010105 -0.21694516 -0.013768338 -0.0031204005 -0.038040504
0.20125556 0.06223934 0.16379456 -0.0741319 0.06832579 0.037838332 0.07596189 -0.037159096
0.14730427 0.09052754 0.13188142 0.039694842 -0.08951038 -0.17844748 -0.010199051 0.11582953
-0.13799775 -0.14622058 -0.11972271 -0.11751767 0.06265124 -0.097948626 0.0922335 -0.08532766
-0.11404435 0.048367824 0.14495897 0.16697276 -0.045148328 0.0411372 0.20064001 0.05569566
-0.037608672 -0.035633743 0.049956284 0.21408613 0.12431843 0.14049716 -0.15748858 -0.06578763
0.067918874 -0.005807916 0.10065605 -0.088808015 0.1391997 0.013610377 -0.051393233 0.05178616
0.1279939 0.13544442 0.09039809 -0.006877086 -0.11895528 0.013654724 0.13939948 -0.05748393
00000000: 5764 ee3d ba88 abbd 81bc d13d 3f87 3e3e
00000010: 1b48 ebbd e35b a53c ec30 d53d 78e2 8b3d
00000020: 5710 c83c a0f3 273e 924c 113d 96bd 3fbd
00000030: f901 0a3e 8bbe 563e 71e0 c1bc 77b8 30bd
00000040: 80e9 773d 9c86 98bd 3709 153e e3d4 50bd
00000050: 6085 053e d429 d23d 90b7 08be 0724 343d
00000060: 023c 7b3d d784 b0bd b8d7 cb37 eafe 06be
00000070: 8a3b 5bbd 69e5 79bd 24fd 573e 86b1 5cbe
00000080: 96f4 f73c 35b9 d43d f41e 383e 1daa 003d
00000090: 4939 5ebd 31fd 193e 02e2 b63b a874 f5bd
000000a0: 3679 583d b93a b83c d605 443e 303e 9f3d
000000b0: 6996 abbd 4c67 103d 298d eabd bb65 aebc
000000c0: d29c 0d3e 2074 cb3d ba2c 283c 8387 883d
000000d0: 0132 eabc 0902 74bc 4756 64be e5d6 803e
000000e0: 7f4c 59bd 45df 85bd a5e8 dbbd b909 2a3e
000000f0: 18a5 c83d 7f54 b0bc e8bf e33c d880 41bc
00000100: a4ee 613c 34a5 ca3d 54fa 78bd 2f28 eb3d
00000110: 7fd3 6dbd 54d0 4bbd 291b a5bd f3e4 6a3c
00000120: d67e dbb8 ec98 c03d 40ef b0bd 603d 81bd
00000130: 68f9 ac3c 6af4 283e 57d3 84bd d0d6 aabd
00000140: 5c71 ef3d 9464 a7bd bfb1 fbbc 65f4 9b3c
00000150: ec36 bfbd a545 ed3d 41c0 543b 343c 95bd
00000160: 4c23 553d 7486 a1bc 42d3 5abb 6b8f d93c
00000170: e09d efbd 9712 1cbd b0db 5eb7 b7ec ebbd
00000180: fa8c 563d 5b14 b8bc 389d 033e bbc0 bc3d
00000190: 347b 3f3d 8d82 e63c 57c4 d4bd 8493 883c
000001a0: 90ec b1bc 7705 c23d 6e72 103e b135 a6bd
000001b0: 3109 0b3c adad a9bc 4e92 083d 75f8 293e
000001c0: 67c3 1e3d 9103 413d c1d7 8bbd 331f 0c3e
000001d0: 0d05 d6bc 84f5 373d c6c1 c03d 98fc fe3d
000001e0: dbb6 8dbd 5817 ebbd a117 ab3d 240c 1abd
000001f0: 9790 c7bd d80f cebb 1ec5 123d 86c9 943d
00000200: d80a 5e3e ff6d 3b3e 92b2 4cbd 7919 e23d
00000210: 3d64 acbc 285d 3cbd e30f 4d3d 41c1 523b
00000220: 5e96 d7bd f4f7 d4bd 51ea d93d 7ee4 00be
00000230: 90a9 1c3c 1d40 56be 3f21 13be 2651 65bd
00000240: c169 4b3c 87da cfbd e7a4 ea3c 5558 673d
00000250: 7b6e 77bd 5a0f b13c c7ff 1a3e 19c0 c9bd
00000260: 3fcb b6bd c613 003e 0f29 e8bb 6e7c dc3c
00000270: 36ae 6abd 5e23 6abd 9a14 86bd 0006 043e
00000280: 3a37 463e a007 07be 6095 9c3d 225d 1bbe
00000290: 6667 f33d 2a29 20be 6215 2e3e 7647 b6bc
000002a0: d9d1 783d 1286 283d 6fdf a9bd fbc2 44bb
000002b0: 8f3a 493e 44b9 223e 511f fc3c 9ec9 2bbe
000002c0: 1fc7 b1bd 8939 31be 07a3 143e 17b7 72bd
000002d0: eba5 dd3d 267f d8bc 2eb6 0c3e c85e a1bd
000002e0: 1afe a63d 1fa0 fa3d e48c 793e ea2f 283d
000002f0: 49ed 73bd 967b 513d 96bf 093e 7afc e4bc
00000300: 2463 ac3b a6e9 c6ba b33a 7f3d 8af7 f53d
00000310: df26 5ebe 9894 61bc a27f 4cbb 5cd0 1bbd
00000320: f015 4e3e aeee 7e3d c3b9 273e 77d2 97bd
00000330: 64ee 8b3d 5efc 1a3d e891 9b3d 2334 18bd
00000340: eed6 163e 8166 b93d ec0b 073e 0f97 223d
00000350: 3851 b7bd f0ba 36be ec19 27bc 0838 ed3d
00000360: 484f 0dbe d9ba 15be 2e31 f5bd 1bad f0bd
00000370: 4b4f 803d 4a99 c8bd ebe4 bc3d 45c0 aebd
00000380: 1690 e9bd 571d 463d 2070 143e e8fa 2a3e
00000390: 74ed 38bd 7b7f 283d 9374 4d3e 2221 643d
000003a0: 8d0b 1abd b0f4 11bd f69e 4c3d 6539 5b3e
000003b0: a99a fe3d 7dde 0f3e b044 21be aabb 86bd
000003c0: 0d19 8b3d 5550 bebb c224 ce3d fae0 b5bd
000003d0: 5e8a 0e3e 0ffe 5e3c b681 52bd b91d 543d
000003e0: d510 033e f1b1 0a3e a222 b93d 2e59 e1bb
000003f0: d39e f3bd 10b8 5f3c bdbe 0e3e 4574 6bbd

16.bias f4 [32]
0.17456385 -0.03310223 0.13159123 0.0729638 -0.047404494 -0.053907532 0.10101416 0.020926489
-0.030166468 -0.0060768216 0.016481565 0.0177791 0.12294974 0.06478808 0.12102147 0.0042921193
0.1539684 0.14822654 0.12860066 -0.021934543 0.0422641 0.13461791 0.0370088 0.064346984
0.00097094424 0.10583911 -0.006828354 -0.023322288 0.0043501207 -0.051954165 0.0379634 0.16455223
00000000: dec0 323e 3496 07bd dabf 063e 0b6e 953d
00000010: 372b 42bd 25ce 5cbd 83e0 ce3d 076e ab3c
00000020: ab1f f7bc 1320 c7bb 5904 873c 7aa5 913c
00000030: 13cd fb3d 9daf 843d 1bda f73d e8a4 8c3b
00000040: e4a9 1d3e b3c8 173e e4af 033e 12b0 b3bc
00000050: 1f1d 2d3d 47d9 093e 8a96 173d 5ac8 833d
00000060: f786 7e3a 2dc2 d83d 63c0 dfbb 620e bfbc
00000070: 758b 8e3b e4cd 54bd 837f 1b3d 6180 283e
