03_AML2425_Unlearning/Practice/checkpoint/gold_model.pth (torch, 245282 bytes, 22 tensors)

0.weight f4 [32, 3, 3, 3]
0.00749022 0.11522827 -0.15408944 -0.12545526 -0.06573552 0.039609578 0.0072298003 0.14769232
-0.03292246 0.04777071 -0.055607356 -0.039408498 -0.17431101 -0.12284349 -0.09177759 0.010752305
0.06699813 0.09937648 -0.1370718 -0.07774211 0.07890364 0.17511408 -0.018834941 0.1555653
-0.017051145 0.035307102 0.18917514 -0.15916173 -0.109790124 -0.040515512 -0.064605646 0.17430443
-0.1174039 -0.07395678 -0.11738497 -0.16191936 -0.08646123 0.18477838 0.10075734 0.115864575
0.031230457 -0.07998994 0.059894964 -0.1508498 -0.11123239 -0.07864144 0.13784453 0.12329053
-0.063541755 0.014997071 0.14062315 0.21900551 0.105589725 0.05168971 0.11140876 -0.1252013
0.037562028 -0.16949709 -0.14137 -0.09145457 0.07981942 0.08248823 -0.09747245 0.042536553
0.09708554 -0.01983704 -0.017524678 0.03362638 0.12359545 0.16233061 -0.15840124 -0.06996153
0.087898545 0.17442039 0.18575208 0.1638449 0.044046514 -0.15408216 0.0015945068 -0.12381846
-0.17655613 0.15856123 0.1416057 -0.2000801 0.023451079 -0.033192746 -0.02975851 -0.095488355
0.07927086 -0.10571988 0.08333333 0.11478799 0.15109187 0.08362339 -0.17120932 -0.10392953
0.11400688 0.065516315 -0.12379138 -0.10946312 0.19313489 0.15467414 -0.097257346 -0.04840183
-0.16267096 -0.012859135 -0.1426776 -0.12539154 -0.020986412 0.012045302 -0.08221469 0.1126953
-0.13249142 0.17943665 0.13550912 -0.16974223 -0.032534204 0.022267783 0.033013035 0.061871562
0.09638431 0.015400264 -0.07224312 0.114247255 -0.17636992 -0.08555295 -0.009630053 -0.062326457
-0.02969956 -0.11058571 -0.015205726 0.08321397 -0.07152175 0.02382365 0.18756199 -0.013257823
0.0024718726 -0.02134168 0.041838247 0.11963957 0.17815629 0.12801039 0.18196651 -0.017462699
-0.15526272 -0.08790245 0.13280477 0.004687611 -0.101338096 -0.15460546 -0.17194247 -0.16703746
-0.04640636 0.15514117 0.137168 -0.1509403 0.15685432 -0.13070655 -0.020710323 -0.03739701
-0.0153703485 -0.018104522 -0.16899344 -0.16841611 -0.041139692 -0.0028255607 -0.08839581 0.067610785
-0.17059708 -0.006605146 0.17226917 -0.066424675 0.18335323 0.064196445 -0.16276765 0.13750103
-0.01728097 -0.070778675 0.1741677 -0.1450292 0.032679353 -0.029076213 0.13487278 0.064046584
0.10690322 0.07113119 -0.032415226 -0.023708187 -0.15382543 0.111355916 0.1620946 0.14809598
-0.13689938 0.011064122 -0.13058963 -0.09971565 -0.105191804 0.07032613 -0.11581413 -0.0016201749
0.019133035 0.1231204 -0.14106587 -0.1243956 -0.10094276 0.14836082 -0.057013486 0.15326193
0.06314326 0.025680007 -0.008159212 -0.040997125 0.02373866 -0.03931059 0.004745971 0.029064849
-0.13646768 -0.10420399 0.15642214 -0.142533 -0.009967474 0.19331045 0.08903381 0.015790118
-0.17517361 0.09339148 -0.1504595 -0.05901777 -0.068877965 -0.037926745 -0.0051118345 0.15473929
0.013161151 0.1425621 0.12769713 -0.11765499 0.10151139 -0.13097103 -0.07659086 0.06723389
0.06708252 0.14552711 -0.0740311 -0.0043263887 0.09032587 -0.17032106 0.14530759 -0.1592815
0.015678663 -0.008917909 -0.09347435 0.042616285 0.15106536 -0.06755821 -0.102880664 -0.06862994
00000000: 8570 f53b cdfc eb3d 9fc9 1dbe 5877 00be
00000010: 58a0 86bd a73d 223d f6e7 ec3b a83c 173e
00000020: b4d9 06bd 38ab 433d 8ac4 63bd ce6a 21bd
00000030: 967e 32be 5e95 fbbd e4f5 bbbd 702a 303c
00000040: 5136 893d e585 cb3d 8d5c 0cbe 4137 9fbd
00000050: 3b98 a13d 1b51 333e bc4b 9abc 834c 1f3e
00000060: d8ae 8bbc 2e9e 103d 21b7 413e 4bfb 22be
00000070: a5d9 e0bd 98f3 25bd f74f 84bd dc7c 323e
00000080: 7571 f0bd a776 97bd 8867 f0bd 30ce 25be
00000090: 9612 b1bd 8b36 3d3e dd59 ce3d 684a ed3d
000000a0: 04d7 ff3c c4d1 a3bd 6c54 753d 5f78 1abe
000000b0: cfcd e3bd c30e a1bd 1e27 0d3e bf7f fc3d
000000c0: 2e22 82bd 46b6 753c 84ff 0f3e fb42 603e
000000d0: 6d3f d83d 97b8 533d 472a e43d c534 00be
000000e0: a4da 193d a590 2dbe 4cc3 10be 894c bbbd
000000f0: 5d78 a33d 97ef a83d a39f c7bd cf3a 2e3d
00000100: c9d4 c63d 4a81 a2bc ea8f 8fbc d1bb 093d
00000110: 9c1f fd3d ff39 263e ef33 22be fe47 8fbd
00000120: 2704 b43d 429b 323e cb35 3e3e f5c6 273e
00000130: 1e6a 343d b7c7 1dbe c5fe d03a 8894 fdbd
00000140: 21cb 34be e05d 223e 1601 113e cce1 4cbe
00000150: 7a1c c03c 1ef5 07bd 1ec8 f3bc 668f c3bd
00000160: c358 a23d aa83 d8bd aaaa aa3d f715 eb3d
00000170: d4b7 1a3e bd42 ab3d 7f51 2fbe 01d9 d4bd
00000180: 707c e93d 6b2d 863d 5686 fdbd 332e e0bd
00000190: 27c5 453e e662 1e3e dc2e c7bd ff40 46bd
000001a0: 3793 26be 1faf 52bc 141a 12be a466 00be
000001b0: b2eb abbc a959 453c 2d60 a8bd cbcc e63d
000001c0: d5ab 07be 3ebe 373e e7c2 0a3e e8d0 2dbe
000001d0: 9642 05bd ed6a b63c ad38 073d 096d 7d3d
000001e0: 2365 c53d 6451 7c3c 33f4 93bd 77fa e93d
000001f0: 519a 34be 6336 afbd 5fc7 1dbc 074a 7fbd
00000200: 7e4c f3bc c37a e2bd 7021 79bc 166c aa3d
00000210: ff79 92bd d129 c33c 4010 403e 5737 59bc
00000220: 24ff 213b bfd4 aebc 955e 2b3d 9705 f53d
00000230: 9a6e 363e 2815 033e 6e55 3a3e ef0d 8fbc
00000240: 31fd 1ebe 3306 b4bd f9fd 073e 889a 993b
00000250: 598a cfbd e550 1ebe b011 30be de0b 2bbe
00000260: 9814 3ebd 54dd 1e3e c575 0c3e 1890 1abe
00000270: 6b9e 203e f0d7 05be b2a8 a9bc 9b2d 19bd
00000280: ead3 7bbc ef4f 94bc 9e0c 2dbe 4675 2cbe
00000290: 1882 28bd 0b2d 39bb dd08 b5bd 8677 8a3d
000002a0: 00b1 2ebe fb6f d8bb 5467 303e a909 88bd
000002b0: f3c0 3b3e 6d79 833d 90ac 26be 12cd 0c3e
000002c0: d290 8dbc 69f4 90bd 0459 323e 8982 14be
000002d0: c9da 053d 3d31 eebc 171c 0a3e db2a 833d
000002e0: 13f0 da3d 3bad 913d d4c5 04bd ac37 c2bc
000002f0: 6a84 1dbe 920e e43d 20fc 253e 79a6 173e
00000300: 5a2f 0cbe 4b46 353c 4ab9 05be b837 ccbd
00000310: cd6e d7bd 2507 903d f52f edbd 0c5c d4ba
00000320: e2bc 9c3c 8c26 fc3d 9273 10be 1fc3 febd
00000330: 14bb cebd e6eb 173e f986 69bd b2f0 1c3e
00000340: 4151 813d e15e d23c 37ae 05bc 9aec 27bd
00000350: 9477 c23c 2404 21bd 1784 9b3b 6819 ee3c
00000360: 2fbe 0bbe e768 d5bd 202d 203e 2cf4 11be
00000370: 9e4e 23bc 2df3 453e 5c57 b63d 475a 813c
00000380: b660 33be 0844 bf3d 0e12 1abe 9ebc 71bd
00000390: e40f 8dbd 1359 1bbd 2d81 a7bb fa73 1e3e
000003a0: dea1 573c cdfb 113e 09c3 023e 19f5 f0bd
000003b0: 34e5 cf3d 451d 06be abdb 9cbd ecb1 893d
000003c0: 8f62 893d 0f05 153e 9e9d 97bd 61c4 8dbb
000003d0: c5fc b83d a568 2ebe 83cb 143e b11a 23be
000003e0: 8a70 803c 6c1c 12bc 7b6f bfbd 6a8e 2e3d
000003f0: e1b0 1a3e f55b 8abd 19b3 d2bd db8d 8cbd

0.bias f4 [32]
0.18552877 -0.07900589 -0.016587839 -0.09018979 -0.019384477 0.032272965 0.022947775 -0.033916913
-0.19058287 0.008261451 -0.0041055284 0.036581654 0.1374129 0.18255876 -0.11494668 -0.016799496
-0.07393197 -0.16774589 -0.14041817 0.17342637 0.12225392 0.114817075 0.11465084 -0.15330335
0.018254815 0.17891802 -0.09824297 0.1754003 0.052504957 0.13775025 -0.081481524 0.07521555
00000000: 41fb 3d3e d7cd a1bd 38e3 87bc 6db5 b8bd
00000010: 32cc 9ebc a830 043d f9fc bb3c 76ec 0abd
00000020: 2828 43be 095b 073c ab87 86bb a5d6 153d
00000030: f8b5 0c3e aff0 3a3e 2a69 ebbd 199f 89bc
00000040: a569 97bd 94c5 2bbe c8c9 0fbe af96 313e
00000050: 4360 fa3d 3725 eb3d 0fce ea3d 8efb 1cbe
00000060: 1f8b 953c 4936 373e 9c33 c9bd 239c 333e
00000070: 700f 573d 670e 0d3e c9df a6bd 9c0a 9a3d

1.weight f4 [32]
1.0082304 0.9796639 0.98628855 1.0103823 1.0656666 0.9977238 0.96226215 1.012638
0.9882476 0.9951188 0.99060327 0.98387545 0.9731547 1.0080032 0.97064126 0.9848462
0.9808238 1.0270221 0.9684399 1.0032189 1.0596982 1.0117452 0.99402416 0.9819617
0.95000273 0.9497955 1.0300645 1.015923 1.0550922 0.97839373 1.0425934 0.96683353
00000000: b20d 813f 41cb 7a3f 687d 7c3f 3554 813f
00000010: c367 883f d46a 7f3f d056 763f 1f9e 813f
00000020: cbfd 7c3f 1bc0 7e3f 2d98 7d3f 43df 7b3f
00000030: ab20 793f 4006 813f f27b 783f e11e 7c3f
00000040: 4517 7b3f 7675 833f adeb 773f 7a69 803f
00000050: 31a4 873f de80 813f 5e78 7e3f d861 7b3f
00000060: 6133 733f cc25 733f 27d9 833f c409 823f
00000070: 430d 873f 0378 7a3f b373 853f 6782 773f

1.bias f4 [32]
0.01954801 -0.001449712 -0.023036001 0.057371274 -0.028234784 -0.04328367 -0.025275443 -0.018430807
-0.01673459 -0.005662415 -0.043693174 -0.021066839 -0.016990982 -0.028896987 -0.008405474 0.012587931
-0.043851778 0.0016038143 -0.034585916 -0.028707067 0.004089845 -0.057045475 -0.0068033696 -0.03718411
-0.013386417 -0.03752662 -0.077852845 0.002327879 -0.035598174 0.026567115 -0.034800954 -0.014594089
00000000: 2623 a03c 4304 beba ffb5 bcbc 24fe 6a3d
00000010: a24c e7bc 384a 31bd 720e cfbc 34fc 96bc
00000020: fb16 89bc c88b b9bb 9df7 32bd 5d94 acbc
00000030: ac30 8bbc 60b9 ecbc 1db7 09bc 9c3d 4e3c
00000040: ec9d 33bd 1437 d23a f6a9 0dbd 152b ebbc
00000050: 1b04 863b 84a8 69bd cdee debb 5e4e 18bd
00000060: b452 5bbc 83b5 19bd 5071 9fbd 548f 183b
00000070: 64cf 11bd 47a3 d93c 728b 0ebd 0c1c 6fbc

1.running_mean f4 [32]
0.16978693 -0.11318358 -0.029776422 -0.07453879 -0.019497825 0.051864617 0.01552345 -0.037014835
-0.20209835 -0.012732476 -0.009094918 0.034250468 0.10493303 0.18935868 -0.13773337 -0.006705488
-0.09252085 -0.16902626 -0.1493397 0.17881526 0.12165341 0.11670445 0.09572691 -0.16124237
0.0018814788 0.17128617 -0.102725014 0.16716982 0.050879784 0.13196611 -0.080140695 0.07212096
00000000: a0dc 2d3e cbcc e7bd afed f3bc cba7 98bd
00000010: e7b9 9fbc fe6f 543d 1256 7e3c de9c 17bd
00000020: dff2 4ebe e09b 50bc da02 15bc 384a 0c3d
00000030: 21e7 d63d 3ee7 413e fa09 0dbe b6b9 dbbb
00000040: 927b bdbd 3815 2dbe 82ec 18be 591b 373e
00000050: 6c25 f93d be02 ef3d 780c c43d b81c 25be
00000060: f49b f63a a465 2f3e 7e61 d2bd 912e 2b3e
00000070: 5267 503d 2022 073e ce20 a4bd 27b4 933d

1.running_var f4 [32]
0.08805048 0.1825653 0.14414904 0.19193469 0.018816939 0.074744985 0.09377645 0.067158446
0.060363956 0.11372947 0.09099318 0.018869637 0.6644401 0.031499907 0.5237091 0.03377331
0.18271396 0.05344322 0.10109848 0.031401355 0.025688503 0.042835608 0.23402826 0.09023019
0.07007361 0.059054185 0.1371024 0.09816488 0.19044489 0.098106176 0.015587393 0.041619226
00000000: cf53 b43d 66f2 3a3e ce9b 133e 878a 443e
00000010: fb25 9a3c e613 993d de0d c03d 5e8a 893d
00000020: 3240 773d ffea e83d a25a ba3d 7f94 9a3c
00000030: bf18 2a3f 0c06 013d cd11 063f e255 0a3d
00000040: 5e19 3b3e 47e7 5a3d b80c cf3d b59e 003d
00000050: b270 d23c 6474 2f3d 1ba5 6f3e 9bca b83d
00000060: c182 8f3d cde2 713d 9264 0c3e ab0a c93d
00000070: fc03 433e e4eb c83d 4462 7f3c ec78 2a3d

5.weight f4 [64, 32, 3, 3]
-0.041406907 0.0011123909 0.016991746 0.01966064 0.04237745 0.04400526 0.046845663 0.026634125
0.03144728 0.008978808 -0.03846277 -0.0068580653 -0.0045957174 -0.03765791 0.028925626 0.032785967
0.002792103 0.017608695 0.028738879 0.011192585 -0.036018264 -0.034682196 0.039687198 0.013318746
0.024157988 -0.06075507 -0.05802512 -0.016085727 0.00819107 -0.05225743 0.0072561703 -0.03322232
0.052993733 -0.009612266 0.04576753 -0.060960665 -0.08387867 0.038176313 0.05732891 -0.002846204
0.01318944 -0.07537759 0.034323286 -0.060704272 0.005367028 -0.060843438 -0.039494447 -0.009051555
-0.018318845 0.0029561757 -0.03562026 -0.032707557 0.052515533 0.008956113 -0.0071725026 -0.002781064
-0.037523873 -0.044786498 0.026186414 0.015632547 0.012097076 -0.04036975 0.0058730463 -0.029057678
-0.05890025 -0.0034409948 0.08139106 -0.018421294 -0.040944427 -0.0039595114 0.041697517 -0.034511708
0.042036373 0.06337114 0.023870021 0.0075954916 0.04662796 0.021938961 -0.0570181 -0.04351371
-0.012123553 0.048772056 -0.057085436 0.03813363 -0.0039610867 -0.050639115 0.018906403 -0.017518265
0.01267989 -0.032583863 -0.04602335 -0.0146765355 -0.029360853 0.040021546 0.0036197875 0.04164795
0.023032855 -0.008935258 0.051618654 0.018698426 0.04002145 0.016402304 -0.011564043 -0.0069750138
-0.01594953 -0.06734446 -0.0051736585 -0.060116164 -0.021793755 0.036872376 -0.04379764 -0.021698326
0.007698607 -0.009447337 0.006891609 0.011391788 0.020026034 -0.065242365 -0.017202923 0.007231613
0.022974674 -0.015376468 -0.0333918 0.020316295 0.047471687 -0.010942743 -0.030126445 0.039143458
-0.004661428 -0.03695859 -0.008369632 0.03333746 -0.021850538 0.04406013 0.039544728 0.01855171
0.018446634 -0.01239357 0.007415551 0.036527783 -0.03474092 0.00156197 -0.011175141 0.049396798
-0.0329936 0.047153257 -0.011779566 -0.028033696 0.027864987 0.011686241 0.039125133 0.015263253
-0.05358525 0.06103575 0.032007758 0.002799407 0.0079671815 0.031267352 -0.07608308 -0.05311068
0.019848127 -0.0091279475 0.06576068 0.008523945 -0.020488754 0.05444617 0.03979692 0.060386237
-0.03969519 -0.04386301 -0.020475015 -0.04229351 0.029323509 0.037515838 0.015528243 0.00035455695
0.021315206 -0.039942387 0.06274942 -0.054842826 -0.016973596 0.010317719 0.04700432 -0.0017461312
0.026741749 -0.046497524 -0.01752533 -0.03820435 -0.024177467 0.018565677 0.020894825 -0.019057965
0.0025733714 -0.018992389 -0.019610882 0.021882093 -0.011526007 0.04407784 -0.028935153 -0.0046791784
0.0020927135 -0.0423449 0.0180149 -0.0032369425 -0.010044112 -0.007983165 0.03480451 0.029614037
-0.034739584 0.043985255 -0.010868028 -0.0035472272 0.054319948 0.007872046 -0.010795287 -0.045933776
-0.0030296128 0.038054038 -0.04563474 -0.06368852 -0.01704754 -0.06769138 -0.07173927 -0.044166427
-0.033410665 -0.058189496 -0.029680545 0.012649352 -0.028632151 0.028885562 -0.008981158 -0.036797024
0.036396623 -0.03712866 -0.04944296 0.020393535 -0.017466256 0.054760996 -0.007153533 -0.021904536
0.011791554 0.011991452 0.0588914 -0.047019545 0.0004344004 0.011700815 -0.037836257 -0.03682479
0.013727541 -0.068381675 -0.011071445 -0.059991896 0.075869374 0.024861416 0.051180836 -0.06239076
00000000: 4a9a 29bd a5cd 913a 4632 8b3c 5a0f a13c
00000010: fa93 2d3d dc3e 343d 3de1 3f3d cf2f da3c
00000020: ddce 003d da1b 133c 238b 1dbd 9fb9 e0bb
00000030: ac97 96bb 2e3f 1abd 6ff5 ec3c 944a 063d
00000040: b7fb 363b 1c40 903c cc6d eb3c 1b61 373c
00000050: e387 13bd eb0e 0ebd 0b8f 223d df36 5a3c
00000060: f9e6 c53c 4fda 78bd c0ab 6dbd 37c6 83bc
00000070: d633 063c e30b 56bd 2bc5 ed3b 2114 08bd
00000080: f50f 593d c47c 1dbc bc76 3b3d e4b1 79bd
00000090: 95c8 abbd c45e 1c3d b8d1 6a3d 6187 3abb
000000a0: 8518 583c 915f 9abd 9396 0c3d 0ba5 78bd
000000b0: e5dd af3b f836 79bd eec4 21bd f94c 14bc
000000c0: 6711 96bc 66bc 413b 8de6 11bd 5cf8 05bd
000000d0: 871a 573d a9bc 123c 5007 ebbb 8342 36bb
000000e0: a2b2 19bd 0c72 37bd e484 d63c d40f 803c
000000f0: d032 463c c05a 25bd af72 c03b 5e0a eebc
00000100: 6341 71bd 5082 61bb 5bb0 a63d 41e8 96bc
00000110: 58b5 27bd cabe 81bb 04cb 2a3d 265c 0dbd
00000120: 552e 2c3d bac8 813d 108b c33c 9ae3 f83b
00000130: f6fc 3e3d 56b9 b33c d08b 69bd 6f3b 32bd
00000140: dea1 46bc 35c5 473d 6bd2 69bd 0232 1c3d
00000150: 01cc 81bb f66a 4fbd 9ae1 9a3c 7782 8fbc
00000160: 50bf 4f3c a876 05bd fb82 3cbd da75 70bc
00000170: 2c86 f0bc a2ed 233d f539 6d3b 0a97 2a3d
00000180: 66af bc3c 3065 12bc 156e 533d 712d 993c
00000190: 88ed 233d 205e 863c 1d77 3dbc a88e e4bb
000001a0: 97a8 82bc e4eb 89bd cb87 a9bb 5e3c 76bd
000001b0: d188 b2bc 7d07 173d 2765 33bd b0c0 b1bc
000001c0: 9944 fc3b 01c9 1abc 02d3 e13b 9fa4 3a3c
000001d0: a30d a43c ca9d 85bd 25ed 8cbc 2bf7 ec3b
000001e0: 6235 bc3c 95ed 7bbc d7c5 08bd 5c6e a63c
000001f0: ac71 423d 3149 33bc bccb f6bc e454 203d
00000200: e4be 98bb e461 17bd c820 09bc dc8c 083d
00000210: e6ff b2bc 6578 343d a7f9 213d c1f9 973c
00000220: 651d 973c 660e 4bbc 27fe f23b 289e 153d
00000230: 7f4c 0ebd 04bb cc3a f017 37bc 4c54 4a3d
00000240: 4c24 07bd c623 413d 15ff 40bc eca6 e5bc
00000250: 1d45 e43c a677 3f3c ad41 203d b912 7a3c
00000260: 357c 5bbd 9f00 7a3d 911a 033d 4276 373b
00000270: c888 023c 3212 003d 72d1 9bbd 968a 59bd
00000280: 8a98 a23c 638d 15bc 89ad 863d 04a8 0b3c
00000290: 08d8 a7bc f202 5f3d 1802 233d 8f57 773d
000002a0: 6c97 22bd b3a9 33bd 38bb a7bc f63b 2dbd
000002b0: db37 f03c 35aa 193d 2c6a 7e3c d4e3 b939
000002c0: 3a9d ae3c a19a 23bd c582 803d dfa2 60bd
000002d0: 360c 8bbc a60b 293c 9a87 403d 71de e4ba
000002e0: 8311 db3c 3074 3ebd 4891 8fbc 2a7c 1cbd
000002f0: d30f c6bc 0c17 983c a02b ab3c 731f 9cbc
00000300: 02a6 283b ed95 9bbc 00a7 a0bc 1342 b33c
00000310: 94d7 3cbc f78a 343d 6a09 edbc cb53 99bb
00000320: e825 093b d971 2dbd fc93 933c e222 54bb
00000330: 0f90 24bc d2cb 02bc 2d8f 0e3d 2399 f23c
00000340: 184b 0ebd e229 343d d00f 32bc 9978 68bb
00000350: 987e 5e3d c1f9 003c b7de 30bc 0e25 3cbd
00000360: 788c 46bb 8dde 1b3d 7eeb 3abd 206f 82bd
00000370: 48a7 8bbc c7a1 8abd 0aec 92bd dbe7 34bd
00000380: 9fd9 08bd 1c58 6ebd 9d24 f3bc 3a3f 4f3c
00000390: f98d eabc 6aa1 ec3c b525 13bc 7ab8 16bd
000003a0: a014 153d 3914 18bd b484 4abd 5810 a73c
000003b0: 6515 8fbc 114d 603d 2f68 eabb 2471 b3bc
000003c0: 5d31 413c cc77 443c 1c38 713d 9197 40bd
000003d0: 3cc0 e339 c6b4 3f3c 31fa 1abd 97d5 16bd
000003e0: 7be9 603c b10b 8cbd 0265 35bc 10ba 75bd
000003f0: 6761 9b3d 2baa cb3c ffa2 513d 748d 7fbd

5.bias f4 [64]
0.009066887 0.017718045 -0.047948595 0.001227513 0.025914717 -0.066280425 0.010219275 -0.057727177
-0.051576257 0.051748518 0.026672978 0.04154439 0.054529477 -0.02101801 -0.023100143 0.003603225
0.016139967 0.007912365 -0.004300893 0.069617145 -0.023253463 0.027453383 0.034877308 -0.011089026
0.046518374 0.043341663 -0.013537169 -0.031962804 0.03762411 0.049612172 0.0312305 0.0056915637
0.03809444 0.020658504 -0.0152987195 -0.044157308 -0.028035348 0.014904125 -0.022010919 0.022119505
-0.03742414 -0.042287897 0.039311644 -0.04521217 0.013137856 0.055788763 0.0037440436 0.042951383
-0.02158824 -0.0567891 -0.027253715 -0.01595116 -0.039184082 -0.03653255 0.021924874 0.06682566
0.047707234 0.017623074 -0.047331247 -0.011155545 0.021527098 0.052070696 -0.020140702 0.041502643
00000000: 488d 143c 6f25 913c bf65 44bd 80e4 a03a
00000010: 1a4b d43c 08be 87bd bf6e 273c 5573 6cbd
00000020: a041 53bd 41f6 533d 4a81 da3c 732a 2a3d
00000030: 4d5a 5f3d f62d acbc 833c bdbc 1624 6c3b
00000040: f737 843c dda2 013c 81ee 8cbb 6f93 8e3d
00000050: 0c7e bebc ebe5 e03c 82db 0e3d bfae 35bc
00000060: 0d8a 3e3d 0787 313d 01cb 5dbc 6eeb 02bd
00000070: bd1b 1a3d 2236 4b3d 1bd7 ff3c 4c80 ba3b
00000080: ea08 1c3d 063c a93c 7ba7 7abc 4bde 34bd
00000090: 63aa e5bc 6e30 743c 3e50 b4bc f733 b53c
000000a0: 0e4a 19bd 1336 2dbd 3f05 213d 6530 39bd
000000b0: 2940 573c c282 643d a15e 753b caed 2f3d
000000c0: d2d9 b0bc b09b 68bd 2f43 dfbc 02ac 82bc
000000d0: 7d7f 20bd 28a3 15bd cb9b b33c e4db 883d
000000e0: a968 433d 445e 903c 69de 41bd bfc5 36bc
000000f0: 9959 b03c 1548 553d 1dfe a4bc adfe 293d

6.weight f4 [64]
1.0271337 0.9682474 0.9962503 1.0136676 1.0035809 0.9931723 1.0032331 0.96920556
1.0153793 0.98405766 0.9973117 0.98760504 1.0189306 1.035961 0.9594347 1.0309789
1.0183164 0.98354614 0.9606327 0.9915876 1.0322584 0.9952153 0.9739822 1.0039159
0.96489877 0.98904884 0.96769166 0.96755666 0.9750732 0.9724734 0.9768742 1.0036035
0.9739837 1.0159549 0.9864206 1.0038326 0.988089 0.9899947 1.0047126 0.989385
0.98163164 1.0163249 0.986837 0.9680729 1.0362666 1.0167593 1.0047815 1.0393558
1.0089688 0.97367823 0.98814183 0.9950772 1.0288689 1.0169791 1.0093998 1.0318321
1.002332 0.9956683 0.9780378 1.0119336 0.9569796 1.0481353 1.0109025 1.0151968
00000000: 1e79 833f 10df 773f 420a 7f3f dcbf 813f
00000010: 5775 803f 8a40 7e3f f169 803f db1d 783f
00000020: f3f7 813f 34eb 7b3f d24f 7f3f afd3 7c3f
00000030: 516c 823f 5f9a 843f 839d 753f 1ef7 833f
00000040: 3158 823f aec9 7b3f 06ec 753f afd8 7d3f
00000050: 0b21 843f 6ec6 7e3f e656 793f 5180 803f
00000060: 9b03 773f 4e32 7d3f a4ba 773f cbb1 773f
00000070: 669e 793f 04f4 783f 6d14 7a3f 1476 803f
00000080: ff56 793f cf0a 823f 0f86 7c3f 967d 803f
00000090: 67f3 7c3f 4b70 7d3f 6c9a 803f 5648 7d3f
000000a0: 364c 7b3f ef16 823f 5aa1 7c3f a0d3 773f
000000b0: 62a4 843f 2b25 823f ae9c 803f 9c09 853f
000000c0: e425 813f fa42 793f ddf6 7c3f 61bd 7e3f
000000d0: fab1 833f 5f2c 823f 0334 813f 1313 843f
000000e0: 6a4c 803f 1ee4 7e3f af60 7a3f 0a87 813f
000000f0: 9dfc 743f 4c29 863f 4165 813f f8f1 813f

6.bias f4 [64]
-0.08096653 -0.08306863 -0.073315784 -0.044395875 -0.033576097 -0.00051797606 -0.047597088 -0.0549687
-0.014484286 0.00037415657 -0.06595832 -0.01996331 -0.086039096 -0.06160683 -0.049128722 -0.03820767
-0.05573647 -0.11915831 -0.049617898 -0.023054887 -0.053037636 -0.055266377 -0.0716331 -0.00070941314
-0.061231237 -0.01738607 -0.08001144 -0.04661146 -0.061603628 -0.053355258 -0.1162823 -0.041442737
-0.0804802 -0.042510595 -0.024833815 -0.03552374 -0.049969826 -0.047840998 -0.08597439 -0.051086415
-0.019808846 -0.07401811 0.00026546133 -0.0728128 -0.06820514 -0.025372434 -0.025146537 -0.035901044
0.021492435 -0.035380293 -0.032074872 -0.058660347 -0.009529052 -0.05703914 -0.05921411 -0.13045947
0.009227036 -0.022985326 -0.04399573 -0.06630944 -0.056199037 -0.03798438 -0.08999841 -0.06542685
00000000: c8d1 a5bd e31f aabd 9626 96bd 73d8 35bd
00000010: 1787 09bd c9c8 07ba 2af5 42bd dc26 61bd
00000020: 804f 6dbc 722a c439 2815 87bd 188a a3bc
00000030: 4435 b0bd 7257 7cbd 333b 49bd a57f 1cbd
00000040: ed4b 64bd 4609 f4bd 233c 4bbd 9add bcbc
00000050: fe3d 59bd ff5e 62bd 60b4 92bd e9f7 39ba
00000060: 9bcd 7abd 3b6d 8ebc 0add a3bd a9eb 3ebd
00000070: 1654 7cbd 0b8b 5abd 6a25 eebd dcbf 29bd
00000080: ced2 a4bd 971f 2ebd 4970 cbbc 5781 11bd
00000090: 29ad 4cbd ecf4 43bd 5713 b0bd fd3f 51bd
000000a0: 2946 a2bc cf96 97bd 9e2d 8b39 e11e 95bd
000000b0: 23af 8bbd dad9 cfbc 1c00 cebc f90c 13bd
000000c0: e710 b03c edea 10bd f160 03bd d545 70bd
000000d0: be1f 1cbc e0a1 69bd 7f8a 72bd 2b97 05be
000000e0: fe2c 173c b94b bcbc de34 34bd 3ecd 87bd
000000f0: f630 66bd 8295 1bbd 1651 b8bd 83fe 85bd

6.running_mean f4 [64]
-0.31262916 -0.13916901 -0.08670722 -0.31929716 -0.591134 -0.37735167 -0.09667676 -0.26639664
-0.2439757 -0.71488076 -0.4664524 -0.66159964 0.021041507 -0.4342358 0.12697513 -0.10095384
0.05028819 -0.16687469 -0.14447077 -0.22649205 -0.5080588 -0.47329783 0.017738167 -0.27648368
0.13795274 -0.17691171 0.30915722 0.20127074 -0.21519026 -0.07059685 -0.19750229 -0.2743413
-0.42032987 -0.20234017 -0.42452735 -0.32449302 0.11720043 -0.21339631 -0.3294719 -0.082397126
-0.23616718 -0.119294494 -0.13426468 -0.8439527 -0.3849 -0.27407748 -0.30149937 -0.46798646
-0.28153583 -0.17714927 -0.1211783 0.07393301 -0.5205332 -0.28071985 0.02164632 -0.20261765
-0.64190054 -0.37883642 -0.083683625 -0.57508546 -0.39120126 -0.23315056 -0.4301468 -0.057656255
00000000: ee10 a0be 5282 0ebe 8e93 b1bd eb7a a3be
00000010: 8f54 17bf 3d34 c1be 77fe c5bd 2465 88be
00000020: c4d4 79be 6d02 37bf d9d2 eebe 985e 29bf
00000030: 3d5f ac3c 2854 debe c505 023e e3c0 cebd
00000040: fdfa 4d3d 33e1 2abe 25f0 13be 88ed 67be
00000050: 2410 02bf 1854 f2be a24f 913c 458f 8dbe
00000060: 7c43 0d3e 5828 35be db49 9e3e eb19 4e3e
00000070: d65a 5cbe 1595 90bd 0a3e 4abe 7676 8cbe
00000080: 7a35 d7be 4332 4fbe a65b d9be f323 a6be
00000090: c706 f03d 9084 5abe 8ab0 a8be d3bf a8bd
000000a0: cfd5 71be ac50 f4bd ae7c 09be 490d 58bf
000000b0: 9d11 c5be e253 8cbe 205e 9abe ec9b efbe
000000c0: 7725 90be 9e66 35be 542c f8bd 316a 973d
000000d0: aa41 05bf 83ba 8fbe a053 b13c 007b 4fbe
000000e0: 9853 24bf d9f6 c1be 5262 abbd cd38 13bf
000000f0: 884b c8be 05bf 6ebe 343c dcbe f728 6cbd

6.running_var f4 [64]
0.10135217 0.10648817 0.06340467 0.097155556 0.17426665 0.122371055 0.085441336 0.09163934
0.14320192 0.19382633 0.1523524 0.2069114 0.12602416 0.10431348 0.21837875 0.11221534
0.07438792 0.13970405 0.17387113 0.10948571 0.13471062 0.15545084 0.13065733 0.14875199
0.08279914 0.13310766 0.11307411 0.11637029 0.10951498 0.12332357 0.13443236 0.13694811
0.13796449 0.10984193 0.18981358 0.09172238 0.08225357 0.08350143 0.14034876 0.093954936
0.1014472 0.08455152 0.17361543 0.27154326 0.09682346 0.07898725 0.14222232 0.11740625
0.13072075 0.20928179 0.083025955 0.07596934 0.10952861 0.11128636 0.10774878 0.08768937
0.16961654 0.12203064 0.123972915 0.16427134 0.14355539 0.1364512 0.12053992 0.08097761
00000000: ba91 cf3d 7816 da3d 4fda 813d 7ef9 c63d
00000010: f572 323e ad9d fa3d defb ae3d 68ad bb3d
00000020: 86a3 123e 697a 463e 4402 1c3e 95e0 533e
00000030: 7a0c 013e 4ea2 d53d ae9e 5f3e 28d1 e53d
00000040: b258 983d 940e 0f3e 460b 323e 0b3a e03d
00000050: 95f1 093e 812e 1f3e 09cb 053e 7152 183e
00000060: 9892 a93d 604d 083e 6693 e73d 8c53 ee3d
00000070: 6449 e03d 1191 fc3d a3a8 093e 203c 0c3e
00000080: 9046 0d3e cef4 e03d 7e5e 423e f1d8 bb3d
00000090: 8f74 a83d cc02 ab3d 96b7 0f3e 726b c03d
000000a0: 8dc3 cf3d 5929 ad3d 3ec8 313e b807 8b3e
000000b0: 614b c63d 11c4 a13d baa2 113e b072 f03d
000000c0: a9db 053e f74d 563e 8309 aa3d d095 9b3d
000000d0: 8950 e03d 1aea e33d 64ab dc3d 7c96 b33d
000000e0: f5af 2d3e 33eb f93d 83e5 fd3d bf36 283e
000000f0: 2f00 133e ddb9 0b3e a2dd f63d 97d7 a53d

10.weight f4 [64, 64, 3, 3]
-0.009200175 -0.020171136 -0.054306753 0.0062888735 0.014254966 -0.029251782 0.04625498 0.022626033
-0.001163464 0.012455304 0.009139765 0.0011570182 -0.032901984 -0.03611733 -0.009522072 -0.007021607
-0.0118332505 -0.012346001 -0.009576639 -0.028373066 -0.023822153 -0.018108968 -0.015927527 -0.019222045
-0.03178299 0.0027916532 -0.04188279 0.025301581 0.001956428 0.02684163 0.0018273243 0.009557222
0.03844181 0.026666569 0.021477072 0.015146635 0.006310955 0.005990199 -0.014326635 -0.009570647
0.022319881 0.023980657 0.021345079 -0.03159051 -0.015145266 -0.036699403 -0.031822167 -0.026475158
-0.032939058 -0.03891423 -0.0334433 -0.0063976613 -0.008286958 -0.021397183 0.053944644 0.008173064
0.026636627 0.035310496 -0.01855956 0.008061154 0.011210328 0.04274585 0.00824139 -0.008411678
-0.017505007 -0.031054327 -0.014538188 -0.05874204 -0.037602887 -0.027889732 -0.017660862 -0.052862123
0.0072788415 0.03429445 -0.016989104 -0.019970194 -0.012886675 -0.0015940587 0.029530037 -0.007523411
0.044046994 -0.036185395 0.015530991 -0.013247203 -0.027041068 -0.0408695 -0.027651977 -0.027133822
-0.031072456 -0.014754405 0.034875143 -0.013423969 0.04515954 0.016470177 0.030998925 0.027248159
-0.008976575 0.027658144 0.05426948 0.016679464 0.026024392 0.03286304 0.0072024902 -0.010431789
0.02197558 -0.0039563994 0.044529967 0.023909077 0.0484275 0.025691355 0.06436766 0.02641335
0.035413895 0.024544878 0.033466022 0.029802592 0.04818144 -0.012136973 0.0020496394 -0.030389326
0.00030695082 -0.01675295 -0.017001437 -0.008555227 -0.020704018 -0.013548505 0.0103565445 0.013595906
-0.004761853 -0.007817082 -0.0037382513 -0.005193384 0.02803084 -0.018096106 -0.0008324708 0.02785984
0.04215016 0.067105345 0.029357005 0.039113697 0.034854528 0.010705121 0.023425164 0.051221453
-0.04705808 -0.05240593 -0.038573585 -0.03421107 -0.018476374 -0.0060506235 -0.013248276 -0.0024301093
-0.020027693 -0.019738803 -0.01796299 -0.014728121 0.004842135 -0.031205235 -0.0062523377 -0.03580882
-0.04111242 -0.035232157 0.012724758 -0.0068530673 0.009828301 0.008419332 -0.005216094 0.014699366
0.009826414 -0.010922486 0.01397485 -0.028824743 -0.051104352 -0.012522226 -0.05278378 -0.011836011
-0.037249126 -0.025416574 0.00026183948 0.0047555845 0.021029452 -0.009290733 0.015646968 -0.0006404056
-0.034120258 -0.01917227 0.008048618 0.0045942273 -0.0026941844 -0.0074474094 0.010889974 0.019181633
0.028225886 0.01808065 0.013607825 -0.0103 0.026266547 0.0036303583 0.0067527625 -0.018424438
0.0107197575 0.002095858 0.023762232 0.0007398442 0.04501119 -0.01303373 0.014047036 -0.042091772
-0.034828506 -0.043432306 -0.040707152 -0.02757592 -0.0043159868 -0.009375319 -0.015132567 0.0109180445
-0.022692678 0.019975195 -0.0060785487 -0.0070235217 0.005906252 0.0010902614 0.00016512719 -0.0020826643
-0.002069871 0.012548596 0.005245278 0.024484126 0.0071272417 0.026695142 0.012569889 0.024902452
0.005710369 0.00672776 -0.049083784 -0.040333908 -0.031703997 -0.031943265 -0.010156726 -0.029440947
-0.01755205 -0.03170013 -0.028784836 0.019436589 -0.015364843 0.006564626 0.021505792 0.016305419
-0.019160384 0.043236036 0.026568852 0.018021738 -0.029581215 -0.0044906833 -0.016377443 -0.012757064
00000000: 55bc 16bc f03d a5bc c270 5ebd e512 ce3b
00000010: a98d 693c 6fa1 efbc dd75 3d3d 3b5a b93c
00000020: 607f 98ba 5511 4c3c f4be 153c 17a7 973a
00000030: 3bc4 06bd c4ef 13bd 7702 1cbc 8215 e6bb
00000040: 40e0 41bc e246 4abc 56e7 1cbc a26e e8bc
00000050: ad26 c3bc 4259 94bc 727a 82bc 8d77 9dbc
00000060: e12e 02bd 2bf4 363b 4a8d 2bbd 4345 cf3c
00000070: 6a37 003b fae2 db3c d482 ef3a e595 1c3c
00000080: 2975 1d3d d973 da3c aff0 af3c 9729 783c
00000090: 21cc ce3b 6e49 c43b 43ba 6abc 34ce 1cbc
000000a0: 2fd8 b63c 1573 c43c e0db ae3c 0d65 01bd
000000b0: da23 78bc 1d52 16bd f657 02bd 6ee2 d8bc
000000c0: 1beb 06bd 8764 1fbd d7fb 08bd 79a3 d1bb
000000d0: 05c6 07bc 2549 afbc 0ff5 5c3d 51e8 053c
000000e0: 0e35 da3c bda1 103d 380a 98bc ee12 043c
000000f0: 86ab 373c 4616 2f3d e506 073c 22d1 09bc
00000100: a966 8fbc a565 febc 9531 6ebc 7e9b 70bd
00000110: 7c05 1abd 0279 e4bc 83ad 90bc f485 58bd
00000120: 5983 ee3b 5678 0c3d bc2c 8bbc 8898 a3bc
00000130: a222 53bc bcef d0ba fae8 f13c f286 f6bb
00000140: 9f6a 343d 2337 14bd b375 7e3c cc0a 59bc
00000150: 3b85 ddbc c766 27bd 6686 e2bc c047 debc
00000160: aa8b febc 76bc 71bc 3dd9 0e3d 35f0 5bbc
00000170: 36f9 383d 77ec 863c 75f1 fd3c 8837 df3c
00000180: 7c12 13bc 5593 e23c ad49 5e3d 5fa3 883c
00000190: 1b31 d53c 659b 063d de02 ec3b 18ea 2abc
000001a0: 2206 b43c afa4 81bb 0e65 363d f8dc c33c
000001b0: ea5b 463d ad76 d23c 31d3 833d cf60 d83c
000001c0: 290e 113d 5712 c93c ab13 093d 9124 f43c
000001d0: e759 453d 28da 46bc 3e53 063b 09f3 f8bc
000001e0: 3eee a039 7c3d 89bc 9946 8bbc 392b 0cbc
000001f0: 799b a9bc 8cfa 5dbc 7fae 293c 5dc1 5e3c
00000200: 5109 9cbb 3813 00bc 73fd 74bb 432d aabb
00000210: efa0 e53c 493e 94bc 2b3a 5aba 523a e43c
00000220: a5a5 2c3d 876e 893d 1a7e f03c af35 203d
00000230: 9fc3 0e3d 8864 2f3c 21e6 bf3c 96cd 513d
00000240: f9bf 40bd 9aa7 56bd 56ff 1dbd e820 0cbd
00000250: c45b 97bc 4f44 c6bb 4c0f 59bc 7842 1fbb
00000260: 1e11 a4bc 45b3 a1bc 1f27 93bc 384e 71bc
00000270: c6aa 9e3b 1fa2 ffbc 69e0 ccbb 45ac 12bd
00000280: 7f65 28bd 984f 10bd 817b 503c b28f e0bb
00000290: e206 213c 3df1 093c c5eb aabb 9cd5 703c
000002a0: f8fe 203c 3af4 32bc c5f6 643c de21 ecbc
000002b0: cc52 51bd 062a 4dbc ce33 58bd d4eb 41bc
000002c0: 8a92 18bd 6b36 d0bc 8047 8939 bcd4 9b3b
000002d0: f545 ac3c 2938 18bc 122e 803c e4e0 27ba
000002e0: afc1 0bbd 2a0f 9dbc 5ade 033c 2c8b 963b
000002f0: ea90 30bb 6609 f4bb dd6b 323c cd22 9d3c
00000300: f939 e73c df1d 943c 5bf3 5e3c 55c1 28bc
00000310: f12c d73c 4eeb 6d3b 4746 dd3b d9ee 96bc
00000320: eca1 2f3c aa5a 093b 03a9 c23c 1bf2 413a
00000330: a75d 383d 6d8b 55bc 8a25 663c 6c68 2cbd
00000340: 56a8 0ebd 13e6 31bd 8bbc 26bd e5e6 e1bc
00000350: 1f6d 8dbb f09a 19bc 96ee 77bc 99e1 323c
00000360: ffe5 b9bc 05a3 a33c 902e c7bb 9225 e6bb
00000370: 3c89 c13b 1ae7 8e3a fe25 2d39 4f7d 08bb
00000380: aca6 07bb a098 4d3c 95e0 ab3b ef92 c83c
00000390: a38b e93b c5af da3c f0f1 4d3c 3a00 cc3c
000003a0: 0c1e bb3b 8b74 dc3b 140c 49bd 2b35 25bd
000003b0: 0ddc 01bd f1d6 02bd 6668 26bc 242e f1bc
000003c0: 51c9 8fbc ffd7 01bd 2dce ebbc 7b39 9f3c
000003d0: d3bc 7bbc 131c d73b ea2c b03c f192 853c
000003e0: 3df6 9cbc 4518 313d eca6 d93c 53a2 933c
000003f0: 4e54 f2bc 9526 93bb fd29 86bc 0103 51bc

10.bias f4 [64]
0.036687754 -0.035655003 -0.0007998254 0.016666424 0.0088708075 0.01691448 0.013213601 -0.036381293
0.041632358 0.025266012 -0.026221257 0.030397153 0.0116014145 -0.0149898715 0.007780873 -0.0042433836
0.001520783 0.01059613 0.031677786 0.036418326 -0.002896311 0.012152409 0.0212069 0.025413329
-0.024940586 0.007778498 0.040581696 0.034472637 0.014884326 0.010230472 0.025389606 0.0347134
-0.004195013 0.032655176 0.037829667 -0.019066758 0.009147385 0.01780443 -0.007239777 0.02807272
-0.031002892 -0.024055904 0.04450072 -0.031009844 0.03129277 0.035627365 0.013694045 0.010490229
-0.0072219274 -0.0012371778 0.0013867588 -0.011760181 0.001693954 0.00999156 0.020576572 0.026400222
0.020754166 0.028284216 0.011564022 0.012316821 0.028121147 0.003318186 -0.026916075 -0.022764837
00000000: e645 163d fb0a 12bd 60ab 51ba 0688 883c
00000010: dd56 113c 3c90 8a3c dc7d 583c 8d04 15bd
00000020: b186 2a3d abfa ce3c f6cd d6bc 7303 f93c
00000030: dc13 3e3c 1498 75bc b2f6 fe3b 150c 8bbb
00000040: 0255 c73a 649b 2d3c 91c0 013d 622b 153d
00000050: 09d0 3dbb e61a 473c 18ba ad3c 9d2f d03c
00000060: 3350 ccbc c5e2 fe3b fe38 263d 2e33 0d3d
00000070: 63dd 733c b69d 273c ddfd cf3c a32f 0e3d
00000080: 5276 89bb 6fc1 053d 48f3 1a3d e431 9cbc
00000090: eade 153c 99da 913c a73b edbb c3f8 e53c
000000a0: c7f9 fdbc e310 c5bc 6346 363d 5b08 febc
000000b0: d92c 003d 00ee 113d fd5c 603c 36df 2b3c
000000c0: eba5 ecbb cc28 a2ba e7c3 b53a c6ad 40bc
000000d0: aa07 de3a a4b3 233c 3390 a83c 4745 d83c
000000e0: a404 aa3c 4db4 e73c 0677 3d3c 7ecc 493c
000000f0: 525e e63c ec75 593b 1a7f dcbc 537d babc

11.weight f4 [64]
1.1295664 1.1346989 1.1239091 1.1446811 1.1611949 1.1570214 1.1197395 1.148839
1.1311278 1.1335303 1.1422731 1.1155894 1.1399968 1.1315097 1.1289356 1.1357801
1.1273596 1.1486694 1.1436985 1.1321679 1.173988 1.140648 1.1410443 1.1557457
1.1608107 1.157681 1.144265 1.1394981 1.1456039 1.1334093 1.1592594 1.1476675
1.126174 1.1537989 1.148259 1.1420397 1.1393324 1.1330093 1.1332374 1.1333272
1.1302779 1.0940478 1.1643502 1.1326319 1.142054 1.1481565 1.1508573 1.1464037
1.1274191 1.1277925 1.1609396 1.1600392 1.1467497 1.1410477 1.1319695 1.1466231
1.1635007 1.1464455 1.1325312 1.1489332 1.1312722 1.1488383 1.159622 1.1458412
00000000: a295 903f d03d 913f 41dc 8f3f e984 923f
00000010: 09a2 943f 4719 943f a053 8f3f 280d 933f
00000020: ccc8 903f 8517 913f 0136 923f a2cb 8e3f
00000030: 6aeb 913f 4fd5 903f f680 903f 3e61 913f
00000040: 524d 903f 9907 933f b664 923f e1ea 903f
00000050: 3d45 963f c100 923f bd0d 923f 7aef 933f
00000060: 7295 943f e42e 943f 4777 923f 13db 913f
00000070: 26a3 923f 8e13 913f 9d62 943f c5e6 923f
00000080: 7826 903f afaf 933f 27fa 923f 5b2e 923f
00000090: a5d5 913f 7306 913f ec0d 913f de10 913f
000000a0: f2ac 903f c209 8c3f 6d09 953f 15fa 903f
000000b0: d32e 923f cbf6 923f 4b4f 933f 5bbd 923f
000000c0: 454f 903f 815b 903f ab99 943f 2a7c 943f
000000d0: b2c8 923f da0d 923f 60e4 903f 8cc4 923f
000000e0: 97ed 943f babe 923f c8f6 903f 3e10 933f
000000f0: 87cd 903f 220d 933f 7e6e 943f edaa 923f

11.bias f4 [64]
0.090299584 0.117927976 0.10107194 0.12425147 0.12896435 0.10313065 0.106697105 0.10635097
0.08214976 0.08800408 0.12060024 0.099967405 0.07878193 0.092693895 0.05374718 0.1158172
0.08049393 0.063603416 0.10716192 0.11736006 0.14060384 0.118483454 0.1130702 0.0940957
0.13730866 0.11902529 0.10567338 0.09682895 0.12170069 0.0980896 0.1359771 0.11997667
0.10522793 0.11223972 0.121980205 0.097457364 0.100975655 0.089130156 0.10308586 0.11848417
0.09211378 0.04649107 0.12355405 0.09409482 0.10790897 0.12462536 0.11356367 0.10282136
0.0905235 0.10370016 0.12961744 0.13115437 0.115523696 0.11975727 0.103992954 0.1084249
0.13635352 0.11101934 0.092697605 0.12947726 0.114632085 0.12807259 0.120546125 0.123696476
00000000: fdee b83d 3984 f13d cefe ce3d 8e77 fe3d
00000010: 3b0f 043e 2a36 d33d 0384 da3d 8ace d93d
00000020: 223e a83d 7c3b b43d 42fd f63d b6bb cc3d
00000030: 6c58 a13d 4cd6 bd3d 0126 5c3d 9131 ed3d
00000040: 00da a43d 8242 823d b577 db3d 795a f03d
00000050: 74fa 0f3e 74a7 f23d 5991 e73d 3fb5 c03d
00000060: a49a 0c3e 88c3 f33d 496b d83d 424e c63d
00000070: 363e f93d 33e3 c83d 953d 0b3e 54b6 f53d
00000080: be81 d73d f0dd e53d c2d0 f93d ba97 c73d
00000090: 53cc ce3d df89 b63d ae1e d33d d4a7 f23d
000000a0: 26a6 bc3d 6c6d 3e3d e809 fd3d c9b4 c03d
000000b0: 61ff dc3d 953b ff3d 1294 e83d 0194 d23d
000000c0: 6364 b93d c060 d43d 6fba 043e 554d 063e
000000d0: b097 ec3d 4d43 f53d 42fa d43d e00d de3d
000000e0: 42a0 0b3e 1c5e e33d 3ed8 bd3d b095 043e
000000f0: 3ac4 ea3d 7625 033e e3e0 f63d 9454 fd3d

11.running_mean f4 [64]
-0.15792376 -0.20893468 -0.336621 0.1378472 -0.23948626 0.15652259 -0.1716729 -0.27079147
-0.07224458 -0.07401366 -0.73117983 0.17817247 -0.120521106 -0.09977906 -0.035972614 0.32853043
-0.069534376 -0.29732394 -0.17658663 -0.2580765 0.47188455 0.014385004 -0.46627426 0.14152402
0.5790839 -0.30217665 -0.43923268 -0.02639389 -0.5896873 -0.06821278 0.061594535 -0.23227522
-0.6890261 -0.07224463 0.08843928 0.06438774 -0.35111666 0.13910368 -0.15067056 -0.6140481
0.08733102 -0.12926646 0.110579744 -0.21779385 -0.3500923 -0.63023746 -0.3364494 0.42908725
-0.16099831 0.2503336 -0.14654636 -0.14684097 -0.22381303 0.25516412 -0.6007488 0.4196684
0.14832756 -0.17019416 -0.24823453 -0.2089285 0.019224 0.33592987 -0.6046108 -0.21941724
00000000: c4b6 21be f9f2 55be 9659 acbe d127 0d3e
00000010: e33b 75be 7547 203e 05cb 2fbe 2ea5 8abe
00000020: f7f4 93bd 7994 97bd 9a2e 3bbf d872 363e
00000030: c5d3 f6bd f758 ccbd 0558 13bd 2435 a83e
00000040: 0a68 8ebd d83a 98be 20d3 34be 9a22 84be
00000050: da9a f13e 14af 6b3c 80bb eebe aceb 103e
00000060: d83e 143f e6b6 9abe 1be3 e0be 0038 d8bc
00000070: bff5 16bf 24b3 8bbd 8d4a 7c3d 8ed9 6dbe
00000080: 0464 30bf fef4 93bd a71f b53d b8dd 833d
00000090: 90c5 b3be 3271 0e3e 6249 1abe 4232 1dbf
000000a0: 9bda b23d 6d5e 04be a277 e23d 5a05 5fbe
000000b0: 4c3f b3be 3e57 21bf 1943 acbe 53b1 db3e
000000c0: bedc 24be ba2b 803e 4010 16be 7b5d 16be
000000d0: 3e2f 65be dfa4 823e acca 19bf c7de d63e
000000e0: 2ee3 173e 6147 2ebe 3131 7ebe 5af1 55be
000000f0: a67b 9d3c 00ff ab3e c6c7 1abf eaae 60be

11.running_var f4 [64]
0.06578303 0.08230769 0.104868844 0.074934505 0.07915857 0.105433896 0.076728284 0.074468195
0.077704675 0.09457774 0.0904385 0.080364905 0.09012687 0.097842865 0.07534939 0.07595454
0.0643028 0.081388034 0.0825218 0.112449415 0.059885822 0.0883529 0.08097864 0.06069619
0.09177918 0.101321794 0.08297529 0.0630087 0.07751893 0.06418731 0.07106141 0.08189635
0.10791356 0.088263914 0.07060021 0.0830947 0.05963559 0.09795993 0.07428658 0.08198758
0.10750026 0.084346235 0.06755397 0.07732328 0.06913011 0.085295446 0.07510683 0.08094098
0.08625879 0.094890825 0.08502221 0.07394106 0.07602674 0.106618874 0.07844979 0.058560193
0.07923417 0.06721446 0.091122754 0.06682061 0.07591426 0.09141964 0.07269509 0.091925055
00000000: 41b9 863d ef90 a83d 7ac5 d63d 4377 993d
00000010: e31d a23d baed d73d b823 9d3d c882 983d
00000020: a123 9f3d f9b1 c13d d237 b93d 5b96 a43d
00000030: 7094 b83d d761 c83d c850 9a3d 0e8e 9b3d
00000040: 30b1 833d c5ae a63d 3101 a93d e14b e63d
00000050: d64a 753d 5ef2 b43d 21d8 a53d 919c 783d
00000060: b9f6 bb3d cd81 cf3d f3ee a93d b50a 813d
00000070: 3fc2 9e3d a374 833d a588 913d 46b9 a73d
00000080: c901 dd3d b6c3 b43d d896 903d 8e2d aa3d
00000090: 7344 743d 379f c83d 9023 983d 1be9 a73d
000000a0: 1929 dc3d b8bd ac3d bc59 8a3d ab5b 9e3d
000000b0: 1694 8d3d 61af ae3d 9cd1 993d 62c4 a53d
000000c0: 73a8 b03d 1f56 c23d 2020 ae3d 696e 973d
000000d0: e8b3 9b3d ff5a da3d 49aa a03d d0dc 6f3d
000000e0: 8645 a23d bca7 893d 919e ba3d 3ed9 883d
000000f0: f078 9b3d 383a bb3d 2ae1 943d 3443 bc3d

16.weight f4 [32, 64]
0.103357926 -0.06482735 0.10143083 0.20389922 -0.11030789 0.01698687 0.13212846 0.17073104
0.018534925 0.16559923 -0.0073982524 -0.033798363 0.13710201 0.20601307 -0.037008453 -0.022460299
0.049629036 -0.07697835 0.14425969 -0.06313532 0.1289769 0.06785378 -0.13630232 0.05474587
0.039451133 -0.06317656 0.01612977 -0.10713541 -0.04600804 -0.044661243 0.20591368 -0.21538262
0.051283926 0.10219741 0.1726 0.028739432 -0.030270299 0.15120116 -0.0034373582 -0.1008437
0.05520662 -0.025476214 0.1842463 0.07415991 -0.074949175 0.04022252 -0.07948947 -0.04708273
0.13907191 0.10193392 -0.033201125 0.05879445 -0.02565426 -0.05734648 -0.2058422 0.24256125
-0.08516947 -0.08998214 -0.09522096 0.18017995 0.11680151 -0.057691325 0.03702961 -0.031852465
-0.005206418 0.08493863 -0.05007627 0.13623984 -0.05144064 -0.022026703 -0.08742269 0.071266524
-0.007570153 0.107389815 -0.12280608 -0.08373473 0.027594114 0.17908254 -0.081191994 -0.09694336
0.13256301 -0.118330374 -0.038901135 0.043689042 -0.08050429 0.15212722 0.009009559 -0.0560608
0.079531156 -0.02872345 -0.022209473 -0.0071886424 -0.106404655 -0.047689937 0.029909132 -0.11883178
0.037400812 -0.007088972 0.14650619 0.11342829 0.028155694 0.049861252 -0.11722747 0.0005895756
-0.001112101 0.046768613 0.1547337 -0.088417135 0.017009785 -0.056137674 0.0116654895 0.19119592
0.04736007 0.07140899 -0.038758393 0.16717839 -0.060264103 0.071457945 0.08074634 0.14241289
-0.059322875 -0.14613135 0.070033096 -0.04791287 -0.10466824 0.02704358 0.039600275 0.10696547
0.22395743 0.18103352 -0.03592811 0.0875257 -0.027114399 0.0060908617 0.047837798 -0.11606154
-0.094525434 -0.101980455 0.14586534 -0.11519527 0.011494399 -0.20319588 -0.0988549 -0.059810366
0.022146327 -0.09427383 0.036880482 0.06322243 -0.06667368 0.019536378 0.14866148 -0.10967576
-0.091792725 0.121802755 -0.006239588 0.025410157 -0.057342738 -0.05972274 -0.08079297 0.13162275
0.18696211 -0.1279106 0.0942354 -0.14114901 0.10853459 -0.150628 0.18700007 -0.025109826
0.08099783 0.033105966 -0.081533134 0.0057255696 0.19951485 0.18763478 0.030448044 -0.16241969
-0.07434903 -0.15926002 0.13977304 -0.07131648 0.13055131 -0.015669858 0.13717781 -0.08321025
0.07717906 0.11824378 0.24371742 -0.03798932 -0.07209613 0.05267462 0.1343553 -0.033835866
0.0008508876 -0.003508426 0.03860041 0.12822892 -0.21437322 -0.02831939 -0.0022955227 0.026406014
0.20168911 0.05659455 0.13546084 -0.08425885 0.06396187 0.032457348 0.07735409 -0.045018766
0.14769842 0.08112298 0.13779978 0.050986335 -0.08131879 -0.17609042 -0.013335049 0.12177673
-0.13274598 -0.14315477 -0.119133815 -0.12412484 0.0784159 -0.09844902 0.09327095 -0.078908324
-0.119531564 0.05258536 0.14354101 0.16437973 -0.0508492 0.038882706 0.20000702 0.043948386
-0.04539941 -0.083284944 0.049542602 0.21456866 0.13015963 0.1332491 -0.15243527 -0.069035836
0.054069128 -0.018323759 0.0897721 -0.08943923 0.14112124 0.018466126 -0.04529848 0.057818748
0.121948 0.12898749 0.09680603 0.010346905 -0.117087185 0.02380491 0.13976978 -0.05833094
00000000: 52ad d33d 34c4 84bd f8ba cf3d f5ca 503e
00000010: 1ae9 e1bd 0c28 8b3c af4c 073e 1ed4 2e3e
00000020: 8ed6 973c d892 293e 0a6d f2bb 2770 0abd
00000030: 7864 0c3e 17f5 523e 2d96 17bd a9fe b7bc
00000040: d147 4b3d d3a6 9dbd d0b8 133e 174d 81bd
00000050: 8512 043e ecf6 8a3d d692 0bbe 353d 603d
00000060: 8397 213d b662 81bd 9422 843c cf69 dbbd
00000070: ed72 3cbd b5ee 36bd 09db 523e 438d 5cbe
00000080: 180f 523d e04c d13d 0ebe 303e f56e eb3c
00000090: 6bf9 f7bc 7ad4 1a3e 4d45 61bb 2487 cebd
000000a0: 5620 623d 7eb3 d0bc 10ab 3c3e 27e1 973d
000000b0: f47e 99bd 5ec0 243d 60cb a2bd d2d9 40bd
000000c0: de68 0e3e bbc2 d03d e7fd 07bd 73d2 703d
000000d0: e228 d2bc 25e4 6abd 4cc8 52be fa61 783e
000000e0: 556d aebd 8e48 b8bd 3503 c3bd 1881 383e
000000f0: a135 ef3d bd4d 6cbd 5cac 173d bb77 02bd
00000100: 9a9a aabb 4ef4 ad3d c61c 4dbd 7582 0b3e
00000110: 6cb3 52bd 5871 b4bc ab0a b3bd 2ff4 913d
00000120: 0c0f f8bb 31ef db3d c181 fbbd 1d7d abbd
00000130: 0d0d e23c 6a61 373e fd47 a6bd 3e8a c6bd
00000140: 99be 073e 3257 f2bd cc56 1fbd 48f3 323d
00000150: 6fdf a4bd 3dc7 1b3e d49c 133c 02a0 65bd
00000160: 3be1 a23d 714d ebbc a4f0 b5bc b48e ebbb
00000170: afea d9bd 8656 43bd ff03 f53c 145e f3bd
00000180: 9831 193d 9b4a e8bb b805 163e 174d e83d
00000190: c5a6 e63c 503b 4c3d f514 f0bd c08d 1a3a
000001a0: ebc3 91ba 7290 3f3d 8372 1e3e 0b14 b5bd
000001b0: 1b58 8b3c 9ef0 65bd 9c20 3f3c ddc8 433e
000001c0: a2fc 413d e03e 923d 1fc1 1ebd d030 2b3e
000001d0: 7ed7 76bd 8b58 923d 565e a53d afd4 113e
000001e0: 8bfc 72bd 75a3 15be 836d 8f3d 4940 44bd
000001f0: 4d5c d6bd 7f8a dd3c e633 223d b610 db3d
00000200: 1955 653e da60 393e 5b29 13bd ad40 b33d
00000210: 041f debc da95 c73b 91f1 433d acb1 edbd
00000220: 8d96 c1bd 21db d0bd b95d 153e 7feb ebbd
00000230: 0153 3c3c 9512 50be 7074 cabd b7fb 74bd
00000240: 376c b53c a312 c1bd fd0f 173d c37a 813d
00000250: 368c 88bd c10a a03c b73a 183e af9d e0bd
00000260: d3fd bbbd b973 f93d 7575 ccbb f628 d03c
00000270: 38e0 6abd d59f 74bd c976 a5bd 1dc8 063e
00000280: ff72 3f3e fffa 02be 7dfe c03d 5e89 10be
00000290: 6247 de3d 3a3e 1abe f27c 3f3e 1fb3 cdbc
000002a0: 31e2 a53d 1f9a 073d d8fa a6bd 8f9d bb3b
000002b0: 9f4d 4c3e 5523 403e 2d6e f93c 5951 26be
000002c0: 4e44 98bd 0f15 23be aa20 0f3e 600e 92bd
000002d0: 3eaf 053e 135e 80bc 5778 0c3e 236a aabd
000002e0: 0e10 9e3d cc29 f23d 0f91 793e b09a 1bbd
000002f0: 23a7 93bd 58c1 573d 7094 093e 7a97 0abd
00000300: 1a0e 5f3a 9fed 65bb 771b 1e3d 714e 033e
00000310: a784 5bbe 11fe e7bc 7b70 16bb 6d51 d83c
00000320: 9787 4e3e b0cf 673d 3fb6 0a3e e78f acbd
00000330: 71fe 823d fff1 043d d26b 9e3d 9965 38bd
00000340: 413e 173e ce23 a63d 631b 0d3e 0cd7 503d
00000350: 778a a6bd 0c51 34be 407b 5abc 1466 f93d
00000360: 90ee 07be 2a97 12be 6efc f3bd 2a35 febd
00000370: 8498 a03d a49f c9bd d704 bf3d b09a a1bd
00000380: f7cc f4bd bf63 573d 6afc 123e 2953 283e
00000390: 4047 50bd 7943 1f3d a4ce 4c3e 3903 343d
000003a0: bbf4 39bd 4c91 aabd 2fed 4a3d e3b7 5b3e
000003b0: 9148 053e 7472 083e fe17 1cbe a962 8dbd
000003c0: 9777 5d3d b51b 96bc 6fda b73d ea2b b7bd
000003d0: 1682 103e 4646 973c e68a 39bd 5ad3 6c3d
000003e0: dfbf f93d 4c15 043e 3d42 c63d 1186 293c
000003f0: 68cb efbd 8402 c33c cf1f 0f3e 6cec 6ebd

16.bias f4 [32]
0.17172492 -0.022950388 0.1298396 0.07325947 -0.05118763 -0.053810887 0.09785423 0.037982646
-0.03516565 -0.006060046 0.020958545 0.013326041 0.125413 0.064439915 0.11936704 0.0029777123
0.15055273 0.14998405 0.12878284 -0.021879368 0.040629193 0.1361851 0.036104888 0.063093975
-0.0022001995 0.10466329 -0.0087771695 -0.02533374 0.0024629312 -0.051997814 0.03890786 0.16660398
00000000: a8d8 2f3e 7402 bcbc acf4 043e 1009 963d
00000010: 1faa 51bd ce68 5cbd cc67 c83d b193 1b3d
00000020: db09 10bd 5a93 c6bb 41b1 ab3c 7855 5a3c
00000030: 446c 003e 13f9 833d b576 f43d b925 433b
00000040: 7f2a 1a3e 6b95 193e a6df 033e 5c3c b3bc
00000050: cc6a 263d 1b74 0b3e b8e2 133d 6a37 813d
00000060: 3931 10bb b559 d63d 1ece 0fbc b488 cfbc
00000070: 2169 213b a9fb 54bd d95d 1f3d 3c9a 2a3e
