03_AML2425_Unlearning/Practice/checkpoint/gold_model.pth (torch, 245282 bytes, 22 tensors)

0.weight f4 [32, 3, 3, 3]
0	0x3c24d5f3	0.010060775
1	0x3df1f265	0.11813811
2	0xbe1cfd8d	-0.15331097
3	0xbdfb683b	-0.1227574
4	0xbd81f3e2	-0.06345345
5	0x3d1ee52d	0.038792778
6	0x3c113730	0.008863255
7	0x3e172172	0.14758852
8	0xbd0df05f	-0.034653064
9	0x3d4bee03	0.049787533
10	0xbd57825b	-0.05261455
11	0xbd1cf10a	-0.03831581
12	0xbe30525a	-0.17218915
13	0xbdf68317	-0.12036722
14	0xbdbe43a5	-0.09290246
15	0x3c12d59c	0.008962061
16	0x3d8345e9	0.06409819
17	0x3dc2731f	0.09494614
18	0xbe142b93	-0.14469747
19	0xbda5d779	-0.08097739
20	0x3da265be	0.07929562
21	0x3e2fbc60	0.17161703
22	0xbc87a2f1	-0.016557189
23	0x3e23b496	0.15986857
24	0xbcc420e3	-0.023941463
25	0x3d0ea3cb	0.034824174
26	0x3e44257c	0.19154924
27	0xbe25a03f	-0.1617441
28	0xbdeb5313	-0.114904545
29	0xbd40e211	-0.047090594
30	0xbd88ba27	-0.06676131
31	0x3e2eec74	0.17082387
32	0xbdf97fac	-0.121825546
33	0xbd909ff2	-0.07061757
34	0xbdec746f	-0.115456454
35	0xbe244120	-0.16040468
36	0xbdaa8669	-0.08326418
37	0x3e3e65c2	0.18593505
38	0x3dcd3f15	0.100217976
39	0x3df50fee	0.11965929
40	0x3d0b18ca	0.033959188
41	0xbda06c70	-0.07833183
42	0x3d8b803d	0.06811569
43	0xbe13b2b4	-0.14423639
44	0xbdd7026f	-0.10498511
45	0xbda7bc0b	-0.08190163
46	0x3e0869bf	0.13321589
47	0x3df10a08	0.117694914
48	0xbd83063c	-0.063976735
49	0x3c6ba150	0.014381722
50	0x3e0f14ab	0.13972728
51	0x3e64d421	0.22346546
52	0x3ddfb356	0.109228775
53	0x3d6398a4	0.05556549
54	0x3ddc4b96	0.107566044
55	0xbe017855	-0.1264356
56	0x3d226b6f	0.039653238
57	0xbe31692f	-0.1732528
58	0xbe10ce5d	-0.14141221
59	0xbdb129b9	-0.08650536
60	0x3da668f1	0.08125485
61	0x3db47ac8	0.08812481
62	0xbdb3b3e2	-0.08774544
63	0x3d1ac22c	0.037782833
64	0x3dc351d3	0.09537091
65	0xbcaa6f9c	-0.020805173
66	0xbcb94cae	-0.022619572
67	0x3d0399b1	0.032128993
68	0x3dfe6b96	0.12422864
69	0x3e20f628	0.15718901
70	0xbe23faf0	-0.16013694
71	0xbd8eb51d	-0.06968138
72	0x3daec0f5	0.085328974
73	0x3e3215bc	0.17391104
74	0x3e3b6a4b	0.18302266
75	0x3e239fdc	0.1597895
76	0x3d2b68d6	0.041848026
77	0xbe20fd8c	-0.1572172
78	0xbbd71334	-0.0065635685
79	0xbe05c61e	-0.13063857
80	0xbe3c59d6	-0.18393645
81	0x3e214ba1	0.15751506
82	0x3e132439	0.14369287
83	0xbe436d87	-0.1908475
84	0x3c991134	0.01868496
85	0xbd04f7bc	-0.03246282
86	0xbc967ee6	-0.018371057
87	0xbdcdeb49	-0.10054643
88	0x3da113e8	0.07865125
89	0xbdc34a7b	-0.095356904
90	0x3db3ab2e	0.08772884
91	0x3df53815	0.119735874
92	0x3e26143a	0.16218653
93	0x3da9d5c2	0.08292724
94	0xbe2d8052	-0.16943482
95	0xbdbda434	-0.09259835
96	0x3de4197b	0.111376725
97	0x3d832414	0.06403366
98	0xbdec358d	-0.115336515
99	0xbde01570	-0.10941589
100	0x3e46ccef	0.19414113
101	0x3e2cb876	0.16867241
102	0xbddf8599	-0.109141536
103	0xbd68e956	-0.05686315
104	0xbe1c83e3	-0.15284686
105	0xbcd64528	-0.026156023
106	0xbe1cbddc	-0.153068
107	0xbded42f3	-0.11585035
108	0xbca56242	-0.020188455
109	0x3c18cd03	0.009326222
110	0xbda0fd50	-0.078608155
111	0x3ddf4766	0.1090229
112	0xbe11820f	-0.1420977
113	0x3e3640f2	0.17798212
114	0x3e084ade	0.1330981
115	0xbe301357	-0.17194878
116	0xbcb63054	-0.022239842
117	0x3cc984b3	0.024599409
118	0x3cf8e35d	0.030381853
119	0x3d816f0c	0.06320009
120	0x3dc5c40f	0.09656536
121	0x3bee56bb	0.0072735227
122	0xbd9717cf	-0.07377588
123	0x3deb4342	0.11487438
124	0xbe36a7e8	-0.17837489
125	0xbd9c6cf5	-0.076379694
126	0xbbb00627	-0.005371827
127	0xbd7ab37c	-0.061206326
128	0xbcdd52b0	-0.027016968
129	0xbddf4410	-0.10901654
130	0xbcba186c	-0.022716723
131	0x3da7c5be	0.08192013
132	0xbd9261f5	-0.0714759
133	0x3c993fc7	0.01870717
134	0x3e450891	0.19241549
135	0xbca35a97	-0.019940658
136	0xbbb549ff	-0.0055325027
137	0xbced690e	-0.028980758
138	0x3d1b37ba	0.037894942
139	0x3def4ac6	0.11684184
140	0x3e32d240	0.17463017
141	0x3e0460cf	0.12927555
142	0x3e3d11d7	0.18463837
143	0xbc8a8285	-0.01690794
144	0xbe1d4c95	-0.15361245
145	0xbdb65787	-0.08903413
146	0x3e070fd4	0.13189632
147	0x3b4bce88	0.0031098444
148	0xbdd40f21	-0.10354448
149	0xbe21e5ec	-0.15810364
150	0xbe2e0ef7	-0.16997896
151	0xbe290499	-0.1650566
152	0xbd3f7c05	-0.046749134
153	0x3e25e90a	0.16202179
154	0x3e12d1e4	0.1433788
155	0xbe130667	-0.14357911
156	0x3e23ce19	0.15996589
157	0xbe020335	-0.12696536
158	0xbc94a472	-0.01814482
159	0xbd04122d	-0.032243896
160	0xbc17a1ba	-0.009254867
161	0xbc6f371d	-0.014600542
162	0xbe1ce429	-0.15321411
163	0xbe186a95	-0.14884408
164	0xbcedba2a	-0.029019434
165	0x3c112d3c	0.008860882
166	0xbd88e5f3	-0.06684484
167	0x3daac6ec	0.083387226
168	0xbe26733b	-0.16254894
169	0x3c153ce4	0.009108756
170	0x3e3baa2b	0.18326633
171	0xbd8da375	-0.069159426
172	0x3e3feab3	0.18741874
173	0x3d7ca90e	0.06168466
174	0xbe2d1977	-0.16904245
175	0x3e127177	0.14301096
176	0xbc89139c	-0.016732983
177	0xbdac4727	-0.08412009
178	0x3e2e45a7	0.17018758
179	0xbe1cea21	-0.15323688
180	0x3cf7f3dd	0.03026765
181	0xbce7fd80	-0.02831912
182	0x3e032392	0.12806538
183	0x3d6eeb76	0.05833002
184	0x3ddea00c	0.1087037
185	0x3d88083e	0.06642197
186	0xbd2d1120	-0.04225266
187	0xbce7e1df	-0.028305946
188	0xbe297ad2	-0.16550758
189	0x3decd51f	0.11564087
190	0x3e29ae9b	0.16570513
191	0x3e1dba63	0.15403132
192	0xbe0e64dd	-0.13905664
193	0x3be6b925	0.007041114
194	0xbe089400	-0.13337708
195	0xbdc6ea49	-0.09712655
196	0xbdd8b02c	-0.10580477
197	0x3d8ee996	0.06978147
198	0xbde751c9	-0.11294896
199	0x3aba375f	0.0014207176
200	0x3cc9728d	0.024590755
201	0x3dfd9b1e	0.12383102
202	0xbe10925c	-0.14118332
203	0xbdfac4ad	-0.12244544
204	0xbdc19647	-0.09452491
205	0x3e1c5222	0.15265706
206	0xbd523788	-0.05132249
207	0x3e14b022	0.14520314
208	0x3d621d2e	0.05520361
209	0x3ca4a4f6	0.02009819
210	0xbc83cbad	-0.016088331
211	0xbd4bf16c	-0.049790785
212	0x3c88fb01	0.01672125
213	0xbd2a4d62	-0.041577704
214	0x39af23e7	0.0003340535
215	0x3cd23299	0.025658892
216	0xbe02f291	-0.12787844
217	0xbdce40b2	-0.100709334
218	0x3e262977	0.16226755
219	0xbe0ea342	-0.13929465
220	0xbbee1c58	-0.0072665624
221	0x3e477024	0.19476372
222	0x3db8a42e	0.0901569
223	0x3c8e1266	0.017342757
224	0xbe3cf734	-0.18453676
225	0x3dc9807e	0.09838961
226	0xbe181aca	-0.14853969
227	0xbd576b6c	-0.05259268
228	0xbd8c0e30	-0.068386436
229	0xbd15a38c	-0.036532924
230	0xbb6d65cf	-0.0036224013
231	0x3e1c2638	0.15248954
232	0x3c4b26fc	0.012399431
233	0x3e060af8	0.13090122
234	0x3e03d1ec	0.12873048
235	0xbdf194b4	-0.11795941
236	0x3dd8347b	0.10556885
237	0xbe093b0f	-0.13401435
238	0xbda06351	-0.07831443
239	0x3d888e5d	0.06667779
240	0x3d7ca207	0.06167796
241	0x3e111b5f	0.14170597
242	0xbdb0a6c4	-0.08625558
243	0xbb9a8faf	-0.0047168355
244	0x3db7b859	0.089707084
245	0xbe28e307	-0.16492854
246	0x3e17f85a	0.14840832
247	0xbe22543f	-0.1585245
248	0x3cbffb42	0.023435239
249	0xbb84fe02	-0.0040586004
250	0xbdb7c9fb	-0.089740716
251	0x3d531048	0.0515292
252	0x3e12d67a	0.14339629
253	0xbd9783f5	-0.07398216
254	0xbdd6054e	-0.104502305
255	0xbd946578	-0.07245916

0.bias f4 [32]
0	0x3e45a1c2	0.19299987
1	0xbda2e427	-0.07953673
2	0xbc5a9eef	-0.013343557
3	0xbda83321	-0.08212877
4	0xbca6c75f	-0.02035874
5	0x3d583030	0.05278033
6	0x3cbd4306	0.023103248
7	0xbd0d61ba	-0.034517027
8	0xbe49c3c2	-0.19703582
9	0x3c2ab3e7	0.010418869
10	0xbbfd3748	-0.0077275373
11	0x3cd3b917	0.025845094
12	0x3e15d5f2	0.14632395
13	0x3e39eccc	0.18156737
14	0xbde95119	-0.11392421
15	0xbbdae8d3	-0.006680587
16	0xbd99eac9	-0.07515485
17	0xbe3bf816	-0.18356356
18	0xbe126c7e	-0.14299199
19	0x3e4388c2	0.19095138
20	0x3ddf2549	0.108957835
21	0x3dbc1f70	0.09185684
22	0x3dcc948d	0.09989271
23	0xbe180add	-0.14847894
24	0x3c6ae672	0.014337169
25	0x3e2eb009	0.1705934
26	0xbdd27e16	-0.10277955
27	0x3e3928c1	0.18081953
28	0x3d2ac827	0.041694786
29	0x3e0d9428	0.13826048
30	0xbdb52c2d	-0.088463165
31	0x3dacb4dc	0.08432934

1.weight f4 [32]
0	0x3f7ff369	0.9998079
1	0x3f776db9	0.966518
2	0x3f7cd577	0.9876322
3	0x3f83789d	1.0271183
4	0x3f8e02a8	1.1094561
5	0x3f7cea5d	0.9879511
6	0x3f72c2f5	0.9482873
7	0x3f8303aa	1.0235493
8	0x3f7e0921	0.9923268
9	0x3f7b83ea	0.9824816
10	0x3f7cdae0	0.98771477
11	0x3f7a2f12	0.97728074
12	0x3f78203e	0.969242
13	0x3f809368	1.0044985
14	0x3f704631	0.93857104
15	0x3f7e3073	0.9929268
16	0x3f773b0a	0.9657446
17	0x3f86fe57	1.0546368
18	0x3f753c7d	0.9579542
19	0x3f81c979	1.013961
20	0x3f886634	1.065619
21	0x3f812498	1.0089293
22	0x3f7a8217	0.9785475
23	0x3f796d14	0.97432065
24	0x3f6edf62	0.93309605
25	0x3f712001	0.9418946
26	0x3f84cc5a	1.0374863
27	0x3f8151f7	1.0103139
28	0x3f86f0c5	1.0542227
29	0x3f75e376	0.960502
30	0x3f8742ab	1.056722
31	0x3f779b34	0.96721196

1.bias f4 [32]
0	0x3c8fb69a	0.017543126
1	0xbbd321e6	-0.00644325
2	0xbcd291bd	-0.025704259
3	0x3db442fe	0.0880184
4	0xbd39bef1	-0.04534811
5	0xbd8d541a	-0.06900807
6	0xbd666a49	-0.056253705
7	0xbc73b0ff	-0.014873742
8	0xbcb74f31	-0.022376629
9	0xbcbc89fc	-0.023015015
10	0xbd8cb3c0	-0.06870222
11	0xbd146d86	-0.036237262
12	0xbc2aaa7d	-0.010416624
13	0xbcf366cb	-0.029712101
14	0xbd005a51	-0.031336132
15	0xba8b231f	-0.0010615325
16	0xbd399915	-0.045312006
17	0xbcce9ec5	-0.025222192
18	0xbd58e925	-0.05295672
19	0xbd3e9cc8	-0.046536237
20	0xbcbbd7a0	-0.022929966
21	0xbde1ffad	-0.110350944
22	0xbc770a84	-0.015078191
23	0xbd567de4	-0.052366152
24	0xbc5c9e7c	-0.01346552
25	0xbd7f6449	-0.0623515
26	0xbe020378	-0.12696636
27	0x3d528ba4	0.051402703
28	0xbd73772c	-0.059439823
29	0x3b734ccb	0.003712463
30	0xbd7575cb	-0.05992679
31	0xbd03de84	-0.03219463

1.running_mean f4 [32]
0	0x3e32ff1f	0.17480133
1	0xbdeca5ca	-0.11555059
2	0xbcbb0bd2	-0.022832785
3	0xbd836d18	-0.06417292
4	0xbca6b97c	-0.020352118
5	0x3d853be0	0.06505561
6	0x3c9d426f	0.019196717
7	0xbd17a8bc	-0.037026152
8	0xbe53ead4	-0.20695049
9	0xbc7792b2	-0.0151106585
10	0xbc03ab83	-0.008036497
11	0x3cc77e0a	0.024352092
12	0x3ded2b4a	0.11580522
13	0x3e3f9392	0.18708637
14	0xbe10b920	-0.1413312
15	0x3a168e85	0.0005743283
16	0xbdbf4dd2	-0.09341015
17	0xbe3c7bc9	-0.18406595
18	0xbe1dba18	-0.1540302
19	0x3e47bf16	0.19506487
20	0x3dde36bf	0.10850286
21	0x3db70e45	0.089382686
22	0x3da64318	0.08118266
23	0xbe210c6b	-0.15727393
24	0x3a098523	0.0005245974
25	0x3e29809a	0.16552964
26	0xbdd9ee44	-0.10641149
27	0x3e355c64	0.17711025
28	0x3d1dfeed	0.038573194
29	0x3e0abeb6	0.13549313
30	0xbdb3d42d	-0.08780704
31	0x3dabc9de	0.083881125

1.running_var f4 [32]
0	0x3dac70bb	0.08419939
1	0x3e3b37c6	0.18282995
2	0x3e06b5b9	0.13155259
3	0x3e36410e	0.17798254
4	0x3ca2b2ae	0.019860592
5	0x3d8d70c6	0.069062755
6	0x3d9eeadf	0.07759642
7	0x3d882b29	0.06648857
8	0x3d54d627	0.051962044
9	0x3dd84ebf	0.105618946
10	0x3db78ea8	0.089627564
11	0x3c89af9a	0.016807366
12	0x3ed4e698	0.4158218
13	0x3cd8b524	0.026453562
14	0x3edd23db	0.43191418
15	0x3ce6667b	0.028125038
16	0x3e3c267a	0.18374053
17	0x3d52b247	0.05143955
18	0x3db47296	0.08810918
19	0x3cda2e6f	0.02663347
20	0x3cd1fbb0	0.02563271
21	0x3d2541b9	0.04034588
22	0x3e5d3c12	0.21604946
23	0x3daf1c7f	0.08550357
24	0x3d873c4f	0.066033
25	0x3d3c85f0	0.04602617
26	0x3e0d88a6	0.13821658
27	0x3dc04907	0.09388929
28	0x3e43a1a3	0.19104628
29	0x3da5ce49	0.080959864
30	0x3c7d5cf8	0.01546406
31	0x3c3d7e05	0.01156569

5.weight f4 [64, 32, 3, 3]
0	0xbd30c4e4	-0.04315652
1	0xbb8a69cb	-0.0042240373
2	0x3c546010	0.012962356
3	0x3c8946dd	0.016757423
4	0x3d22346e	0.039600782
5	0x3d41d209	0.047319446
6	0x3d41c9c4	0.04731156
7	0x3cbb15e2	0.022837583
8	0x3cf4245a	0.02980249
9	0x3bd0c888	0.0063715614
10	0xbd2d070a	-0.04224304
11	0xbb519f9e	-0.0031986008
12	0xbb486c31	-0.0030582065
13	0xbd1ee1e8	-0.03878966
14	0x3cf5d6c2	0.030009631
15	0x3d256322	0.040377744
16	0x3c1e3558	0.009656273
17	0x3cddefdf	0.027091919
18	0x3cb5b547	0.022181166
19	0x3b5d8c56	0.003380557
20	0xbcf819f6	-0.030285817
21	0xbd133a0f	-0.03594404
22	0x3d11f2a6	0.0356318
23	0x3c3f47cd	0.0116748335
24	0x3c98f31d	0.018670613
25	0xbd655572	-0.05598969
26	0xbd4091cd	-0.047014046
27	0xbcbf51e8	-0.023354486
28	0x38741512	5.8193757e-05
29	0xbd41260b	-0.04715542
30	0x3c4a72c5	0.012356465
31	0xbcbd9208	-0.023140922
32	0x3d595ffa	0.053070046
33	0xbbb9955b	-0.0056635565
34	0x3d5ae28b	0.053438704
35	0xbd418e81	-0.047255043
36	0xbda51df8	-0.08062357
37	0x3d304728	0.04303661
38	0x3d6a15de	0.05714976
39	0xbc947a82	-0.018124823
40	0x3aed4fbb	0.0018105427
41	0xbdd4decb	-0.10394057
42	0x3d2e0429	0.042484436
43	0xbd7cc381	-0.061709885
44	0xbb044770	-0.0020184182
45	0xbd7e94ac	-0.062153503
46	0xbd25c7da	-0.040473796
47	0xbc6436ae	-0.013929052
48	0xbc821141	-0.015877368
49	0x3bdb13c9	0.006685708
50	0xbd039ac8	-0.032130033
51	0xbd055ecf	-0.03256112
52	0x3d56d517	0.052449312
53	0x3c0ca783	0.00858486
54	0xbbb4d312	-0.0055183256
55	0xbb90e91a	-0.004422319
56	0xbd13cd68	-0.036084563
57	0xbd24735b	-0.040149074
58	0x3cc48091	0.023987086
59	0x3c8dfa54	0.01733128
60	0x3c4496af	0.011998816
61	0xbd320427	-0.04346099
62	0x3c1e78b9	0.009672337
63	0xbd013533	-0.031544875
64	0xbd801a84	-0.062550575
65	0xbb9af492	-0.004728862
66	0x3dac67fc	0.08418271
67	0xbc76b2ea	-0.015057305
68	0xbd328911	-0.043587748
69	0xbc8ff33c	-0.017572038
70	0x3d04204b	0.03225736
71	0xbd125b8a	-0.03573183
72	0x3d16f4b9	0.03685448
73	0x3d699691	0.057028357
74	0x3ca13034	0.019676305
75	0x3c0459dd	0.008078066
76	0x3d3644d3	0.04449923
77	0x3cdbac46	0.026815545
78	0xbd663fb8	-0.05621311
79	0xbd55a397	-0.052157965
80	0xbc4a4ee3	-0.01234791
81	0x3d28a5c4	0.04117371
82	0xbd7ee4bf	-0.062229868
83	0x3d0f18e4	0.034935847
84	0xbbbb1702	-0.00570953
85	0xbd5051fb	-0.050859433
86	0x3c9cda60	0.019147098
87	0xbc7ebeb2	-0.015548395
88	0x3c6632a5	0.014050161
89	0xbcf389cb	-0.02972879
90	0xbd47ffea	-0.048828043
91	0xbcb9e059	-0.022689985
92	0xbd1a90e3	-0.03773583
93	0x3d2a7d4a	0.04162339
94	0x38835199	6.2617655e-05
95	0x3d1124aa	0.035435356
96	0x3d0b0ebb	0.033949595
97	0xbb85703c	-0.0040722173
98	0x3d5007f4	0.050788835
99	0x3c8dc54e	0.017305996
100	0x3d1b03b9	0.037845347
101	0x3ca3967a	0.019969214
102	0xbbf0840a	-0.007339959
103	0xbbe802ce	-0.0070804125
104	0xbc78fea4	-0.01519743
105	0xbd91d81b	-0.07121297
106	0xbb394851	-0.0028271864
107	0xbd494a9d	-0.049143422
108	0xbcfb1d31	-0.030653568
109	0x3d0712be	0.03297686
110	0xbd494f65	-0.049147982
111	0xbcb35749	-0.021892207
112	0x3c396c66	0.011317348
113	0xbc0b1370	-0.008488521
114	0x3bca06af	0.0061653475
115	0x3c48c8c7	0.0122549
116	0x3ca76d95	0.020437995
117	0xbd77034e	-0.060305886
118	0xbc26a856	-0.01017197
119	0x3bc3de2a	0.0059774118
120	0x3ca08d6a	0.019598681
121	0xbc99db54	-0.018781342
122	0xbd2e23e3	-0.042514693
123	0x3d07b494	0.033131197
124	0x3d698ce8	0.057019144
125	0xbb241eee	-0.002504285
126	0xbd17b4b8	-0.03703758
127	0x3d2061da	0.03915582
128	0xbc29dba4	-0.010367308
129	0xbd19aa99	-0.03751621
130	0xbb204ef8	-0.0024461132
131	0x3d0a233a	0.033725
132	0xbcd1a3e7	-0.02559085
133	0x3d332b27	0.043742325
134	0x3d167e24	0.03674139
135	0x3cc14d15	0.023596326
136	0x3ccf1683	0.02527929
137	0xbc07b3d4	-0.00828262
138	0x3c54f7bd	0.0129985185
139	0x3d2e3294	0.042528704
140	0xbd0038f2	-0.031304307
141	0xb94583a0	-0.00018836418
142	0xbc4cf06f	-0.012508496
143	0x3d41c632	0.047308154
144	0xbd0783e3	-0.03308476
145	0x3d26bc6e	0.040707044
146	0xbc429381	-0.011875988
147	0xbcca00b5	-0.02465854
148	0x3ce6e8db	0.028187206
149	0x3c509f6f	0.012733324
150	0x3d0ce0fa	0.034394242
151	0x3c656eaa	0.014003435
152	0xbd4075c4	-0.04698731
153	0x3d7f86a5	0.062384266
154	0x3d276792	0.040870257
155	0xb86beb82	-5.62477e-05
156	0x3ae9fb3f	0.0017851366
157	0x3c6d5b21	0.014487059
158	0xbdca3697	-0.098736934
159	0xbd888438	-0.06665844
160	0x3c2fe9bf	0.010736882
161	0xbc85d638	-0.016337499
162	0x3d8684a6	0.065682694
163	0x3c60e91a	0.013727451
164	0xbcbfe8b9	-0.0234264
165	0x3d5eb50e	0.054371886
166	0x3d25fd9f	0.040525075
167	0x3d685f70	0.05673164
168	0xbd273c6f	-0.04082912
169	0xbd356f98	-0.044295877
170	0xbcc423ba	-0.023942817
171	0xbcce432d	-0.025178516
172	0x3d017e37	0.03161451
173	0x3d12009b	0.03564511
174	0x3c913c32	0.017728899
175	0xba05ad81	-0.00050994015
176	0x3cdd3544	0.027002938
177	0xbd1d238f	-0.03836399
178	0x3d65b715	0.056082804
179	0xbd6d1363	-0.057879817
180	0x3aef21a7	0.0018244282
181	0x3c4d4278	0.012528054
182	0x3d055532	0.03255195
183	0xbb1c77c0	-0.0023875087
184	0x3cd586cd	0.026065255
185	0xbd3a684d	-0.045509625
186	0xbc503073	-0.012706864
187	0xbd631865	-0.055443186
188	0xbd076694	-0.03305681
189	0x3c223fbc	0.009902891
190	0x3c47e114	0.012199659
191	0xbceae200	-0.028672218
192	0x3afdca31	0.0019362626
193	0xbc984684	-0.018588312
194	0xbc921cbb	-0.017835965
195	0x3c812e04	0.015769012
196	0xbc5edee6	-0.013602948
197	0x3d2aa2a5	0.041659016
198	0xbcfadbf2	-0.030622456
199	0xba365982	-0.0006956087
200	0xbaf48de4	-0.0018658009
201	0xbd1f8853	-0.03894837
202	0x3ccebcbd	0.025236482
203	0x3b3c105e	0.002869628
204	0xbbc4879e	-0.005997612
205	0xbab57593	-0.0013844244
206	0x3d2479f3	0.040155362
207	0x3cd6f55b	0.026240041
208	0xbd166bd8	-0.03672394
209	0x3d30ba37	0.04314634
210	0xbb41ccd0	-0.002957154
211	0x3a6febbd	0.0009152254
212	0x3d7d0f55	0.0617822
213	0x3c274709	0.010209807
214	0xbb91ce6a	-0.0044496553
215	0xbd00301b	-0.031295877
216	0xb91d0f4d	-0.00014978387
217	0x3d1ff0aa	0.039047875
218	0xbd28357d	-0.041066635
219	0xbd868daf	-0.06569993
220	0xbcb5889a	-0.022159863
221	0xbd8da3bb	-0.06915995
222	0xbd93cc73	-0.0721673
223	0xbd3026b0	-0.043005645
224	0xbcebcfb8	-0.028785571
225	0xbd6097d0	-0.05483228
226	0xbd09f9af	-0.033685382
227	0x3c0a9e76	0.008460632
228	0xbcc6981f	-0.024242459
229	0x3d0bf4b4	0.034168914
230	0xba9e39a5	-0.0012071623
231	0xbd1290a7	-0.035782482
232	0x3d0f2c82	0.034954555
233	0xbcffa840	-0.031208158
234	0xbd52e38d	-0.05148654
235	0x3c0d56b9	0.008626633
236	0xbcd928d6	-0.02650873
237	0x3d57247e	0.052525036
238	0xbc014e14	-0.00789215
239	0xbc4c548f	-0.012471332
240	0x3cfe5d7d	0.031050438
241	0x3cba9ad5	0.022778908
242	0x3d90d620	0.07072091
243	0xbd3e6a3c	-0.04648803
244	0xbb7eee07	-0.00388992
245	0x3b38a607	0.0028175132
246	0xbd111bc9	-0.03542689
247	0xbd159001	-0.036514286
248	0x3c7b6b05	0.01534534
249	0xbd57db4d	-0.052699376
250	0xbbd35655	-0.0064495006
251	0xbd3fa6ea	-0.04679004
252	0x3db2dbed	0.08733354
253	0x3d2628b7	0.040566172
254	0x3d53c722	0.05170358
255	0xbd5fd356	-0.054644905

5.bias f4 [64]
0	0xbc68983d	-0.014196453
1	0x3caac005	0.020843515
2	0xbd5e2f36	-0.054244243
3	0x3c57e65e	0.013177482
4	0x3c04b3c4	0.0080995
5	0xbd78d6b9	-0.06075165
6	0x3c1fb2f6	0.009747257
7	0xbd25dc42	-0.040493257
8	0xbd52feb0	-0.05151242
9	0x3d4f170c	0.05055909
10	0x3d0accc9	0.033886705
11	0x3d3dc95d	0.046334613
12	0x3d402194	0.046907023
13	0xbd03895a	-0.03211341
14	0xbcc84610	-0.02444747
15	0x390f5d82	0.00013672377
16	0x3ccbb3b3	0.02486596
17	0xb85f97da	-5.3308766e-05
18	0xbbcaeffe	-0.00619316
19	0x3d6e8f2a	0.058242
20	0xbd093fc4	-0.033508077
21	0x3cfda77b	0.03096365
22	0x3cd08b66	0.025457095
23	0xbd0bae96	-0.034102045
24	0x3d12f5db	0.035878997
25	0x3d2059bc	0.039148077
26	0xbc72c11b	-0.014816548
27	0xbd20d00b	-0.039260905
28	0x3d1a86b5	0.037726123
29	0x3d3f1c4b	0.04665784
30	0x3cb95b42	0.022626523
31	0x3be1fd87	0.006896678
32	0x3ccea135	0.025223354
33	0x3c91df28	0.017806605
34	0xbc61bbe9	-0.013777711
35	0xbd25f689	-0.040518317
36	0xbcd9c3fc	-0.02658271
37	0x3ca04ea2	0.019568745
38	0xbcd48154	-0.025940575
39	0x3caf15cb	0.021372696
40	0xbd0f5f19	-0.0350028
41	0xbd358a6e	-0.04432147
42	0x3d2d6fb6	0.042342864
43	0xbd190a28	-0.0373632
44	0x3ca29b47	0.019849433
45	0x3d530c4c	0.0515254
46	0x39dad641	0.00041739832
47	0x3d101e3c	0.035185084
48	0xbc952518	-0.018206164
49	0xbd6094a7	-0.054829266
50	0xbd0470be	-0.03233408
51	0xbc7bdebc	-0.015372928
52	0xbd2b699c	-0.041848764
53	0xbd01644b	-0.031589787
54	0x3cbd598d	0.02311399
55	0x3d52ad42	0.051434763
56	0x3d1bc01a	0.038025
57	0x3c706314	0.01467206
58	0xbd355477	-0.044270005
59	0xbc16f4f3	-0.009213674
60	0x3ce504cd	0.02795639
61	0x3d4148f4	0.047188714
62	0xbce9daf5	-0.02854679
63	0x3ce0a19a	0.027420808

6.weight f4 [64]
0	0x3f8279cd	1.0193421
1	0x3f78d340	0.9719734
2	0x3f7c27ff	0.9849853
3	0x3f8162ec	1.0108314
4	0x3f807f68	1.0038881
5	0x3f8021aa	1.0010273
6	0x3f80a923	1.0051616
7	0x3f7597ac	0.9593456
8	0x3f8183af	1.0118312
9	0x3f7cf745	0.98814803
10	0x3f82d57d	1.0221401
11	0x3f7e09e2	0.9923383
12	0x3f81acbb	1.0130838
13	0x3f843eff	1.0331725
14	0x3f72a0db	0.94776696
15	0x3f8409a6	1.0315444
16	0x3f81eb11	1.0149862
17	0x3f7d143f	0.9885902
18	0x3f7551ec	0.9582813
19	0x3f800975	1.0002886
20	0x3f83107f	1.0239409
21	0x3f81792c	1.0115104
22	0x3f7847c7	0.96984524
23	0x3f800596	1.0001705
24	0x3f76440a	0.9619757
25	0x3f7c3a19	0.9852615
26	0x3f738ba2	0.9513494
27	0x3f76aee9	0.9636064
28	0x3f79a097	0.97510666
29	0x3f7413bf	0.9534263
30	0x3f77a0a8	0.96729517
31	0x3f829df3	1.0204452
32	0x3f771701	0.96519476
33	0x3f81ca77	1.0139912
34	0x3f7d6449	0.9898115
35	0x3f80d303	1.0064396
36	0x3f7ce43c	0.9878576
37	0x3f7c4852	0.9854785
38	0x3f806884	1.0031896
39	0x3f7cbe7a	0.98728144
40	0x3f7b97de	0.98278606
41	0x3f819753	1.0124305
42	0x3f7b5af7	0.98185676
43	0x3f797494	0.9744351
44	0x3f8332e7	1.0249909
45	0x3f82b051	1.0210057
46	0x3f7fe674	0.9996102
47	0x3f84e2cc	1.0381713
48	0x3f7fea57	0.9996695
49	0x3f77cf05	0.9680026
50	0x3f7d66b4	0.9898484
51	0x3f7e2881	0.99280554
52	0x3f822290	1.0166798
53	0x3f82392d	1.0173699
54	0x3f803b8b	1.0018171
55	0x3f82f110	1.0229816
56	0x3f804d0b	1.0023512
57	0x3f7f29ff	0.99673456
58	0x3f7975ae	0.9744519
59	0x3f81995d	1.0124928
60	0x3f7912e1	0.9729443
61	0x3f84260b	1.032411
62	0x3f8067ba	1.0031655
63	0x3f81a655	1.0128886

6.bias f4 [64]
0	0xbe124f8d	-0.14288159
1	0xbdb7fb42	-0.089834705
2	0xbdca6643	-0.09882786
3	0xbdce7d4d	-0.10082493
4	0xbd4a0f7b	-0.04933117
5	0xbd1dee48	-0.03855732
6	0xbd98d619	-0.07462711
7	0xbdc77178	-0.09738439
8	0xbd0f0eaf	-0.034926113
9	0x3bb5e34c	0.0055507775
10	0xbdb65926	-0.089037225
11	0xbd0992e5	-0.033587355
12	0xbe0d3d26	-0.13792858
13	0xbddebce9	-0.108758755
14	0xbd826482	-0.063668266
15	0xbd85429f	-0.065068476
16	0xbdd6d08a	-0.104889944
17	0xbe22fb7f	-0.1591625
18	0xbd8ca8b2	-0.068681136
19	0xbd27220b	-0.04080395
20	0xbd90a88c	-0.07063398
21	0xbdbcd692	-0.092206135
22	0xbdebb35c	-0.115088195
23	0xbc26e40c	-0.010186207
24	0xbdaf5cbc	-0.085626096
25	0xbd3fb907	-0.046807315
26	0xbde1fd87	-0.11034685
27	0xbd869148	-0.06570679
28	0xbda9e64a	-0.08295877
29	0xbdaf7bd0	-0.08568537
30	0xbe204af7	-0.15653597
31	0xbda0e8e8	-0.07856923
32	0xbdc8a32e	-0.09796749
33	0xbd84b675	-0.064801134
34	0xbd75d414	-0.060016707
35	0xbd7f548a	-0.062336482
36	0xbd9e5001	-0.07730103
37	0xbd92af6b	-0.071623646
38	0xbe18d731	-0.14925839
39	0xbd9b78a8	-0.07591373
40	0xbd1c2431	-0.038120452
41	0xbddbb9d4	-0.10728803
42	0xbc640238	-0.013916545
43	0xbddea43f	-0.10871171
44	0xbdf57794	-0.11985698
45	0xbd2b493c	-0.04181789
46	0xbd3ed4d1	-0.046589676
47	0xbd891d1c	-0.06695005
48	0xbc9798dd	-0.018505508
49	0xbd6c3f3f	-0.057677504
50	0xbd61e15f	-0.05514657
51	0xbdc42642	-0.095776096
52	0xbcfdf3a1	-0.03099996
53	0xbdc70d25	-0.09719304
54	0xbdcbc1ef	-0.09949099
55	0xbe483975	-0.19553168
56	0x3ba09a55	0.0049012103
57	0xbcfc09f2	-0.030766461
58	0xbd981f64	-0.07427862
59	0xbdafc75b	-0.08582946
60	0xbdb24dca	-0.08706243
61	0xbd9422da	-0.0723321
62	0xbe0b2af1	-0.135906
63	0xbdd4cbd1	-0.103904374

6.running_mean f4 [64]
0	0xbe9f9dfe	-0.31175226
1	0xbe0e2023	-0.13879447
2	0xbe12542b	-0.1428992
3	0xbe8f96a7	-0.28044626
4	0xbf0a39ea	-0.5399462
5	0xbea2969d	-0.31755534
6	0xbddb9afd	-0.10722921
7	0xbe35e80a	-0.17764297
8	0xbe90cff2	-0.2828365
9	0xbf2fa1c1	-0.6860619
10	0xbeb4d300	-0.3531723
11	0xbf079c80	-0.52973175
12	0xbca306e8	-0.019900754
13	0xbea86065	-0.32886043
14	0x3d7dfb50	0.06200725
15	0xbe652481	-0.22377206
16	0x3c8784b8	0.016542777
17	0xbe8204f0	-0.25394392
18	0xbdfe7fff	-0.12426757
19	0xbea90b10	-0.33016253
20	0xbf027122	-0.50953877
21	0xbeb0cabe	-0.3452968
22	0xbcd29b41	-0.025708796
23	0xbe767740	-0.24068928
24	0x3c4bb50b	0.012433301
25	0xbe2e610c	-0.17029208
26	0x3ec34377	0.3813741
27	0x3e1431ff	0.14472197
28	0xbe467550	-0.19380689
29	0xbd8ab6d2	-0.067731515
30	0xbe64e71e	-0.22353789
31	0xbe6a5a6f	-0.2288606
32	0xbea1fca0	-0.3163805
33	0xbe806c7e	-0.25082773
34	0xbea43677	-0.32072803
35	0xbea7d12f	-0.32776782
36	0x3ce3a107	0.027786745
37	0xbe79f861	-0.24411155
38	0xbe94d62a	-0.29069644
39	0xbe20bb2c	-0.156964
40	0xbebc1766	-0.36736602
41	0xbe3c911d	-0.18414731
42	0xbc2987ac	-0.010347288
43	0xbf3748fe	-0.7159575
44	0xbec23791	-0.3793302
45	0xbe8f7126	-0.28016013
46	0xbead26fd	-0.33818808
47	0xbebf6557	-0.37382004
48	0xbe39603c	-0.18103117
49	0xbe3c4999	-0.1838745
50	0xbe945724	-0.28972733
51	0x3d68a48e	0.056797557
52	0xbed5dc40	-0.417696
53	0xbe8fe137	-0.28101513
54	0x3c0abe64	0.008468244
55	0xbe6a12a2	-0.2285867
56	0xbf2629b0	-0.6490736
57	0xbececa87	-0.4038889
58	0xbe01a2c2	-0.12659743
59	0xbf140950	-0.5782671
60	0xbea43dcd	-0.320784
61	0xbe5a0d92	-0.21294239
62	0xbec603bb	-0.3867472
63	0xbe18c283	-0.1491795

6.running_var f4 [64]
0	0x3dd4acab	0.10384496
1	0x3dea7706	0.11448483
2	0x3d7f0ea1	0.06226981
3	0x3dd087ba	0.10182138
4	0x3e26fabf	0.1630659
5	0x3dea5272	0.114415064
6	0x3dbb6cd8	0.0915162
7	0x3db64748	0.089003146
8	0x3e166005	0.14685066
9	0x3e394e5b	0.18096296
10	0x3e226515	0.15858872
11	0x3e3b490e	0.18289587
12	0x3e10080d	0.14065571
13	0x3dc06eec	0.09396157
14	0x3e5998aa	0.21249643
15	0x3de93ca0	0.113885164
16	0x3da2a2c0	0.07941198
17	0x3e3532ab	0.1769511
18	0x3e3b7d37	0.18309484
19	0x3dff8188	0.12475878
20	0x3e1e2cb7	0.15446745
21	0x3e08ad46	0.13347349
22	0x3ddff9c3	0.1093631
23	0x3e0e3ad3	0.13889627
24	0x3dc3b57a	0.09556098
25	0x3e0250d8	0.12726152
26	0x3e0ffe44	0.14061838
27	0x3debf98a	0.11522205
28	0x3dbe2058	0.09283513
29	0x3ddf5b74	0.10906115
30	0x3e1c6a87	0.15275012
31	0x3e06d695	0.13167794
32	0x3de1187d	0.10990999
33	0x3e05d8c4	0.13070971
34	0x3de65030	0.11245763
35	0x3daef8e7	0.08543568
36	0x3da59e41	0.08086825
37	0x3daf19de	0.08549856
38	0x3e1e89ce	0.15482256
39	0x3dd2d43f	0.10294389
40	0x3e06cbd3	0.1316369
41	0x3dc39d22	0.09551455
42	0x3e15c9d5	0.14627774
43	0x3e8a8fff	0.27062985
44	0x3def1175	0.116732515
45	0x3da0b38a	0.07846744
46	0x3e00798e	0.1254637
47	0x3dbd605c	0.09246895
48	0x3dc7bd49	0.097529
49	0x3e079122	0.13238958
50	0x3dbbbb48	0.091665804
51	0x3d98f3e3	0.07468393
52	0x3dcb16b5	0.099164404
53	0x3deb3bd8	0.11486024
54	0x3dc76af7	0.09737199
55	0x3dc54248	0.09631783
56	0x3e43060f	0.1904528
57	0x3dfe0e59	0.1240508
58	0x3de7b066	0.11312942
59	0x3e3c9d06	0.18419275
60	0x3df9254b	0.12165316
61	0x3ddb1ccb	0.10698851
62	0x3e079500	0.13240433
63	0x3dc0d872	0.09416284

10.weight f4 [64, 64, 3, 3]
0	0xbccb2da1	-0.024802031
1	0xbcc4eedd	-0.02403968
2	0xbd813f60	-0.06310916
3	0x3c31f656	0.010861954
4	0x3cdbd4ba	0.026834834
5	0xbcafbded	-0.021452868
6	0x3d468d44	0.048474565
7	0x3cfcd94f	0.03086534
8	0x3c117cbb	0.008879836
9	0x3be5a8b1	0.007008635
10	0xb9a00d91	-0.00030527686
11	0xbb05cf9b	-0.0020417932
12	0xbcdf6023	-0.027267521
13	0xbd0b0bbe	-0.033946745
14	0xbc806a86	-0.015675794
15	0xbc08bd0b	-0.008345853
16	0xbc4045fc	-0.011735436
17	0xbc68e8c1	-0.014215649
18	0xbc0ca948	-0.008585282
19	0xbca91307	-0.020638956
20	0xbcd103f3	-0.025514578
21	0xbc6567a7	-0.014001763
22	0xbbbb3972	-0.005713635
23	0xbc9fc157	-0.019501371
24	0xbcdfabb8	-0.027303562
25	0x3bfad94e	0.0076552993
26	0xbd13187d	-0.035912026
27	0x3bc7eeda	0.0061014714
28	0xbb511242	-0.0031901752
29	0x3c929b01	0.017896177
30	0xb9e89130	-0.0004435866
31	0x3c52f946	0.012876814
32	0x3d2e7670	0.04259342
33	0x3cc4d551	0.024027498
34	0x3cadbad8	0.021207258
35	0x3cdbd9a5	0.02683718
36	0x3b974621	0.0046165143
37	0x3bbdae2c	0.005788585
38	0xbc628a10	-0.013826862
39	0xbb9380a5	-0.0045014196
40	0x3cc3c109	0.023895757
41	0x3cc6cfb3	0.02426896
42	0x3cc64a82	0.02420545
43	0xbcfe1627	-0.031016422
44	0xbc50fcad	-0.012755555
45	0xbcafc0d7	-0.021454258
46	0xbcb0a567	-0.021563245
47	0xbc852be8	-0.016256288
48	0xbd21f0e9	-0.03953639
49	0xbd36bb10	-0.04461199
50	0xbd18047b	-0.037113648
51	0xbc5d26f7	-0.0134980595
52	0xbc4f7b79	-0.0126637155
53	0xbcd498fa	-0.025951851
54	0x3d5338cd	0.05156784
55	0x3bfbfc36	0.007689978
56	0x3cec0aec	0.028813802
57	0x3d0be547	0.034154203
58	0xbc8ce814	-0.017200507
59	0x3be55516	0.0069986684
60	0x3c864774	0.016391493
61	0x3d1e4de7	0.038648512
62	0x3c247d5c	0.010039654
63	0xbc132235	-0.008980324
64	0xbcbd551a	-0.023111869
65	0xbcce671a	-0.025195647
66	0xbc04a87c	-0.00809681
67	0xbd3f7237	-0.046739783
68	0xbc98607d	-0.018600697
69	0xbc6159e2	-0.01375434
70	0xbc2ca376	-0.010537019
71	0xbcf11458	-0.029428646
72	0xba99108c	-0.0011677905
73	0x3cf7f156	0.030266445
74	0xbc93d3ff	-0.018045424
75	0xbcdac510	-0.026705295
76	0xbc5870c7	-0.013210482
77	0xbbdf5893	-0.006815979
78	0x3c7db29c	0.015484478
79	0xbc41f251	-0.011837558
80	0x3d08ac68	0.033367544
81	0xbd431128	-0.047623783
82	0xbafdc271	-0.0019360316
83	0xbcc859d9	-0.024456905
84	0xbd0e6755	-0.034766514
85	0xbd4fed18	-0.05076322
86	0xbd112564	-0.03543605
87	0xbccbb597	-0.024866862
88	0xbd04362b	-0.03227822
89	0xbc498e45	-0.012301986
90	0x3d6bd96c	0.057580397
91	0x3a5727e6	0.00082075445
92	0x3d5e6cc7	0.054302957
93	0x3d20a58e	0.039220385
94	0x3d317d24	0.043332234
95	0x3d29f35d	0.041491855
96	0x3c84e2e9	0.01622148
97	0x3d2e95ec	0.042623445
98	0x3d9a03e7	0.075202756
99	0x3c6db092	0.01450743
100	0x3cb11fc7	0.021621598
101	0x3cce6274	0.02519343
102	0x3bd97182	0.0066358456
103	0xbc7245d7	-0.014787159
104	0x3c78bfa1	0.015182407
105	0x3b9d5722	0.004801647
106	0x3d2a4626	0.041570805
107	0x3cc65ef1	0.024215193
108	0x3d47cace	0.048777394
109	0x3ce211fd	0.027596468
110	0x3d894b39	0.06703801
111	0x3cb4a1fb	0.022049895
112	0x3d04a6bd	0.032385577
113	0x3cb6b3c5	0.022302518
114	0x3cc8c5e5	0.024508426
115	0x3cc23b62	0.023709957
116	0x3d332d90	0.043744624
117	0xbafd305e	-0.0019316783
118	0xbafa3c8c	-0.0019091531
119	0xbcdee294	-0.02720765
120	0x3bfd185e	0.007723852
121	0xbc5ce138	-0.013481431
122	0xbc986639	-0.018603431
123	0xbb549f50	-0.003244359
124	0xbc839aca	-0.01606502
125	0xbc02c533	-0.007981586
126	0x3c1b8bf5	0.009493818
127	0x3c43c267	0.011948205
128	0xbb42468d	-0.0029644102
129	0xbbabf976	-0.005248244
130	0xbb172892	-0.0023064953
131	0xbae97a52	-0.0017812944
132	0x3cf5c5ab	0.030001482
133	0xbc6e48fc	-0.014543768
134	0x3b099050	0.0020990558
135	0x3d17af39	0.03703234
136	0x3d4b1667	0.04958191
137	0x3d8eac8f	0.06966507
138	0x3d0a7219	0.03380022
139	0x3d30ce7c	0.04316567
140	0x3cfc322f	0.030785648
141	0x3c2fbd2d	0.010726255
142	0x3cc8d9c3	0.0245179
143	0x3d2cb428	0.042163998
144	0xbd299378	-0.041400403
145	0xbd4204b5	-0.04736777
146	0xbd153fd2	-0.036437817
147	0xbcde904b	-0.027168414
148	0xbc5b230e	-0.013375057
149	0xbbb49b70	-0.0055116937
150	0xbc645386	-0.013935929
151	0x397a3837	0.000238628
152	0xbc87cbd2	-0.016576681
153	0xbc31895c	-0.010835972
154	0xbc12317c	-0.008922931
155	0xbbf2cc62	-0.0074096182
156	0xbaf68331	-0.0018807409
157	0xbcefad52	-0.02925745
158	0xbc2b4386	-0.010453111
159	0xbd1e72e8	-0.038683802
160	0xbd4209d2	-0.047372647
161	0xbd4c8fa9	-0.049941693
162	0x3c0490a5	0.008091127
163	0xbbcb8926	-0.0062114177
164	0x3a9f4d3a	0.0012153753
165	0x3c06008d	0.008178842
166	0xbba5f149	-0.005064164
167	0x3be07198	0.006849479
168	0x3c95e8cf	0.018299488
169	0xbb5720c7	-0.0032825933
170	0x3c753fdc	0.014968839
171	0xbd14273a	-0.036170222
172	0xbd68d921	-0.056847695
173	0xbce9a4c0	-0.028520942
174	0xbd58269c	-0.052771196
175	0xbc9836ea	-0.018580873
176	0xbd18856b	-0.037236612
177	0xbcea3560	-0.028589904
178	0xbbb6bb35	-0.005576516
179	0xbaa19ce4	-0.0012330082
180	0x3ca644bf	0.020296453
181	0xbbc74314	-0.0060809944
182	0x3c6cbaef	0.014448865
183	0xbc4a2f13	-0.012340325
184	0xbd10ed7b	-0.03538273
185	0xbcda87db	-0.026676109
186	0xbb448fcf	-0.0029992943
187	0xba5bdfb1	-0.00083875196
188	0xbbab4f1e	-0.0052279374
189	0x3bd5cecf	0.0065248976
190	0x3c8878b9	0.016659128
191	0x3ce0f022	0.027458254
192	0x3cfe3026	0.031028818
193	0x3c9bfe5e	0.01904219
194	0x3c70bb36	0.014693072
195	0xbb0cf3ac	-0.0021507544
196	0x3ce1fdaf	0.027586786
197	0x3c02b26e	0.007977111
198	0xbb3d351a	-0.0028870762
199	0xbc9817ac	-0.018565975
200	0x3b7e21d6	0.0038777492
201	0xbbd0c100	-0.0063706636
202	0x3c888884	0.016666658
203	0xbbca362a	-0.0061710076
204	0x3d2b0a46	0.041757844
205	0xbc03a793	-0.008035558
206	0x3bbc447a	0.0057454677
207	0xbcf64268	-0.030060962
208	0xbcaf1887	-0.021374
209	0xbcfefa0f	-0.031125097
210	0xbd211913	-0.039330553
211	0xbca75334	-0.020425417
212	0xba21ed0d	-0.0006176986
213	0xbc78e533	-0.015191364
214	0xbc1ae984	-0.0094550885
215	0x3c01fd0d	0.007933867
216	0xbcd9cc40	-0.026586652
217	0x3c6d051f	0.014466553
218	0xbc520230	-0.012817904
219	0xbc9fc225	-0.019501755
220	0xbb070459	-0.0020601957
221	0xbc4b612e	-0.012413306
222	0xbcfc39f4	-0.030789353
223	0xbcbca3da	-0.02302735
224	0xbcd4fb5d	-0.025998766
225	0x3c668e9f	0.014072089
226	0x3c705b2d	0.0146701755
227	0x3ce1297f	0.027485607
228	0x3b66086e	0.003510024
229	0x3d091676	0.033468686
230	0x3c12dfe2	0.008964511
231	0x3ca5f8dd	0.020260269
232	0x3c50632b	0.012718956
233	0x3b3c2971	0.0028711224
234	0xbd233bf3	-0.039852094
235	0xbcfe88e8	-0.031071141
236	0xbccb8778	-0.02484487
237	0xbcdd80e5	-0.027039
238	0xbc16d446	-0.009205883
239	0xbcc85548	-0.024454728
240	0xbc13d390	-0.009022608
241	0xbcb07eaf	-0.021544782
242	0xbcb798ca	-0.022411723
243	0x3c0d974c	0.008642029
244	0xbcbac521	-0.022799077
245	0xbabf6dd3	-0.0014604874
246	0x3c22fc5e	0.009947864
247	0x3b0df83d	0.0021662854
248	0xbcd0611c	-0.02543693
249	0x3d2aff12	0.04174716
250	0x3ccdbddc	0.025114946
251	0x3c91e4a4	0.01780922
252	0xbcd3bfb7	-0.025848253
253	0xbc09b0a1	-0.008403928
254	0xbca53a79	-0.020169483
255	0xbc4af191	-0.0123866955

10.bias f4 [64]
0	0x3d219db6	0.039457045
1	0xbd0814fc	-0.033223137
2	0xbab22922	-0.0013592581
3	0x3c89780f	0.016780881
4	0x3bb82b3a	0.0056203874
5	0x3c69fbe8	0.014281251
6	0x3c6a39c1	0.014295996
7	0xbd157b97	-0.036494818
8	0x3d10117d	0.035172928
9	0x3cdb8212	0.02679542
10	0xbce01392	-0.027353082
11	0x3ce5f408	0.028070465
12	0x3c63c5f5	0.013902177
13	0xbc7007da	-0.014650309
14	0x3b8ee5a5	0.004360872
15	0xbb914f87	-0.004434529
16	0x3ab0671e	0.0013458466
17	0x3c4a05ee	0.012330515
18	0x3cef6692	0.029223714
19	0x3d1042c2	0.035219915
20	0x394a8a93	0.00019315844
21	0x3c2c6c25	0.010523831
22	0x3cb5e20a	0.02220251
23	0x3cb6eca6	0.02232964
24	0xbcd83b73	-0.026395535
25	0x3b8b50c0	0.0042515695
26	0x3d225516	0.039631926
27	0x3d109494	0.035297945
28	0x3ca6ad58	0.020346329
29	0x3bed9c6b	0.0072513125
30	0x3cb62a4c	0.022236966
31	0x3d20e2f8	0.039278954
32	0xbba3ce17	-0.004998933
33	0x3d0a5c6a	0.03377954
34	0x3d0cc59d	0.034368146
35	0xbc7f058e	-0.015565289
36	0x3b18bd1f	0.0023306084
37	0x3c854b42	0.016271237
38	0xbc5ea35e	-0.013588754
39	0x3cfbc967	0.030735685
40	0xbd086955	-0.033303577
41	0xbcd29a7a	-0.025708426
42	0x3d295579	0.04134128
43	0xbcecd3ca	-0.028909583
44	0x3d0aa4f5	0.03384872
45	0x3d14680b	0.036232036
46	0x3c9d7e67	0.019225312
47	0x3c222fcc	0.009899091
48	0xbbbac3d3	-0.0056996136
49	0x3992124e	0.00027860928
50	0x3aa378a8	0.0012471871
51	0xbc4cb3a5	-0.0124940025
52	0x3b57fc22	0.003295668
53	0x3c60092e	0.013674064
54	0x3c99715a	0.018730808
55	0x3d07a9ea	0.033121027
56	0x3c9d3cd3	0.019194042
57	0x3d000d5a	0.031262733
58	0x3c2294aa	0.00992314
59	0x3c2ca62b	0.010537664
60	0x3cccc0cd	0.024994278
61	0x3be2eda5	0.006925302
62	0xbcd2e954	-0.025746025
63	0xbcbe678a	-0.02324273

11.weight f4 [64]
0	0x3f94f0b1	1.1635953
1	0x3f97bd9e	1.1854742
2	0x3f95c15a	1.1699631
3	0x3f9a60ce	1.2060792
4	0x3f9a5259	1.205638
5	0x3f9c00cb	1.2187742
6	0x3f957c5b	1.1678575
7	0x3f9ad9f7	1.2097768
8	0x3f961102	1.172394
9	0x3f96b940	1.1775284
10	0x3f9a754a	1.2067044
11	0x3f920fad	1.1411034
12	0x3f9872f4	1.1910081
13	0x3f95d0c3	1.1704334
14	0x3f97b38c	1.1851668
15	0x3f976625	1.1828047
16	0x3f98474c	1.1896758
17	0x3f9dc3e4	1.2325406
18	0x3f9a00eb	1.203153
19	0x3f968499	1.1759216
20	0x3fa049cd	1.2522522
21	0x3f970214	1.1797509
22	0x3f98b97a	1.1931603
23	0x3f9c6222	1.2217448
24	0x3f9b6ea0	1.2143135
25	0x3f9a3cde	1.2049825
26	0x3f96b69b	1.1774477
27	0x3f98fec6	1.1952751
28	0x3f98a96f	1.1926707
29	0x3f9795a3	1.184254
30	0x3f997757	1.1989545
31	0x3f974ed2	1.1820929
32	0x3f967fd4	1.175776
33	0x3f9c0a89	1.2190715
34	0x3f99e23b	1.2022165
35	0x3f974b16	1.181979
36	0x3f99af77	1.2006673
37	0x3f9735d7	1.1813306
38	0x3f94f87b	1.163833
39	0x3f96c044	1.1777425
40	0x3f95893c	1.1682506
41	0x3f92013a	1.1406624
42	0x3f9b93ef	1.2154521
43	0x3f9674e3	1.1754421
44	0x3f98944e	1.1920259
45	0x3f9aee7b	1.2104028
46	0x3f98bdba	1.19329
47	0x3f9800a4	1.1875196
48	0x3f975cf1	1.1825238
49	0x3f958f1e	1.1684301
50	0x3f9c2101	1.2197572
51	0x3f9f2e38	1.243598
52	0x3f9951c0	1.1978073
53	0x3f979f71	1.1845533
54	0x3f963f97	1.1738156
55	0x3f98b6d3	1.1930794
56	0x3f9c5b34	1.2215333
57	0x3f988606	1.1915901
58	0x3f976ad6	1.1829479
59	0x3f9c162a	1.2194264
60	0x3f955751	1.1667272
61	0x3f986566	1.1905944
62	0x3f9b8292	1.2149222
63	0x3f9a041e	1.2032506

11.bias f4 [64]
0	0x3da50693	0.080578946
1	0x3e066fef	0.13128637
2	0x3dd5564c	0.104168504
3	0x3e098c3f	0.13432406
4	0x3e066741	0.13125326
5	0x3dc6662f	0.09687459
6	0x3de34c2f	0.11098515
7	0x3dc5fd8a	0.09667499
8	0x3d8b990f	0.06816303
9	0x3d9144cc	0.070932
10	0x3e075d70	0.13219237
11	0x3dc0915d	0.09402726
12	0x3d81220b	0.06305321
13	0x3d987409	0.07444007
14	0x3d2d9856	0.042381607
15	0x3df01128	0.11722022
16	0x3dad73da	0.084693626
17	0x3d854e8f	0.065091245
18	0x3ddd89ae	0.10817276
19	0x3df1409f	0.117799036
20	0x3e1ea1f1	0.15491463
21	0x3de87b48	0.11351639
22	0x3deb8db2	0.115016356
23	0x3daaf2df	0.08347105
24	0x3e1ee065	0.15515287
25	0x3de258f0	0.1105212
26	0x3dcc7f7f	0.099852555
27	0x3de139a8	0.10997325
28	0x3e0128a5	0.12613161
29	0x3dba3298	0.09091681
30	0x3e04971a	0.12948266
31	0x3df3ef08	0.11910826
32	0x3ddb700f	0.10714733
33	0x3df3ec7b	0.119103394
34	0x3df3639a	0.11884232
35	0x3da3c1e9	0.0799597
36	0x3de8f73b	0.113752805
37	0x3d951bbe	0.07280682
38	0x3db70f55	0.08938471
39	0x3dfccf0c	0.123441786
40	0x3d9a6a73	0.07539835
41	0x3d460ef6	0.04835411
42	0x3de6bfa4	0.11267021
43	0x3d9ca341	0.07648326
44	0x3dc624db	0.096749984
45	0x3e07f6cb	0.13277738
46	0x3ddf34e4	0.1089876
47	0x3dccb945	0.09996275
48	0x3dba289a	0.090897754
49	0x3dab81da	0.083743766
50	0x3e00b557	0.12569176
51	0x3e15ba44	0.14621836
52	0x3de95499	0.11393089
53	0x3dfd44eb	0.12366661
54	0x3de7ed16	0.113245174
55	0x3dcb876d	0.0993794
56	0x3e0983a6	0.13429126
57	0x3dea9345	0.11453871
58	0x3dc25b37	0.09490054
59	0x3e07df5f	0.13268803
60	0x3de742df	0.112920515
61	0x3e062dc2	0.13103393
62	0x3dea4fbb	0.11440989
63	0x3dfe76a1	0.124249704

11.running_mean f4 [64]
0	0xbe49fa8c	-0.19724482
1	0xbe2a8334	-0.16651613
2	0xbefd10cf	-0.49426886
3	0x3da71634	0.08158532
4	0xbe5bb5cf	-0.21456073
5	0x3dfb282e	0.12263523
6	0xbd16884e	-0.036751084
7	0xbe354c14	-0.17704803
8	0xbd9c7a38	-0.07640499
9	0xbe6a05ff	-0.2285385
10	0xbf45be85	-0.77243835
11	0x3e9ab4c4	0.30216038
12	0xbe34d161	-0.17657997
13	0xbe6abc30	-0.2292335
14	0xbcc1fd21	-0.023680272
15	0x3eae2266	0.3401062
16	0xbd9eadc3	-0.07747986
17	0xbe04649c	-0.12929004
18	0xbe1ee4be	-0.15516946
19	0xbe558809	-0.20852675
20	0x3e9d1aba	0.30684453
21	0xbc4afa84	-0.012388829
22	0xbecb2762	-0.39678484
23	0x3e001206	0.12506875
24	0x3f14f01f	0.58178896
25	0xbec3201c	-0.38110435
26	0xbf027d49	-0.5097242
27	0x3d31b218	0.043382734
28	0xbeb264f5	-0.3484265
29	0xbd816e50	-0.063198686
30	0xbc8d5bc5	-0.017255673
31	0xbe9cc748	-0.3062079
32	0xbf2691f6	-0.6506647
33	0xbe5f8fd9	-0.21832217
34	0x3d45b884	0.04827167
35	0xbdd1543d	-0.10221145
36	0xbebac4b2	-0.36478192
37	0xbd829676	-0.063763544
38	0xbe6aaba3	-0.22917037
39	0xbf2da585	-0.6783069
40	0xbbe45e7f	-0.0069692726
41	0x3d209346	0.03920295
42	0x3db1838d	0.086676694
43	0xbe571d42	-0.21007255
44	0xbec3b24d	-0.3822197
45	0xbf283082	-0.6569902
46	0xbeaa8a13	-0.33308467
47	0x3ec70fd1	0.38879254
48	0xbe719f65	-0.2359596
49	0x3d5eb3cf	0.054370698
50	0xbe006402	-0.1253815
51	0xbd8b0a1d	-0.06789038
52	0xbe7f4acf	-0.24930881
53	0x3dec5d7d	0.11541269
54	0xbeea1497	-0.45718834
55	0x3e3ec307	0.18629085
56	0x3d4a05d6	0.04932197
57	0xbdfc0a44	-0.123066455
58	0xbe85d5c3	-0.2613965
59	0xbe754cbe	-0.23955056
60	0x3cff4009	0.031158464
61	0x3e6c577b	0.23080246
62	0xbf19c208	-0.60061693
63	0xbe63bd16	-0.222401

11.running_var f4 [64]
0	0x3d7f2c98	0.062298387
1	0x3d7620bb	0.060089808
2	0x3da7a26e	0.08185278
3	0x3d811143	0.063021205
4	0x3d8c4601	0.0684929
5	0x3da7a459	0.08185644
6	0x3d71ff57	0.0590814
7	0x3d860119	0.06543178
8	0x3d8ac5c1	0.06776
9	0x3dad54de	0.08463453
10	0x3dac3192	0.08407892
11	0x3da22d56	0.079188034
12	0x3d9fc7b1	0.0780176
13	0x3da3a418	0.07990283
14	0x3d81464c	0.06312236
15	0x3d892bdc	0.06697819
16	0x3d729704	0.05922605
17	0x3d92deaa	0.07171376
18	0x3d957d5a	0.072992995
19	0x3dd990d0	0.10623324
20	0x3d4b0102	0.049561508
21	0x3d8b2bce	0.067954645
22	0x3daaa88a	0.083329275
23	0x3d67da80	0.056604862
24	0x3d9091cf	0.07059061
25	0x3dc3d768	0.0956257
26	0x3d959605	0.073040046
27	0x3d732048	0.059356958
28	0x3d8b7229	0.06808884
29	0x3d65a7f8	0.05606839
30	0x3d72050b	0.05908684
31	0x3d89d740	0.06730509
32	0x3de01129	0.10940773
33	0x3da69346	0.08133559
34	0x3d82c304	0.063848525
35	0x3d93eaa2	0.07222487
36	0x3d7aa489	0.06119207
37	0x3db6a599	0.08918304
38	0x3d87aad5	0.066243805
39	0x3d925aa9	0.07146198
40	0x3db7d974	0.08977023
41	0x3d8185ec	0.06324372
42	0x3d7c8c0c	0.061656997
43	0x3d89f1e2	0.067355886
44	0x3d813090	0.06308091
45	0x3dc6f7ac	0.097152084
46	0x3d841f61	0.064512976
47	0x3d94660e	0.07246028
48	0x3d97164e	0.07377301
49	0x3da27c98	0.079339206
50	0x3dab6322	0.083685175
51	0x3d5fb268	0.0546135
52	0x3d8b7fea	0.06811507
53	0x3d8e314d	0.06942997
54	0x3d772b03	0.060343754
55	0x3d49848b	0.04919867
56	0x3d884667	0.06654053
57	0x3d87f74e	0.066389665
58	0x3da47de2	0.08031823
59	0x3d864a79	0.06557173
60	0x3d9bab28	0.07601005
61	0x3d855b04	0.065115005
62	0x3d9fd333	0.07803955
63	0x3d90c737	0.07069247

16.weight f4 [32, 64]
0	0x3dee8ccc	0.116479486
1	0xbd4cc59d	-0.049993146
2	0x3da29476	0.07938473
3	0x3e6fd629	0.2342154
4	0xbdfdde92	-0.123959675
5	0x3d1ed907	0.038781192
6	0x3e14ce79	0.14531888
7	0x3e3a7e8f	0.18212341
8	0x3ce0b4a8	0.027429894
9	0x3e3140a3	0.17309813
10	0xbd775a70	-0.060388982
11	0xbd2dde50	-0.04244834
12	0x3e10c840	0.1413889
13	0x3e59b4e9	0.21260418
14	0xbd299fbf	-0.04141211
15	0xbc7ffcd8	-0.0156242475
16	0x3d8f3cf4	0.06994048
17	0xbdd6d371	-0.10489548
18	0x3e12861a	0.14308968
19	0xbda8a464	-0.0823448
20	0x3e2f1984	0.17099577
21	0x3d8d0305	0.068853416
22	0xbe2c2771	-0.1681192
23	0x3d998dcd	0.074977495
24	0x3d51f7ec	0.051261827
25	0xbdb570bd	-0.08859394
26	0xbc6d53f7	-0.014485351
27	0xbe0e3afb	-0.13889687
28	0xbdba9ad8	-0.09111565
29	0xbd95ba5f	-0.07310938
30	0x3e5583aa	0.20851007
31	0xbe7bf605	-0.24605568
32	0x3cfb72e2	0.030694429
33	0x3dc862c6	0.097844645
34	0x3e416391	0.18885638
35	0x3d51f9a3	0.051263463
36	0xbdaf1d1a	-0.085504726
37	0x3e2b149e	0.16707084
38	0xbbbc9d91	-0.005756088
39	0xbe0a2512	-0.13490704
40	0x3d7ecade	0.062205188
41	0xbda0abe4	-0.078452855
42	0x3e427dbd	0.18993278
43	0x3db8c254	0.0902144
44	0xbd92a094	-0.07159534
45	0x3cd05670	0.025431842
46	0xbdd18b2a	-0.102316216
47	0xbd783492	-0.06059701
48	0x3e0e3e6c	0.13891
49	0x3dfc1f4e	0.123106584
50	0xbd13daae	-0.03609722
51	0x3de54ef7	0.11196702
52	0xbd11dd3f	-0.035611387
53	0xbd8c3f15	-0.068479694
54	0xbe79b445	-0.24385174
55	0x3e85a36c	0.26101243
56	0xbdc54ef2	-0.09634198
57	0xbe0bea5d	-0.13663621
58	0xbddfbe31	-0.10924948
59	0x3e2c1df8	0.16808307
60	0x3df2cf67	0.11855965
61	0xbd799372	-0.06093163
62	0x3d1b587b	0.03792618
63	0xbd8f9b81	-0.07012082
64	0xbb82025a	-0.0039675655
65	0x3d91566e	0.07096563
66	0xbd5f302b	-0.054489296
67	0x3e6af934	0.22946626
68	0xbcdfa85c	-0.02730196
69	0x3cdd5ca4	0.027021714
70	0xbe09af1d	-0.13445707
71	0x3d8ca10f	0.06866657
72	0xbccb902e	-0.024849024
73	0x3dda3e4c	0.106564134
74	0xbe3332f4	-0.17499906
75	0xbe09b2cc	-0.13447112
76	0x3bf59acf	0.0074952613
77	0x3e49be18	0.19701421
78	0xbdff2f87	-0.12460237
79	0xbe17669b	-0.14785235
80	0x3e545094	0.20733863
81	0xbe7316ef	-0.23739217
82	0xbdb8a23e	-0.0901532
83	0x3e009e52	0.12560394
84	0xbd5db804	-0.05413057
85	0x3e76828f	0.24073242
86	0x3dad76e9	0.08469946
87	0xbd770a2b	-0.06031243
88	0x3dcbf93b	0.09959646
89	0xbd8cf296	-0.06882207
90	0xbd95b95e	-0.073107466
91	0xbdc3017a	-0.09521766
92	0xbdb8a68e	-0.09016143
93	0xbd4c2493	-0.049839567
94	0x3d693a9c	0.05694066
95	0xbe15f200	-0.14643097
96	0x3c9e8d50	0.019354492
97	0x3b9ab1b3	0.0047208904
98	0x3e57f7d4	0.21090633
99	0x3e1434e8	0.14473307
100	0xbc307317	-0.010769627
101	0x3da227a2	0.079177156
102	0xbe109578	-0.14119518
103	0xbcc95a57	-0.02457921
104	0x3d1f522f	0.038896736
105	0xba94ddad	-0.0011357568
106	0x3e351029	0.17681946
107	0xbdc9570d	-0.09831057
108	0x3d710424	0.05884184
109	0xbdde839c	-0.10864946
110	0xbd2f297b	-0.04276417
111	0x3e6b89b9	0.23001756
112	0x3d1086d8	0.035284847
113	0x3de070bc	0.109590024
114	0x3d899593	0.06717982
115	0x3e8b2a8f	0.27180907
116	0xbe01d7d0	-0.12679982
117	0x3e05a332	0.13050535
118	0x3d894cfd	0.067041375
119	0x3e4c08b5	0.19925196
120	0x3cba8bd2	0.02277175
121	0xbe4c4160	-0.19946814
122	0x3db50ada	0.088399604
123	0xbd0b9566	-0.034078024
124	0xbdddfb4c	-0.10838947
125	0x3de05530	0.10953748
126	0x3d950972	0.07277192
127	0x3e36d22b	0.1785361
128	0x3e73baa6	0.2380167
129	0x3e51012b	0.20410602
130	0xbb4d500d	-0.0031328232
131	0x3dec9e50	0.11553633
132	0xbd922c80	-0.07137394
133	0x3d824275	0.06360332
134	0x3d3eabb0	0.046550453
135	0xbe1c97b6	-0.15292248
136	0xbdcfd003	-0.10147097
137	0xbe08022e	-0.13282081
138	0x3e320bf7	0.17387377
139	0xbe065bb5	-0.13120921
140	0xbce56bd7	-0.028005524
141	0xbe5e5b26	-0.21714458
142	0xbdc1d946	-0.0946527
143	0xbd678e0d	-0.056531955
144	0x3d78683d	0.060646284
145	0xbe12e42c	-0.14344853
146	0x3d4f1ae8	0.05056277
147	0x3d8eb7e1	0.06968666
148	0xbd99ea8a	-0.07515438
149	0xbc771e8d	-0.0150829675
150	0x3e3cc6a8	0.18435156
151	0xbe203e54	-0.15648776
152	0xbe0490cb	-0.12945859
153	0x3dea285b	0.114334784
154	0xbca0e2a7	-0.019639326
155	0xbba49fde	-0.0050239405
156	0xbd960a51	-0.073261864
157	0xbd9851a5	-0.074374475
158	0xbda9e8cd	-0.08296356
159	0x3e07f0eb	0.13275497
160	0x3e5fb3c4	0.21845919
161	0xbe16148f	-0.1465628
162	0x3df12516	0.11774652
163	0xbe2593b5	-0.16169627
164	0x3e077434	0.13227922
165	0xbe21dcdd	-0.15806909
166	0x3e4b1614	0.19832641
167	0x3aedbfd6	0.0018138837
168	0x3de34b8c	0.11098394
169	0x3d07991e	0.03310501
170	0xbde0cc3e	-0.10976456
171	0xbc148d26	-0.009066856
172	0x3e78a29b	0.24280779
173	0x3e6c3b79	0.23069562
174	0x3c6059e4	0.013693307
175	0xbe4b0419	-0.19825782
176	0xbdb35b8e	-0.08757697
177	0xbe40b8bb	-0.18820469
178	0x3e32e167	0.17468797
179	0xbd8b4241	-0.06799746
180	0x3df44362	0.11926915
181	0xbd2461a2	-0.040132172
182	0x3e214ce3	0.15751986
183	0xbdcf375f	-0.10117983
184	0x3deb4fd4	0.114898354
185	0x3df3f150	0.11911261
186	0x3e97ba8b	0.29634508
187	0xbd7cd3cc	-0.061725423
188	0xbdaa5195	-0.08316342
189	0x3d2c6c5a	0.04209552
190	0x3e2d90d5	0.1694978
191	0xbd4d905b	-0.050186496
192	0x3ca48307	0.02008201
193	0xb9d1f3b6	-0.00040045165
194	0x3bd74e3a	0.0065706046
195	0x3e23bc1f	0.15989731
196	0xbe790533	-0.2431839
197	0xbd144c47	-0.036205556
198	0xbca8779c	-0.020564847
199	0x3d6570b3	0.05601568
200	0x3e67fe75	0.22655661
201	0x3d799721	0.060935143
202	0x3dc66747	0.09687667
203	0xbdd5759e	-0.10422824
204	0x3d960d4b	0.07326754
205	0x3d2892ac	0.041155502
206	0x3dd7ccb5	0.10537092
207	0xbd8fcfa6	-0.07022028
208	0x3e39a8bf	0.18130778
209	0x3d884081	0.06652928
210	0x3e25774b	0.16158788
211	0x3d1ca187	0.038239982
212	0xbdb446f3	-0.08802595
213	0xbe454afd	-0.19266887
214	0xbc34db30	-0.0110385865
215	0x3e1b2b46	0.15153226
216	0xbe261106	-0.16217431
217	0xbe2fea16	-0.1717914
218	0xbe142986	-0.14468965
219	0xbe10fa57	-0.14157997
220	0x3d51dceb	0.051236074
221	0xbdf52c7d	-0.11971376
222	0x3dc8dc46	0.09807639
223	0xbdf4a04a	-0.11944635
224	0xbe02cead	-0.12774153
225	0x3d18a514	0.037266806
226	0x3e336bd0	0.17521596
227	0x3e3a54d1	0.18196417
228	0xbdd4a450	-0.103829026
229	0x3d488dc2	0.048963316
230	0x3e5bf490	0.21480012
231	0x3c8bc3b0	0.017061085
232	0xbd5fc20d	-0.05462842
233	0xbdf3892b	-0.11891397
234	0x3d8231e3	0.063571714
235	0x3e78e65d	0.24306627
236	0x3e1aecba	0.15129367
237	0x3dfae2e5	0.12250308
238	0xbe2bf6ea	-0.16793409
239	0xbddf4627	-0.109020524
240	0x3d227cbd	0.03966974
241	0x3c6b4053	0.014358598
242	0x3db56885	0.08857826
243	0xbd849e7d	-0.06475542
244	0x3e13702e	0.14398262
245	0xbc8e2383	-0.017350918
246	0xbd84f215	-0.06491486
247	0x3d9185d3	0.07105603
248	0x3e006ef4	0.12542325
249	0x3df1f455	0.11814181
250	0x3de2f538	0.11081928
251	0x3c574a20	0.013140231
252	0xbe09900e	-0.13433859
253	0xba8934fa	-0.0010468059
254	0x3e22f61f	0.159142
255	0xbdb6c76b	-0.08924755

16.bias f4 [32]
0	0x3e295c4b	0.16539113
1	0xbbb8c06b	-0.0056381724
2	0x3e09d1be	0.13458917
3	0x3d8f818d	0.07007132
4	0xbd79e129	-0.061005745
5	0xbd5ed6e4	-0.054404154
6	0x3dcdebd2	0.10054745
7	0x3d51f5d3	0.051259827
8	0xbd0c2de3	-0.03422345
9	0xbc6be5b9	-0.014398032
10	0x3cd4e520	0.025988162
11	0x3c965572	0.01835129
12	0x3e0555e7	0.1302105
13	0x3d66ef80	0.05638075
14	0x3e02641a	0.12733498
15	0x3b239d33	0.0024965524
16	0x3e1a5cff	0.15074538
17	0x3e14215c	0.1446585
18	0x3e02bed0	0.12768102
19	0xbca714b2	-0.02039561
20	0x3d31948e	0.043354563
21	0x3e0a898d	0.13529034
22	0x3d101107	0.03517249
23	0x3d6103c0	0.054935217
24	0xbb2d3f1c	-0.0026435321
25	0x3dc14413	0.09436812
26	0xbc5326ac	-0.012887638
27	0xbccaa06f	-0.024734704
28	0x3b6f12d6	0.0036479733
29	0xbd59fddb	-0.05322061
30	0x3d1fab68	0.038981825
31	0x3e279747	0.16366301
