03_AML2425_Unlearning/Practice/checkpoint/gold_model.pth (torch, 245282 bytes, 22 tensors)

0.weight f4 [32, 3, 3, 3]
0	0x3beeba3b	0.007285384
1	0x3de98b41	0.11403514
2	0xbe202c46	-0.15641889
3	0xbe018508	-0.12648404
4	0xbd8b8a71	-0.06813515
5	0x3d16e109	0.036835704
6	0x3bc8f6d0	0.006132938
7	0x3e143f6c	0.14477319
8	0xbd13abff	-0.0360527
9	0x3d4fcb9d	0.05073129
10	0xbd5b605f	-0.053558704
11	0xbd221b4e	-0.03957682
12	0xbe30a078	-0.17248714
13	0xbdfa0eba	-0.1220984
14	0xbdbe7e30	-0.09301412
15	0x3c35b445	0.011090343
16	0x3d856cac	0.06514868
17	0x3dc5bcba	0.09655137
18	0xbe0b1610	-0.13582635
19	0xbd9b1d6e	-0.07573973
20	0x3da686db	0.081311904
21	0x3e3413a3	0.17585616
22	0xbc84abcf	-0.016195206
23	0x3e22a616	0.1588367
24	0xbc9745b3	-0.018465852
25	0x3d1515d4	0.03639777
26	0x3e431859	0.19052257
27	0xbe20cbc7	-0.15702735
28	0xbde029e0	-0.10945487
29	0xbd273b5d	-0.040828098
30	0xbd82d3cd	-0.06388054
31	0x3e31fa3c	0.17380613
32	0xbdf233f6	-0.11826317
33	0xbd97ca55	-0.07411639
34	0xbdf0cd3b	-0.117578946
35	0xbe26302e	-0.16229317
36	0xbdaa5b25	-0.08318166
37	0x3e3f0be2	0.18656877
38	0x3dd0da3b	0.10197874
39	0x3df1911c	0.117952555
40	0x3d04bbfa	0.03240583
41	0xbda20a0b	-0.07912072
42	0x3d7a1718	0.06105718
43	0xbe19368d	-0.14962216
44	0xbde1a671	-0.11018074
45	0xbd9da287	-0.07697015
46	0x3e0d8ad6	0.13822493
47	0x3dfce2e1	0.12347961
48	0xbd7fc05a	-0.0624393
49	0x3c7b2013	0.015327471
50	0x3e1067f9	0.14102162
51	0x3e60b3b9	0.21943559
52	0x3dd90faf	0.105986945
53	0x3d56676f	0.052344736
54	0x3de57006	0.112030074
55	0xbdffce6c	-0.12490544
56	0x3d18bafe	0.037287705
57	0xbe2cc156	-0.16870627
58	0xbe10019b	-0.14063112
59	0xbdbbfc76	-0.091790125
60	0x3da2bf8b	0.0794669
61	0x3da896ad	0.08231864
62	0xbdc9403c	-0.09826705
63	0x3d36eae5	0.044657607
64	0x3dc98490	0.098397374
65	0xbca1dbec	-0.019758187
66	0xbc71c70b	-0.014756928
67	0x3d120e35	0.03565808
68	0x3dfd50e9	0.12368948
69	0x3e28e4be	0.16493508
70	0xbe1feb3c	-0.15617079
71	0xbd8de0c2	-0.06927635
72	0x3db4480d	0.08802805
73	0x3e31e6ca	0.17373195
74	0x3e3c6239	0.18396844
75	0x3e281429	0.1641394
76	0x3d340a26	0.04395499
77	0xbe1f6354	-0.15565234
78	0x3b20beb6	0.0024527735
79	0xbdfc196e	-0.12309538
80	0xbe3543a1	-0.1770158
81	0x3e2709f8	0.16312397
82	0x3e158bee	0.1460416
83	0xbe49fe94	-0.1972602
84	0x3cd8a530	0.026445955
85	0xbcf52da7	-0.029928995
86	0xbce4c7b3	-0.027927255
87	0xbdc0de54	-0.09417406
88	0x3da53cdf	0.08068251
89	0xbdd77b9e	-0.10521625
90	0x3daf1454	0.08548799
91	0x3dedea76	0.116169855
92	0x3e19c4dd	0.15016504
93	0x3dad0cb5	0.08449689
94	0xbe2ed754	-0.17074329
95	0xbdd85d3c	-0.10564658
96	0x3de930d7	0.113862686
97	0x3d857480	0.06516361
98	0xbe00ca68	-0.12577212
99	0xbdd556a8	-0.10416919
100	0x3e48fa8d	0.19626828
101	0x3e1dfe95	0.15429147
102	0xbdba360d	-0.090923406
103	0xbd33c26b	-0.043886583
104	0xbe265829	-0.16244568
105	0xbbedaf40	-0.0072535574
106	0xbe0dd3ab	-0.13850276
107	0xbe005d91	-0.12535693
108	0xbcb2c205	-0.021821031
109	0x3c52a534	0.01285677
110	0xbdaa472e	-0.08314358
111	0x3de5a8e7	0.11213856
112	0xbe06d9d9	-0.1316904
113	0x3e3701f5	0.1787184
114	0x3e09c696	0.13454661
115	0xbe2e4b9f	-0.17021035
116	0xbd0f4e98	-0.034987062
117	0x3cb59ebe	0.02217042
118	0x3d0f4be3	0.03498448
119	0x3d7d5be9	0.06185523
120	0x3dc47f62	0.09594609
121	0x3c89c28e	0.016816404
122	0xbd949a00	-0.07255936
123	0x3de8aaef	0.11360728
124	0xbe34135b	-0.17585509
125	0xbdb25624	-0.08707836
126	0xbc2dc84f	-0.010606839
127	0xbd7e5387	-0.062091377
128	0xbcfcfa1f	-0.030880986
129	0xbde28156	-0.11059825
130	0xbc8597ca	-0.01630773
131	0x3dab3416	0.08359544
132	0xbd91ee78	-0.071255624
133	0x3cbb5670	0.022868365
134	0x3e40507e	0.18780705
135	0xbc7646b3	-0.015031504
136	0x3abbede7	0.0014337868
137	0xbcba932a	-0.022775251
138	0x3d2af04b	0.041733067
139	0x3df40acd	0.119161226
140	0x3e354ea0	0.17705774
141	0x3e0367c0	0.12832546
142	0x3e3a6f79	0.18206586
143	0xbc923d55	-0.017851511
144	0xbe2014ec	-0.15632981
145	0xbdb4f814	-0.0883638
146	0x3e071f55	0.13195546
147	0x3bb7fede	0.0056150993
148	0xbdceb96c	-0.1009396
149	0xbe1edc7a	-0.15513793
150	0xbe2f0fe2	-0.17095903
151	0xbe2a4323	-0.16627173
152	0xbd3db1c2	-0.0463121
153	0x3e1e3611	0.15450312
154	0x3e094e6b	0.1340882
155	0xbe1fb251	-0.15595366
156	0x3e1fa91e	0.15591857
157	0xbe0a04d9	-0.13478412
158	0xbcd88f3e	-0.02643549
159	0xbd1f0b1a	-0.038828947
160	0xbc9be265	-0.019028852
161	0xbcb79e65	-0.022414396
162	0xbe2bde30	-0.16783977
163	0xbe2c1bb1	-0.16807438
164	0xbd26894f	-0.04065829
165	0xb8cb7d31	-9.703113e-05
166	0xbdb023f1	-0.08600605
167	0x3d8f9760	0.07011294
168	0xbe2c28c7	-0.1681243
169	0xbb764b5e	-0.0037581543
170	0x3e3268d6	0.17422804
171	0xbd832d61	-0.0640514
172	0x3e3d5d0f	0.1849253
173	0x3d877707	0.066144995
174	0xbe241d06	-0.16026697
175	0x3e0e236a	0.13880697
176	0xbc7c4fff	-0.015399932
177	0xbd8ec098	-0.06970328
178	0x3e322ce7	0.17399941
179	0xbe1477e7	-0.14498864
180	0x3d0484ca	0.0323532
181	0xbcf634eb	-0.03005453
182	0x3e0a4929	0.13504471
183	0x3d83b9ac	0.064318985
184	0x3dd9349f	0.1060574
185	0x3d91be2c	0.071163505
186	0xbd068047	-0.03283718
187	0xbccebfd7	-0.02523796
188	0xbe1eab73	-0.1549509
189	0x3de82463	0.11335065
190	0x3e27a058	0.1636976
191	0x3e189479	0.14900388
192	0xbe0a57b0	-0.13510013
193	0x3c494c49	0.012286254
194	0xbe0555f2	-0.13021067
195	0xbdc8c6b4	-0.098035246
196	0xbdd421dc	-0.10358021
197	0x3d91c3fd	0.0711746
198	0xbdebe2cb	-0.11517867
199	0xbab68790	-0.0013925899
200	0x3c998b3e	0.018743154
201	0x3dfe1f15	0.12408272
202	0xbe1020d9	-0.1407503
203	0xbdff7df0	-0.124751925
204	0xbdcbb2be	-0.09946202
205	0x3e1948cd	0.14969178
206	0xbd66f705	-0.05638792
207	0x3e1cc832	0.15310743
208	0x3d800103	0.06250193
209	0x3cccc380	0.024995565
210	0xbbf5ae57	-0.0074975896
211	0xbd274e8a	-0.040846385
212	0x3cc11021	0.023567261
213	0xbd19ff3a	-0.03759692
214	0x3bce6c88	0.006299559
215	0x3cf5e21c	0.030015044
216	0xbe0acbfc	-0.13554376
217	0xbdd4cee5	-0.103910245
218	0x3e1fbf4d	0.15600319
219	0xbe10d6da	-0.1414446
220	0xbc180af4	-0.009279955
221	0x3e4568f5	0.19278319
222	0x3db6a819	0.08918781
223	0x3c812838	0.015766248
224	0xbe34d0f0	-0.17657828
225	0x3dbf320a	0.09335716
226	0xbe1a1821	-0.15048267
227	0xbd71286b	-0.058876436
228	0xbd8c4f97	-0.06851118
229	0xbd199544	-0.037495866
230	0xbb9f9dc2	-0.004871101
231	0x3e1f1b0e	0.15537664
232	0x3c67bd80	0.014144301
233	0x3e127c83	0.1430531
234	0x3e02c65d	0.12770982
235	0xbdf134fe	-0.117776856
236	0x3dd02227	0.10162764
237	0xbe057992	-0.13034657
238	0xbd9c4ea1	-0.07632185
239	0x3d8a832e	0.06763302
240	0x3d8b7225	0.06808881
241	0x3e15dc9e	0.1463494
242	0xbd977901	-0.073961265
243	0xbb71b5e1	-0.003688209
244	0x3db86468	0.09003526
245	0xbe2fcc82	-0.17167857
246	0x3e16845d	0.1469893
247	0xbe22f037	-0.15911947
248	0x3c85dc42	0.016340379
249	0xbbf7cac1	-0.007562012
250	0xbdbe6c31	-0.092979796
251	0x3d308fce	0.043105893
252	0x3e1b10b3	0.15143089
253	0xbd8b68cd	-0.068070985
254	0xbdd5f979	-0.10447974
255	0xbd892d6d	-0.066981174

0.bias f4 [32]
0	0x3e3e6ac8	0.18595421
1	0xbda89a5e	-0.08232568
2	0xbc663a0e	-0.014051927
3	0xbdaa82e9	-0.083257504
4	0xbcd06213	-0.02543739
5	0x3d3f0b58	0.046641678
6	0x3cd469e6	0.025929403
7	0xbd1e1535	-0.038594443
8	0xbe4b27a8	-0.19839346
9	0x3c3fa68e	0.011697425
10	0xbc06c042	-0.008224549
11	0x3cf87946	0.030331265
12	0x3e154590	0.14577317
13	0x3e333b8a	0.17503181
14	0xbde50172	-0.11181916
15	0xbbd69c2a	-0.006549378
16	0xbd975663	-0.07389524
17	0xbe2dfae2	-0.16990235
18	0xbe119f9b	-0.14221041
19	0x3e3d20f7	0.18469606
20	0x3deefb62	0.11669041
21	0x3dcc949b	0.09989282
22	0x3de1d897	0.11027639
23	0xbe20a854	-0.15689212
24	0x3cd7e296	0.026353162
25	0x3e38c52f	0.1804397
26	0xbdde9cf6	-0.10869782
27	0x3e2beeb4	0.16790277
28	0x3d758013	0.059936594
29	0x3e0b99e9	0.13632931
30	0xbdb6f0e2	-0.089326635
31	0x3db48d56	0.0881602

1.weight f4 [32]
0	0x3f81a17c	1.0127406
1	0x3f7ac55d	0.979574
2	0x3f7d3bb1	0.98919207
3	0x3f8049b7	1.0022496
4	0x3f878c72	1.0589736
5	0x3f7e44d4	0.99323773
6	0x3f750d2c	0.95723224
7	0x3f81b714	1.0133996
8	0x3f7d3cad	0.9892071
9	0x3f7f6e7e	0.9977797
10	0x3f7d8331	0.9902831
11	0x3f7a2cda	0.9772469
12	0x3f79b248	0.9753766
13	0x3f815763	1.0104793
14	0x3f78c017	0.97168106
15	0x3f7b0fb3	0.9807083
16	0x3f7beb36	0.9840578
17	0x3f848903	1.0354313
18	0x3f78342d	0.96954614
19	0x3f81a1e2	1.0127528
20	0x3f861a35	1.0476748
21	0x3f81269d	1.0089909
22	0x3f7e2049	0.99268013
23	0x3f7b7bcf	0.9823579
24	0x3f7545a9	0.9580942
25	0x3f7311c4	0.94948983
26	0x3f831b7a	1.024276
27	0x3f80d39c	1.0064578
28	0x3f8729b0	1.0559597
29	0x3f7a6124	0.97804475
30	0x3f8555dd	1.0416828
31	0x3f783d4a	0.9696852

1.bias f4 [32]
0	0x3cb03fe8	0.021514848
1	0x3b6dcbb5	0.003628475
2	0xbccd8e59	-0.02509229
3	0x3d69d281	0.057085518
4	0xbce105c3	-0.027468568
5	0xbd279595	-0.040914137
6	0xbd0d0d5a	-0.03443656
7	0xbc8535f0	-0.016261071
8	0xbc73bab7	-0.014876059
9	0xba13e626	-0.00056419
10	0xbd35dfd2	-0.044402905
11	0xbcbc8bae	-0.023015823
12	0xbc34016a	-0.010986665
13	0xbcc629f3	-0.024189925
14	0xbbcdea08	-0.006284002
15	0x3c217e2f	0.009856745
16	0xbd09dc84	-0.033657566
17	0x3b203037	0.00244428
18	0xbcf3a158	-0.02974002
19	0xbd1c8005	-0.038208026
20	0x3c043aa8	0.008070625
21	0xbd5c167a	-0.053732373
22	0xbb966174	-0.004589254
23	0xbcfd84fa	-0.030947197
24	0xbbc9aa71	-0.0061543514
25	0xbd3f911f	-0.046769258
26	0xbd9fb821	-0.07798792
27	0x3c457ef2	0.012054192
28	0xbd1ba6e4	-0.038000956
29	0x3c3f4ef2	0.011676537
30	0xbcabb8cc	-0.020962141
31	0xbc7b0aeb	-0.015322427

1.running_mean f4 [32]
0	0x3e2c26d0	0.16811681
1	0xbdef900e	-0.11697398
2	0xbce0a805	-0.027423868
3	0xbd8be482	-0.06830694
4	0xbccdbef9	-0.025115477
5	0x3d84add4	0.064784676
6	0x3c9d1e52	0.019179497
7	0xbd308bf8	-0.043102235
8	0xbe5667e0	-0.20938063
9	0xbc35709a	-0.01107421
10	0xbc43fd00	-0.011962175
11	0x3ce51724	0.027965136
12	0x3debea99	0.11519355
13	0x3e3af962	0.18259194
14	0xbe0c18b0	-0.13681293
15	0x3b2c4bab	0.0026290219
16	0xbdbbe07c	-0.09173676
17	0xbe2e93ec	-0.17048615
18	0xbe1d486d	-0.1535966
19	0x3e417d04	0.18895346
20	0x3dedfddf	0.11620688
21	0x3dcce3e4	0.10004404
22	0x3db7efa8	0.08981258
23	0xbe291fe3	-0.1651607
24	0x3c37c724	0.011216912
25	0x3e33a59d	0.17543645
26	0xbde765dc	-0.11298725
27	0x3e252e68	0.16130984
28	0x3d6a38ad	0.057182956
29	0x3e08bfe9	0.13354458
30	0xbdb42670	-0.08796394
31	0x3dab505a	0.08364935

1.running_var f4 [32]
0	0x3db20c17	0.08693712
1	0x3e3b448b	0.18287866
2	0x3e14de92	0.14538029
3	0x3e3a379d	0.18185277
4	0x3c99362f	0.018702595
5	0x3da1d330	0.07901609
6	0x3db3f484	0.08786872
7	0x3d849bc9	0.06475026
8	0x3d75b426	0.059986256
9	0x3de2f321	0.110815294
10	0x3db8133d	0.089880444
11	0x3c91bd2f	0.017790405
12	0x3f1cc11c	0.6123216
13	0x3d04ff27	0.032469895
14	0x3ef64f14	0.48107207
15	0x3d04148f	0.03224617
16	0x3e3e2fe8	0.18572962
17	0x3d55c7b5	0.05219241
18	0x3dd9bc0c	0.1063157
19	0x3ce4b253	0.027917063
20	0x3cd2cb43	0.025731688
21	0x3d350329	0.044192467
22	0x3e6d0053	0.23144655
23	0x3db51241	0.08841372
24	0x3d8cd556	0.06876628
25	0x3d6619d8	0.05617699
26	0x3e09f1ec	0.13471192
27	0x3dc5c062	0.09655835
28	0x3e41b949	0.18918337
29	0x3de984c0	0.11402273
30	0x3c798011	0.015228287
31	0x3cf7b05b	0.03023546

5.weight f4 [64, 32, 3, 3]
0	0xbd208826	-0.03919234
1	0x3b2c71ad	0.0026312873
2	0x3c9838f2	0.018581841
3	0x3c7b01b5	0.015320231
4	0x3d212c39	0.039348815
5	0x3d2c5216	0.04207047
6	0x3d3618f2	0.044457383
7	0x3cd2af5d	0.025718385
8	0x3d0df6bd	0.034659136
9	0x3c0bea58	0.008539759
10	0xbd186675	-0.037207086
11	0xbbbcf625	-0.0057666474
12	0xbb9f1324	-0.0048545767
13	0xbd0979bb	-0.033563357
14	0x3d068cf1	0.032849256
15	0x3d0de8dc	0.0346459
16	0x3c0f42ed	0.008743984
17	0x3cacac4b	0.02107825
18	0x3d161170	0.036637723
19	0x3c7375c3	0.01485962
20	0xbcfe0c42	-0.031011704
21	0xbd00269e	-0.03128683
22	0x3d3853a0	0.045001626
23	0x3cb4bde7	0.022063209
24	0x3cd58c26	0.026067805
25	0xbd674f7d	-0.05647229
26	0xbd66ad6f	-0.056317743
27	0xbc4e7551	-0.012601213
28	0x3c2588c7	0.010103411
29	0xbd4e5d1e	-0.050381772
30	0x3c66f728	0.014097013
31	0xbcd9891f	-0.026554642
32	0x3d6b6c62	0.05747641
33	0xbb232ed1	-0.002489973
34	0x3d4959cb	0.0491579
35	0xbd6eb06b	-0.058273714
36	0xbdba405b	-0.09094306
37	0x3cf8a05a	0.0303499
38	0x3d55c73f	0.05219197
39	0xbb81e27f	-0.003963768
40	0x3c0be357	0.008538089
41	0xbda67c59	-0.08129186
42	0x3d19e26f	0.03756946
43	0xbd7d0549	-0.06177262
44	0x3ac9a589	0.0015384416
45	0xbd6a37ed	-0.05718224
46	0xbd119111	-0.035538737
47	0xbbc55b34	-0.006022835
48	0xbc7c156e	-0.015385969
49	0x3b8e63c9	0.0043453914
50	0xbd0b9197	-0.034074392
51	0xbd08fc2f	-0.033443626
52	0x3d54d2cd	0.051958848
53	0x3c32b826	0.010908162
54	0xbb34bf40	-0.0027579814
55	0xb9919c10	-0.0002777283
56	0xbd0e77f1	-0.034782354
57	0xbd361a52	-0.044458695
58	0x3ce395f7	0.02778147
59	0x3ca2c152	0.019867573
60	0x3c2d47ce	0.010576202
61	0xbd28c575	-0.041203935
62	0x3bf22e04	0.0073907394
63	0xbcda6904	-0.026661403
64	0xbd6cc318	-0.057803243
65	0xba9dae41	-0.0012030081
66	0x3d95e391	0.073187955
67	0xbcc08060	-0.023498714
68	0xbd1f69c2	-0.038919218
69	0xbb4e6d41	-0.0031498226
70	0x3d184393	0.03717382
71	0xbd198e67	-0.03748932
72	0x3d2f2626	0.04276099
73	0x3d756bd0	0.05991727
74	0x3cc57217	0.024102254
75	0x3c0def0f	0.008662953
76	0x3d2d9844	0.04238154
77	0x3c990660	0.018679798
78	0xbd747697	-0.05968341
79	0xbd3f848f	-0.046757277
80	0xbc1260fd	-0.008934257
81	0x3d3db095	0.04631098
82	0xbd773c69	-0.060360346
83	0x3d11ae68	0.035566717
84	0xbc35c9fd	-0.011095521
85	0xbd64b34a	-0.055835046
86	0x3c99f98b	0.01879575
87	0xbca94f55	-0.020667711
88	0x3c49c682	0.012315394
89	0xbd0456f9	-0.032309506
90	0xbd3101b6	-0.043214522
91	0xbc77b710	-0.015119329
92	0xbcd9f6ba	-0.026606906
93	0x3d3953c4	0.0452459
94	0x3b67f836	0.0035395748
95	0x3d2c4ae3	0.042063605
96	0x3cc96847	0.024585856
97	0xbbf6bd95	-0.007529924
98	0x3d5aa6f8	0.05338189
99	0x3cbf5a58	0.023358509
100	0x3d0fa861	0.035072688
101	0x3c6a843e	0.014313756
102	0xba8d0d7d	-0.0010761466
103	0xbb71f974	-0.0036922367
104	0xba09a34b	-0.0005250468
105	0xbd56fad5	-0.052485306
106	0x3b9573a7	0.004560906
107	0xbd34c7dc	-0.044135913
108	0xbcb4d347	-0.022073401
109	0x3d17d794	0.037070826
110	0xbd32fb25	-0.04369654
111	0xbcb3034e	-0.021852162
112	0x3beb7afb	0.0071862913
113	0xbc1ac22b	-0.009445707
114	0x3bf59890	0.0074949935
115	0x3c359517	0.011082909
116	0x3ca82562	0.020525638
117	0xbd84ce9f	-0.06484722
118	0xbc7a84b9	-0.015290433
119	0x3c2dabff	0.010600089
120	0x3ce0bbab	0.027433237
121	0xbc7c6ca8	-0.015406765
122	0xbd1425b6	-0.036168776
123	0x3cd0ae6c	0.025473796
124	0x3d425d71	0.047452394
125	0xbc25c9bf	-0.010118901
126	0xbcfc4cf6	-0.030798417
127	0x3d279fd6	0.040923916
128	0xbb0f4a6b	-0.0021864425
129	0xbd17b92f	-0.03704184
130	0xbbed3814	-0.007239351
131	0x3d0e154c	0.03468828
132	0xbcaf84f9	-0.021425711
133	0x3d37dc70	0.04488796
134	0x3d281bec	0.041042253
135	0x3c986eff	0.018607615
136	0x3ca6b4bc	0.020349853
137	0xbbdeb388	-0.006796304
138	0x3bd38e6e	0.006456188
139	0x3d1783ba	0.03699086
140	0xbd050cde	-0.032482974
141	0x3ae0de45	0.0017156085
142	0xbc2c9fc6	-0.01053614
143	0x3d4f4e3c	0.05061172
144	0xbcf27e77	-0.029601319
145	0x3d452034	0.048126414
146	0xbc321dc0	-0.010871351
147	0xbcfcf330	-0.03087768
148	0x3ce47a2e	0.027890291
149	0x3c76ee2e	0.015071435
150	0x3d1c3bfc	0.038143143
151	0x3c7a7ac8	0.015288062
152	0xbd5b53e9	-0.05354682
153	0x3d70a74f	0.058753308
154	0x3cfc6b4c	0.030812882
155	0x39f3e561	0.00046519472
156	0x3c2efb93	0.010680097
157	0x3cda4a88	0.026646867
158	0xbd9f7896	-0.07786672
159	0xbd6779d6	-0.056512676
160	0x3c8f4cec	0.017492734
161	0xbc10e37a	-0.008843297
162	0x3d8501d9	0.06494493
163	0x3bf05b16	0.007335077
164	0xbcac9427	-0.021066738
165	0x3d590ebb	0.052992564
166	0x3d1b36bf	0.037894007
167	0x3d7262e0	0.059176326
168	0xbd21c1b0	-0.039491355
169	0xbd372a6f	-0.044718202
170	0xbca93bf2	-0.020658467
171	0xbce98c88	-0.028509393
172	0x3d1fc18c	0.03900294
173	0x3d3ecde2	0.046583064
174	0x3c78f736	0.015195658
175	0xbae6c40d	-0.0017606035
176	0x3cb421e8	0.021988824
177	0xbd22bb88	-0.039729625
178	0x3d7b0b60	0.061290145
179	0xbd5e4190	-0.054261744
180	0xbc6148de	-0.013750283
181	0x3c6794c2	0.014134588
182	0x3d45f009	0.04832462
183	0x3ab9bc09	0.0014170419
184	0x3cfcb6f9	0.030848967
185	0xbd3ede63	-0.046598803
186	0xba8bda82	-0.0010669979
187	0xbcd904e8	-0.026491597
188	0xbc0c6adc	-0.008570399
189	0x3c61f5ea	0.013791541
190	0x3c8f5eb1	0.017501207
191	0xbcc55377	-0.02408765
192	0x3b0d95eb	0.002160425
193	0xbcb2b0c6	-0.021812808
194	0xbca5932a	-0.020211775
195	0x3cd677e3	0.026180213
196	0xbc18e38f	-0.009331598
197	0x3d31aaff	0.043375965
198	0xbcefcaf5	-0.029271582
199	0xbb9a41f9	-0.0047075716
200	0x3ac23609	0.0014817129
201	0xbd251add	-0.040308822
202	0x3ca87014	0.020561256
203	0x39d999e0	0.0004150411
204	0xbc112642	-0.008859219
205	0xbbf3bce5	-0.0074382895
206	0x3d14b364	0.036303893
207	0x3cf45853	0.029827273
208	0xbd2002c7	-0.03906515
209	0x3d2d1a31	0.042261306
210	0xbcd0365b	-0.025416544
211	0xbc860086	-0.016357671
212	0x3d5350a7	0.051590588
213	0x3b72a879	0.0037026687
214	0xbc9ded23	-0.019278115
215	0xbd5b753f	-0.05357861
216	0xbba23040	-0.0049495995
217	0x3d1a938f	0.03773838
218	0xbd3d55be	-0.04622435
219	0xbd984a12	-0.07436003
220	0xbcd3156f	-0.025767056
221	0xbd927818	-0.07151812
222	0xbd93677a	-0.07197471
223	0xbd2c8f41	-0.042128805
224	0xbd082a6a	-0.033243574
225	0xbd715c44	-0.058925882
226	0xbcfdb73c	-0.030971162
227	0x3c48c5fa	0.012254233
228	0xbcd3f9fb	-0.025876036
229	0x3cfc8175	0.030823449
230	0xbbcbd81d	-0.006220831
231	0xbd04d8bc	-0.032433257
232	0x3d1ccb1b	0.038279634
233	0xbd0b8087	-0.03405812
234	0xbd3a449e	-0.045475595
235	0x3c8d261e	0.01723009
236	0xbc8a1ad5	-0.016858498
237	0x3d6b98be	0.057518713
238	0xbc2a9740	-0.010412037
239	0xbca6dbc0	-0.020368457
240	0x3c28d5e4	0.010304902
241	0x3bd8e283	0.006618799
242	0x3d81d1c0	0.06338835
243	0xbd400474	-0.046879247
244	0xbb824e24	-0.0039766002
245	0x3c0c824a	0.008575985
246	0xbd0fd74b	-0.03511743
247	0xbd24600d	-0.040130664
248	0x3c242838	0.0100193545
249	0xbd7dad9c	-0.061933145
250	0xbc101391	-0.0087937275
251	0xbd5c5a4d	-0.053797055
252	0x3d96045b	0.073250495
253	0x3ce43e73	0.02786181
254	0x3d4ecd42	0.050488718
255	0xbd9379e2	-0.07200982

5.bias f4 [64]
0	0xbbb2b7a5	-0.005454021
1	0x3cd42d13	0.0259004
2	0xbd5c14e0	-0.053730845
3	0x3bff121d	0.0077841417
4	0x3c4cc525	0.012498175
5	0xbd7204c1	-0.059086565
6	0x3bdb417e	0.006691157
7	0xbd44b425	-0.04802336
8	0xbd68de6c	-0.056852743
9	0x3d4f6591	0.05063397
10	0x3cf8d715	0.030375997
11	0x3d31d739	0.043418143
12	0x3d533b49	0.05157021
13	0xbd09b27b	-0.033617478
14	0xbcddc2b0	-0.027070373
15	0x3a813625	0.0009858055
16	0x3cb0f8c5	0.021602998
17	0x3b834b49	0.0040067774
18	0xbbc21f21	-0.005924121
19	0x3d6e1ed1	0.058134858
20	0xbcd41b86	-0.02589203
21	0x3ce6aa38	0.028157339
22	0x3cda106c	0.026619159
23	0xbcf72069	-0.030166822
24	0x3d070e1a	0.032972433
25	0x3d277149	0.04087952
26	0xbc261c6b	-0.010138611
27	0xbd213f42	-0.039366968
28	0x3d1dc5e3	0.038518798
29	0x3d376538	0.044774264
30	0x3cc6c313	0.02426294
31	0x3c191861	0.009344191
32	0x3ce57d09	0.028013723
33	0x3caf0614	0.021365203
34	0xbc955d13	-0.018232858
35	0xbd2cca74	-0.04218526
36	0xbcd85a73	-0.026410317
37	0x3c9f6caa	0.019460995
38	0xbca94b0e	-0.020665672
39	0x3c9dc1e1	0.019257488
40	0xbce374c1	-0.027765634
41	0xbd224850	-0.039619744
42	0x3d2842f2	0.04107947
43	0xbd104afb	-0.035227757
44	0x3c951835	0.01820002
45	0x3d43cb0a	0.047801055
46	0x3be39d61	0.0069462513
47	0x3d2a19a1	0.041528348
48	0xbc654c2c	-0.013995212
49	0xbd51c7c3	-0.0512159
50	0xbcde5344	-0.027139314
51	0xbcb37f59	-0.02191131
52	0xbd12567a	-0.035727
53	0xbd0b0fbb	-0.03395055
54	0x3cbcaab6	0.02303062
55	0x3d5f8a72	0.05457539
56	0x3d18a522	0.037266858
57	0x3cbfd2e5	0.023415992
58	0xbd3f47d1	-0.04669935
59	0xbc629887	-0.013830311
60	0x3caf6a96	0.021413129
61	0x3d4a29ff	0.049356457
62	0xbcfb5286	-0.030678999
63	0x3d0c716a	0.034287848

6.weight f4 [64]
0	0x3f83cc49	1.0296718
1	0x3f796897	0.97425216
2	0x3f7f2c92	0.99677384
3	0x3f82b1a4	1.0210462
4	0x3f81884f	1.0119723
5	0x3f7f2c2b	0.9967677
6	0x3f813b61	1.0096246
7	0x3f70d738	0.940784
8	0x3f80ee6f	1.0072764
9	0x3f7dfb74	0.9921181
10	0x3f7cd3ac	0.98760486
11	0x3f7b80d6	0.98243463
12	0x3f81c54e	1.0138338
13	0x3f855a49	1.0418178
14	0x3f76846d	0.96295816
15	0x3f8390b8	1.027854
16	0x3f825db3	1.0184845
17	0x3f7ae054	0.9799855
18	0x3f764de4	0.962126
19	0x3f7cbea9	0.98728424
20	0x3f83d4fb	1.0299371
21	0x3f7e5c9c	0.9936006
22	0x3f788231	0.97073656
23	0x3f813fc9	1.0097591
24	0x3f757808	0.9588628
25	0x3f7db5ef	0.99105734
26	0x3f72f9f0	0.94912624
27	0x3f78a01f	0.97119325
28	0x3f7c6d9c	0.9860475
29	0x3f749f7a	0.9555584
30	0x3f794ace	0.9737977
31	0x3f816d93	1.0111564
32	0x3f7a2bcd	0.97723085
33	0x3f8304aa	1.0235798
34	0x3f7cf203	0.9880678
35	0x3f7f239d	0.99663717
36	0x3f7e5db7	0.9936175
37	0x3f7c86d0	0.9864321
38	0x3f7fdc60	0.9994564
39	0x3f7c3b64	0.9852812
40	0x3f7c1533	0.9846985
41	0x3f82345a	1.0172226
42	0x3f7d8826	0.9903587
43	0x3f77fbfd	0.9686888
44	0x3f842526	1.0323837
45	0x3f81edbb	1.0150675
46	0x3f809498	1.0045347
47	0x3f8511a9	1.0396014
48	0x3f801f97	1.000964
49	0x3f789319	0.97099453
50	0x3f7ff22b	0.99978894
51	0x3f7f66e8	0.997664
52	0x3f83e4bb	1.0304178
53	0x3f81f0ed	1.015165
54	0x3f80ee2e	1.0072687
55	0x3f836866	1.0266235
56	0x3f80a1b9	1.0049354
57	0x3f7f22e6	0.99662626
58	0x3f7a9bc8	0.97893953
59	0x3f8196e6	1.0124176
60	0x3f75c67c	0.9600599
61	0x3f862fcc	1.0483336
62	0x3f80f61c	1.0075107
63	0x3f82ec80	1.0228424

6.bias f4 [64]
0	0xbdb5e7cc	-0.08882102
1	0xbd98f0a5	-0.07467774
2	0xbd91518e	-0.070956334
3	0xbd24a958	-0.04020056
4	0xbcf7ea1b	-0.030262997
5	0xbb7f3993	-0.003894423
6	0xbd530f56	-0.051528297
7	0xbdca4eb2	-0.09878291
8	0xbc3e6212	-0.0116200615
9	0x3bd93808	0.006628994
10	0xbd87f2ed	-0.06638131
11	0xbc455fbd	-0.012046752
12	0xbd98b950	-0.074572206
13	0xbd8a3523	-0.06748416
14	0xbd456b07	-0.048197772
15	0xbcdeec1f	-0.0272122
16	0xbd4a3ede	-0.04937636
17	0xbdf1a0f3	-0.11798277
18	0xbd514ee5	-0.05110063
19	0xbc3916de	-0.011296956
20	0xbd5285c1	-0.05139709
21	0xbd55306e	-0.05204814
22	0xbd8fea16	-0.0702707
23	0x3a1c74a9	0.00059683115
24	0xbd9edb56	-0.07756679
25	0xbcc7e490	-0.02440098
26	0xbdaec210	-0.08533108
27	0xbd1c70f5	-0.03819366
28	0xbd9e729b	-0.07736703
29	0xbd7b68a7	-0.0613791
30	0xbdeb183c	-0.11479232
31	0xbd12e138	-0.035859317
32	0xbda13132	-0.078707114
33	0xbd11049a	-0.03540478
34	0xbc8652a3	-0.016396826
35	0xbd06c7fe	-0.03290557
36	0xbd329dd0	-0.043607533
37	0xbd92c3fb	-0.071662866
38	0xbdb526f3	-0.088453196
39	0xbd765a36	-0.060144626
40	0xbc92335a	-0.017846752
41	0xbd9a460e	-0.07532893
42	0xbbd83754	-0.0065983925
43	0xbd8a1de5	-0.06743983
44	0xbd8e112e	-0.069368705
45	0xbcf11834	-0.029430486
46	0xbcbbb4ad	-0.022913301
47	0xbd24fd97	-0.040280905
48	0x3c1488cb	0.009065817
49	0xbd1ab1d5	-0.03776725
50	0xbca1147c	-0.019663088
51	0xbd5c3442	-0.053760774
52	0xbca33134	-0.019920923
53	0xbd63b16e	-0.055589132
54	0xbd842b8c	-0.064536184
55	0xbdfcc03c	-0.12341353
56	0x3c39e2ab	0.011345546
57	0xbc760169	-0.015014985
58	0xbd3ba5c7	-0.045812394
59	0xbd7f2351	-0.06228954
60	0xbd95bcaa	-0.073113754
61	0xbd339701	-0.04384518
62	0xbdad8b5e	-0.08473848
63	0xbd824e1b	-0.06362554

6.running_mean f4 [64]
0	0xbe92b527	-0.28653833
1	0xbe210726	-0.15725383
2	0xbdbef7a7	-0.0932458
3	0xbebceddb	-0.3690022
4	0xbf1015e3	-0.56283396
5	0xbea3c18a	-0.31983596
6	0xbdb7fe06	-0.08983998
7	0x3ee08089	0.43848065
8	0xbeb868c4	-0.3601743
9	0xbf202db6	-0.6256975
10	0xbedf3f59	-0.43603018
11	0xbf194f85	-0.5988696
12	0x3c0be7c6	0.008539146
13	0xbee39ffc	-0.44457996
14	0x3e46f1a9	0.19428124
15	0xbdd79be9	-0.105277844
16	0x3d2f22ca	0.042757787
17	0xbe1d2b54	-0.1534856
18	0xbdf7625c	-0.120793074
19	0xbe7eddb2	-0.24889258
20	0xbf01a888	-0.50647783
21	0xbf07af4e	-0.5300187
22	0x3d685c3a	0.05672858
23	0xbe89fc5d	-0.2695035
24	0xbbf7f5a7	-0.007567126
25	0xbe369958	-0.17831933
26	0x3ebacad7	0.3648288
27	0x3e72feb6	0.23729977
28	0xbe595df6	-0.2122725
29	0xbd87a2ec	-0.06622872
30	0xbe148467	-0.14503632
31	0xbe846445	-0.2585775
32	0xbed97815	-0.42474428
33	0xbe39a1a8	-0.18128073
34	0xbef02793	-0.46905193
35	0xbea9971f	-0.3312311
36	0x3e17251a	0.14760247
37	0xbd2df6e8	-0.042471796
38	0xbeb131d9	-0.34608343
39	0xbe02c6d1	-0.12771155
40	0xbe9af304	-0.3026353
41	0xbd98afac	-0.07455382
42	0xbde5efea	-0.112274006
43	0xbf4fe595	-0.8120969
44	0xbeba06b9	-0.36333254
45	0xbe8db838	-0.2767961
46	0xbe5271a4	-0.20551163
47	0xbee4681f	-0.44610688
48	0xbe8cc92c	-0.27497232
49	0xbcbb4c51	-0.022863539
50	0xbda41d4c	-0.080134004
51	0x3cd71903	0.026257044
52	0xbefaa968	-0.48957372
53	0xbe7a503e	-0.24444672
54	0x3ccae3ba	0.024766792
55	0xbe601737	-0.21883856
56	0xbf27acfd	-0.65498334
57	0xbebed956	-0.3727519
58	0xbd9f7882	-0.07786657
59	0xbf152887	-0.58264965
60	0xbed6fe29	-0.41990784
61	0xbe4e3144	-0.20135981
62	0xbefb792b	-0.4911588
63	0xbda9c83c	-0.08290145

6.running_var f4 [64]
0	0x3dccacd5	0.099939026
1	0x3dd976b2	0.106183425
2	0x3d6a4ced	0.05720227
3	0x3dd42689	0.103589125
4	0x3e33f9cc	0.17575759
5	0x3df85867	0.121262364
6	0x3db37ba4	0.08763817
7	0x3da644b5	0.081185736
8	0x3e1ae75b	0.15127318
9	0x3e3f646f	0.18690656
10	0x3e0a7b0b	0.135235
11	0x3e45f312	0.19331005
12	0x3df98dea	0.12185271
13	0x3dcd01dd	0.10010121
14	0x3e63ccb9	0.22246064
15	0x3dde409e	0.108521685
16	0x3d974ae1	0.07387329
17	0x3e05ccdc	0.13066429
18	0x3e333298	0.17499769
19	0x3dead8a8	0.11467105
20	0x3e0dfc55	0.13865788
21	0x3e2c5df9	0.16832723
22	0x3e04e99b	0.12979738
23	0x3e140c83	0.14457898
24	0x3db325cf	0.08747446
25	0x3dd9a385	0.10626892
26	0x3e0ff62c	0.14058751
27	0x3dddf6ca	0.10838087
28	0x3dcdf934	0.10057297
29	0x3dcde812	0.100540295
30	0x3df1bfbf	0.11804151
31	0x3e0984db	0.13429587
32	0x3e0bf33f	0.1366701
33	0x3de7b751	0.11314262
34	0x3e4bca04	0.19901282
35	0x3dc2f419	0.09519214
36	0x3da898b4	0.08232251
37	0x3d9b46da	0.07581873
38	0x3e1faffd	0.15594478
39	0x3db92300	0.09039879
40	0x3dccce9d	0.10000346
41	0x3db3e1ca	0.087833
42	0x3e4e84f2	0.20167902
43	0x3e893433	0.26797637
44	0x3dc23d5e	0.09484361
45	0x3da5f2fe	0.08102988
46	0x3e040a3c	0.12894529
47	0x3de3ce16	0.11123292
48	0x3dfe65ca	0.124217585
49	0x3e238ae9	0.15970959
50	0x3dad189d	0.0845196
51	0x3d995a35	0.07487909
52	0x3dd2646e	0.10273062
53	0x3dd49908	0.10380751
54	0x3dd046e4	0.10169771
55	0x3db30ac9	0.087422915
56	0x3e292df5	0.16521437
57	0x3dfbabaa	0.12288602
58	0x3df45837	0.11930888
59	0x3e2bfedc	0.1679644
60	0x3e002833	0.12515335
61	0x3e0c3f1b	0.13695948
62	0x3dfba0c4	0.12286523
63	0x3dabdfaf	0.08392274

10.weight f4 [64, 64, 3, 3]
0	0xbc4b85d7	-0.012422047
1	0xbccb02bb	-0.024781575
2	0xbd76c04c	-0.060241982
3	0x3b9ef7fb	0.004851339
4	0x3c542264	0.0129476525
5	0xbd034ecf	-0.03205758
6	0x3d24fab0	0.040278137
7	0x3c869cb4	0.016432144
8	0xbc1472ca	-0.009060571
9	0x3c73792b	0.014860432
10	0x3bca8bfa	0.0061812373
11	0xba576cb1	-0.00082177954
12	0xbcc0cf84	-0.023536451
13	0xbd027209	-0.031847034
14	0xbc2a831e	-0.010407237
15	0xbaa2d8ef	-0.001242427
16	0xbc4d3152	-0.012523966
17	0xbc831657	-0.016001863
18	0xbb62aa49	-0.003458636
19	0xbcaa0610	-0.020754844
20	0xbc8c72ff	-0.017144678
21	0xbc8db387	-0.01729752
22	0xbc777025	-0.015102421
23	0xbc80b3d2	-0.015710745
24	0xbd004260	-0.0313133
25	0xba412727	-0.00073682
26	0xbd2d2e16	-0.04228028
27	0x3ccb0299	0.024781512
28	0xba725c9c	-0.0009245367
29	0x3ccbd935	0.024883846
30	0xb9518b95	-0.00019983792
31	0x3c29f546	0.010373419
32	0x3d21c4f8	0.039494485
33	0x3cc854ee	0.02445456
34	0x3cc02530	0.023455232
35	0x3c93fd59	0.018065142
36	0x3b9d35bc	0.0047976654
37	0x3ba13a8b	0.004920309
38	0xbc392967	-0.011301375
39	0xbc4e9b19	-0.01261022
40	0x3ca040a7	0.019562079
41	0x3cc567ab	0.024097284
42	0x3c9f1e05	0.019423494
43	0xbd0b8bb7	-0.03406879
44	0xbc6624cd	-0.01404686
45	0xbd18aa00	-0.0372715
46	0xbd088439	-0.033329222
47	0xbcc726eb	-0.02431055
48	0xbd038fbf	-0.03211951
49	0xbd1fc447	-0.039005544
50	0xbcf9b9f4	-0.030484177
51	0xbbf1a982	-0.0073749432
52	0xbc32d3fe	-0.010914801
53	0xbca82745	-0.020526538
54	0x3d69182f	0.05690783
55	0x3c730fe3	0.014835331
56	0x3d0c06bf	0.03418612
57	0x3d11605b	0.035492282
58	0xbc545098	-0.012958668
59	0x3c4fbc86	0.012679225
60	0x3c538bf0	0.012911782
61	0x3d3586ec	0.044318125
62	0x3c322fe4	0.010875676
63	0x3b2d2b00	0.0026423335
64	0xbc10718d	-0.008816135
65	0xbc4ffec6	-0.01269502
66	0x3bd50626	0.006500977
67	0xbcfe3bbf	-0.031034349
68	0xbc1e9646	-0.009679383
69	0xbc3181b9	-0.010834151
70	0x3c30cf32	0.010791587
71	0xbca693c4	-0.020334132
72	0x3c51eac7	0.012812323
73	0x3d197384	0.03746368
74	0xbc6d92a9	-0.014500299
75	0xbc9656d5	-0.018351952
76	0xbc41d9bb	-0.011831696
77	0x3a58631f	0.0008254516
78	0x3d014ee7	0.031569388
79	0xbc008e33	-0.007846403
80	0x3d379c02	0.044826515
81	0xbd22244f	-0.039585408
82	0x3c3c288f	0.011484279
83	0xbc9cb1dd	-0.01912778
84	0xbcf0e99d	-0.02940827
85	0xbd34f616	-0.04418
86	0xbd051b16	-0.032496534
87	0xbccef600	-0.025263786
88	0xbcf36dab	-0.02971538
89	0xbc6c4bad	-0.014422339
90	0x3d1361e9	0.035982046
91	0xbc341e4c	-0.010993551
92	0x3d3700ed	0.044678617
93	0x3c840950	0.016117722
94	0x3d0c057f	0.03418493
95	0x3cd43cd7	0.025907917
96	0xbc3657a2	-0.011129292
97	0x3cf0729d	0.029351527
98	0x3d538149	0.051636968
99	0x3c749cbc	0.0149299465
100	0x3cc09081	0.023506405
101	0x3cf25bd7	0.029584808
102	0x3be02091	0.0068398197
103	0xbc3eee8b	-0.011653553
104	0x3ca38dce	0.019965079
105	0xbbb7ef51	-0.0056132455
106	0x3d2db0b7	0.042404857
107	0x3ca6e155	0.020371119
108	0x3d476872	0.04868359
109	0x3caf03a1	0.021364035
110	0x3d7ecd26	0.062207364
111	0x3ce9423a	0.028473962
112	0x3d0b5758	0.034018844
113	0x3cbff910	0.023434192
114	0x3d128ede	0.03578078
115	0x3ce118d3	0.027477657
116	0x3d45d9ba	0.048303343
117	0xbc735a9a	-0.014853144
118	0x3a77fd39	0.00094600354
119	0xbd0114c8	-0.03151396
120	0xbb82c386	-0.0039905934
121	0xbca77679	-0.020442234
122	0xbcb5e2f4	-0.022202946
123	0xbc2750bc	-0.01021212
124	0xbcb90205	-0.02258397
125	0xbc8edea8	-0.017440155
126	0x3c547711	0.012967841
127	0x3c954d55	0.018225351
128	0xb848e5c2	-4.7897694e-05
129	0xbb84b88b	-0.0040503195
130	0xb9f4a6e0	-0.00046663638
131	0xbb18292b	-0.0023217897
132	0x3cfc9136	0.03083096
133	0xbc6975e1	-0.014249296
134	0x3b67a242	0.0035344516
135	0x3cb64b45	0.022252688
136	0x3d1a9601	0.03774071
137	0x3d835d48	0.06414276
138	0x3ce9d98c	0.028546117
139	0x3d213d48	0.039365083
140	0x3d1555e7	0.036458876
141	0x3c04fe41	0.0081172595
142	0x3cb8f737	0.022578819
143	0x3d52c15f	0.051453944
144	0xbd5ce2be	-0.053927176
145	0xbd65b406	-0.056079887
146	0xbd291e79	-0.041288827
147	0xbd20a897	-0.03922328
148	0xbc9ab77c	-0.01888632
149	0xbb9edd2d	-0.0048481436
150	0xbcbb77b1	-0.022884222
151	0xbbf2bb76	-0.007407601
152	0xbcb7ba62	-0.022427741
153	0xbccb2ae0	-0.024800718
154	0xbcab9754	-0.020946182
155	0xbc646253	-0.013939458
156	0x3b62a8a9	0.0034585393
157	0xbd0ad26c	-0.03389208
158	0xbb970966	-0.0046092747
159	0xbd0c6c96	-0.034283243
160	0xbd1f9915	-0.03896435
161	0xbcee56cd	-0.029094124
162	0x3c3b21e2	0.0114216525
163	0xbbbf04f1	-0.0058294465
164	0x3c28e666	0.0103088375
165	0x3c249649	0.010045596
166	0xbb57ab88	-0.0032908637
167	0x3c731e90	0.01483883
168	0x3c20f33d	0.0098236175
169	0xbc108d73	-0.008822787
170	0x3c7335ce	0.014844371
171	0xbca8563f	-0.020548938
172	0xbd44259e	-0.047887437
173	0xbbc00e09	-0.005861048
174	0xbd44f534	-0.048085406
175	0xbc3833b2	-0.011242794
176	0xbd1d08fe	-0.038338654
177	0xbc8b2e9b	-0.016989997
178	0x3b4a1658	0.0030836072
179	0x3bd0336b	0.0063537857
180	0x3c8fddc0	0.017561793
181	0xbc1958da	-0.009359563
182	0x3c80fd16	0.01574568
183	0xbb2dcd25	-0.002651998
184	0xbd0717e0	-0.032981753
185	0xbca24aed	-0.019811118
186	0x3c05c585	0.008164768
187	0x3bcb440c	0.00620318
188	0xbb64e5fa	-0.0034927116
189	0xbb753d72	-0.0037420657
190	0x3c71ca2a	0.014757672
191	0x3caddb6d	0.021222794
192	0x3d036489	0.0320783
193	0x3cb20bfe	0.021734234
194	0x3c8d0f79	0.017219292
195	0xbc0d95ec	-0.008641701
196	0x3cf14104	0.029449947
197	0x3b9ad85f	0.0047255005
198	0x3bb389af	0.0054790596
199	0xbc9388fb	-0.018009653
200	0x3c3d6dff	0.01156187
201	0x39337180	0.00017113052
202	0x3cccd063	0.02500171
203	0x3b032e82	0.0020016734
204	0x3d271620	0.040792584
205	0xbc7570b3	-0.014980483
206	0x3c5ae67d	0.013360617
207	0xbd24139b	-0.04005776
208	0xbd0c31a9	-0.034227047
209	0xbd2fe6a2	-0.042944558
210	0xbd1a71c9	-0.03770617
211	0xbce53ff0	-0.02798459
212	0xbb906fca	-0.0044078575
213	0xbc203449	-0.009778091
214	0xbc832ef3	-0.016013598
215	0x3c3c5da6	0.011496937
216	0xbc9cfb84	-0.0191629
217	0x3cdb5053	0.0267717
218	0x3aabddfd	0.0013112422
219	0xbb9dbd56	-0.0048138304
220	0x3c4693ff	0.012120246
221	0x3c24183f	0.010015546
222	0xb83a723a	-4.4452237e-05
223	0x3b4152c8	0.0029498804
224	0x3bf6d58a	0.00753278
225	0x3c59cd4b	0.013293575
226	0x3be00d3e	0.006837516
227	0x3cd56008	0.026046768
228	0x3c2a3555	0.010388692
229	0x3cf3fa3e	0.02978241
230	0x3c8a2be3	0.01686663
231	0x3cf764d9	0.030199455
232	0x3c0010ce	0.007816507
233	0x3c145861	0.009054274
234	0xbd239381	-0.039935593
235	0xbd03d214	-0.032182768
236	0xbca7afdc	-0.020469598
237	0xbce8e94a	-0.028431553
238	0xbbac43e4	-0.0052571166
239	0xbcab6f40	-0.020927072
240	0xbc68eb6f	-0.014216288
241	0xbcde418c	-0.027130865
242	0xbcaa03f3	-0.020753836
243	0x3ca60ebc	0.020270698
244	0xbc3e190b	-0.01160265
245	0x3c345d9a	0.0110086445
246	0x3cc31d09	0.023817556
247	0x3ca9cfea	0.020729024
248	0xbc496701	-0.012292624
249	0x3d3dca23	0.04633535
250	0x3cf654a2	0.030069653
251	0x3cd15a1e	0.025555667
252	0xbcd06f82	-0.025443796
253	0xbb1ae66e	-0.0023635882
254	0xbc4ffafc	-0.012694117
255	0xbbf2111f	-0.007387295

10.bias f4 [64]
0	0x3d1d4498	0.038395494
1	0xbd098869	-0.033577356
2	0xbae66287	-0.0017576971
3	0x3c8c3391	0.017114433
4	0x3bb022dc	0.0053752493
5	0x3c5f9fa3	0.0136489
6	0x3c45eabe	0.012079893
7	0xbd1b6916	-0.037942015
8	0x3d1a0475	0.037601907
9	0x3ce1826f	0.027528016
10	0xbce521a4	-0.027970143
11	0x3ced75d4	0.028986849
12	0x3c682409	0.014168748
13	0xbc6da1d1	-0.014503912
14	0x3bf45265	0.0074561113
15	0xbb94d28c	-0.0045417007
16	0x3a1a87d8	0.0005894876
17	0x3c5b104b	0.013370584
18	0x3cf96c7d	0.030447239
19	0x3d14682b	0.036232155
20	0x3a978d0c	0.0011562421
21	0x3c583f95	0.013198753
22	0x3cb7e433	0.022447681
23	0x3cb7002c	0.02233895
24	0xbcd4a286	-0.025956403
25	0x3baab222	0.0052092234
26	0x3d2a9143	0.04164244
27	0x3d121fca	0.035674848
28	0x3cb70ff4	0.022346474
29	0x3c273bc8	0.010207124
30	0x3ccedecb	0.02525272
31	0x3d1e0a3c	0.03858398
32	0xbb4e214b	-0.003145295
33	0x3d017def	0.03161424
34	0x3d12d1ef	0.03584474
35	0xbc8fc975	-0.017552117
36	0x3b1da67e	0.0024055536
37	0x3c90bef7	0.017669184
38	0xbc4ca1d9	-0.012489759
39	0x3cffc731	0.031222912
40	0xbd03e4dc	-0.03220068
41	0xbcc64318	-0.024201915
42	0x3d240385	0.04004242
43	0xbce487a9	-0.027896719
44	0x3d03a622	0.03214086
45	0x3d15f5f8	0.036611527
46	0x3c87f3ff	0.016595839
47	0x3c221041	0.009891571
48	0xbbd3c374	-0.006462509
49	0xbb0baad3	-0.0021311536
50	0x3aaef5b0	0.0013348367
51	0xbc245b8e	-0.010031594
52	0x3ab6940e	0.0013929622
53	0x3c57cb8c	0.013171088
54	0x3ca1759d	0.019709403
55	0x3d054002	0.032531746
56	0x3c86a36b	0.016435346
57	0x3d0871d0	0.033311665
58	0x3c1d8532	0.009614276
59	0x3c245d1e	0.0100319665
60	0x3cddf475	0.027094105
61	0x3b25a7bc	0.002527698
62	0xbcec093f	-0.028813003
63	0xbcbe3346	-0.023217808

11.weight f4 [64]
0	0x3f907300	1.1285095
1	0x3f911616	1.1334865
2	0x3f907a7e	1.1287382
3	0x3f93a8ea	1.1535923
4	0x3f93b247	1.1538781
5	0x3f94080a	1.1564953
6	0x3f8ecf7c	1.1157069
7	0x3f93c1f2	1.1543562
8	0x3f90d9f6	1.1316516
9	0x3f90c6c9	1.1310664
10	0x3f911ea8	1.133748
11	0x3f8ea733	1.1144775
12	0x3f915893	1.1355156
13	0x3f90f2d7	1.1324109
14	0x3f90d013	1.1313499
15	0x3f90f868	1.1325808
16	0x3f90d358	1.1314497
17	0x3f9170b1	1.1362516
18	0x3f91dc67	1.1395386
19	0x3f903a08	1.126771
20	0x3f96040c	1.1719985
21	0x3f915389	1.1353618
22	0x3f91c4d1	1.1388189
23	0x3f93ee07	1.1557015
24	0x3f938935	1.1526247
25	0x3f93cd09	1.1546947
26	0x3f9249fc	1.1428828
27	0x3f91e9ff	1.1399535
28	0x3f91fb9a	1.1404908
29	0x3f91280c	1.1340346
30	0x3f9368f3	1.1516403
31	0x3f92a22f	1.1455745
32	0x3f907087	1.1284341
33	0x3f915c14	1.1356225
34	0x3f936961	1.1516534
35	0x3f923bf4	1.1424546
36	0x3f91392f	1.1345576
37	0x3f916b3e	1.1360853
38	0x3f90d17e	1.1313932
39	0x3f90f581	1.1324922
40	0x3f90f4f9	1.132476
41	0x3f8caf7a	1.0991051
42	0x3f9484e0	1.160305
43	0x3f9106a5	1.1330153
44	0x3f91eb7a	1.1399987
45	0x3f91078c	1.1330428
46	0x3f92a816	1.1457546
47	0x3f9272c8	1.1441278
48	0x3f907f47	1.1288842
49	0x3f91c5d3	1.1388496
50	0x3f942b9c	1.1575809
51	0x3f933068	1.1499147
52	0x3f945865	1.1589476
53	0x3f912ae8	1.1341219
54	0x3f90f507	1.1324776
55	0x3f91cd00	1.1390686
56	0x3f9464e8	1.1593294
57	0x3f91592a	1.1355336
58	0x3f903317	1.1265591
59	0x3f940c32	1.1566222
60	0x3f904932	1.1272337
61	0x3f924291	1.1426564
62	0x3f93e57b	1.1554407
63	0x3f91e088	1.1396646

11.bias f4 [64]
0	0x3db90315	0.09033791
1	0x3df100da	0.117677405
2	0x3ddb14eb	0.10697349
3	0x3e02d526	0.12776622
4	0x3e00895f	0.12552403
5	0x3dd45106	0.103670165
6	0x3ddbc12b	0.10730203
7	0x3e0c0db2	0.136771
8	0x3db10f40	0.08645487
9	0x3db37307	0.08762174
10	0x3ddc918c	0.10769948
11	0x3dc825ac	0.0977281
12	0x3da298ef	0.07939326
13	0x3dc4eea5	0.0961583
14	0x3d8d36f2	0.068952456
15	0x3debf4b4	0.11521283
16	0x3d9dfa18	0.07713717
17	0x3d56d6e0	0.052451015
18	0x3dd1a9ea	0.10237487
19	0x3dedfcca	0.11620481
20	0x3e128114	0.14307052
21	0x3ded3bc1	0.11583663
22	0x3de5b164	0.11215475
23	0x3deafb07	0.11473661
24	0x3e072d95	0.13200982
25	0x3df5d2e0	0.12003112
26	0x3de25777	0.11051839
27	0x3dc8ef3f	0.098112576
28	0x3df74216	0.12073152
29	0x3dd98774	0.10621539
30	0x3e0347da	0.12820378
31	0x3df14c72	0.11782159
32	0x3de06cdd	0.10958264
33	0x3db6ee6d	0.08932195
34	0x3e02392e	0.12717125
35	0x3dce42e1	0.1007135
36	0x3dd0e447	0.101997904
37	0x3dbd1e7e	0.092343315
38	0x3dd6a716	0.10481088
39	0x3df4cd4c	0.1195322
40	0x3dbf5e09	0.09344108
41	0x3d38e798	0.04514274
42	0x3dfb22f1	0.12262524
43	0x3dc701d5	0.09717146
44	0x3de54a46	0.11195807
45	0x3df7ded8	0.12103051
46	0x3de5af14	0.11215034
47	0x3dd9f8ea	0.1064318
48	0x3dc85544	0.09781888
49	0x3df24f81	0.118315704
50	0x3dff3df3	0.12462988
51	0x3e004dd3	0.12529688
52	0x3e02eb33	0.12785034
53	0x3dee62ac	0.11639914
54	0x3dca0b38	0.09865421
55	0x3ddd652c	0.10810313
56	0x3e062014	0.13098174
57	0x3dd58fff	0.10427856
58	0x3dc3ba27	0.0955699
59	0x3e0846fe	0.13308331
60	0x3de54fbd	0.111968495
61	0x3dfbb54a	0.122904375
62	0x3df83a35	0.12120477
63	0x3df8fae5	0.12157229

11.running_mean f4 [64]
0	0xbdb99959	-0.09062452
1	0xbedd0230	-0.4316573
2	0xbe465c70	-0.193712
3	0x3da2ac23	0.07942989
4	0xbeab11a7	-0.33411905
5	0x3e27f6b3	0.16402702
6	0xbec4b25a	-0.3841732
7	0xbf0f1290	-0.558877
8	0xbc8a1831	-0.016857238
9	0xbd90e873	-0.07075586
10	0xbe449e2c	-0.19200963
11	0x3de8e741	0.11372233
12	0xbd9e7765	-0.077376164
13	0xbd0432c0	-0.03227496
14	0x3ca534e4	0.020166822
15	0x3e53a69e	0.20669028
16	0xbdf9ec37	-0.122032575
17	0xbe4d9009	-0.20074476
18	0xbd92fe99	-0.07177467
19	0xbece0541	-0.40238383
20	0x3ec409a9	0.3828862
21	0xbd4264dc	-0.04745947
22	0xbefd3cf9	-0.4946058
23	0x3eec60c9	0.4616759
24	0x3f1208a8	0.5704446
25	0xbeb228d1	-0.34796765
26	0xbec37c51	-0.38180783
27	0x3c91839c	0.017762952
28	0xbeedb250	-0.46425104
29	0xbd00b204	-0.03141977
30	0x3dd60157	0.10449474
31	0xbe441817	-0.19149815
32	0xbf3464f9	-0.7046657
33	0xbd2a842a	-0.041629948
34	0x3dda793d	0.106676556
35	0x3d9bd765	0.076094426
36	0xbe82ab8b	-0.25521502
37	0x3e4255b9	0.18978013
38	0xbe06584b	-0.13119619
39	0xbf136190	-0.57570744
40	0x3e0322f3	0.12806301
41	0x3dba5542	0.09098293
42	0x3e05897a	0.13040724
43	0xbe4908e2	-0.19632295
44	0xbecc02fe	-0.39846033
45	0xbef8f543	-0.4862462
46	0xbebf2415	-0.37332216
47	0x3ee57b53	0.4482065
48	0xbe00065a	-0.12502423
49	0x3e9b698d	0.30353966
50	0xbe82e192	-0.25562721
51	0xbe9264a0	-0.28592396
52	0xbdb7fad9	-0.08983392
53	0x3e82584e	0.25457996
54	0xbefea7e4	-0.49737465
55	0x3f086d1f	0.53291506
56	0x3dfc0479	0.123055406
57	0xbe47c2dc	-0.19507927
58	0xbe93d266	-0.2887146
59	0xbd9dc792	-0.07704081
60	0xbd80f020	-0.062958
61	0x3e97cd61	0.2964888
62	0xbf2afb0d	-0.66789323
63	0xbe0db57a	-0.13838759

11.running_var f4 [64]
0	0x3d85f32c	0.06540522
1	0x3dc79907	0.097459845
2	0x3dc8145a	0.09769507
3	0x3da16b8d	0.07881842
4	0x3da94e79	0.082669206
5	0x3dcb5813	0.09928908
6	0x3dabea44	0.08394292
7	0x3d9cb3d1	0.07651485
8	0x3da6870f	0.08131229
9	0x3db9b833	0.09068336
10	0x3db2db07	0.087331824
11	0x3da88f96	0.08230512
12	0x3dbe8237	0.0930218
13	0x3dc0c57d	0.09412668
14	0x3da09b20	0.07842088
15	0x3d9ddd65	0.07708243
16	0x3d759aa6	0.059961937
17	0x3d9ffbe2	0.07811715
18	0x3dac6d76	0.084193155
19	0x3dd38acc	0.10329208
20	0x3d62edfd	0.055402745
21	0x3dc023c1	0.093818195
22	0x3da65c14	0.08123031
23	0x3d930c2e	0.071800575
24	0x3dc900d6	0.098146126
25	0x3dd965aa	0.10615094
26	0x3daa3a67	0.083119206
27	0x3d7f1faf	0.062286075
28	0x3da462c5	0.08026651
29	0x3d83b1bc	0.064303845
30	0x3d93e7ab	0.072219215
31	0x3dad70ba	0.084687665
32	0x3dd10646	0.10206275
33	0x3d9dc32c	0.07703242
34	0x3d93501a	0.071930125
35	0x3db5ed0e	0.08883105
36	0x3d7db810	0.061943114
37	0x3dc1e809	0.09468085
38	0x3da00be0	0.07814765
39	0x3da6e5a4	0.08149269
40	0x3ddeb224	0.108738214
41	0x3da0bbce	0.07848321
42	0x3d8982df	0.06714415
43	0x3da26929	0.07930214
44	0x3d889ee6	0.066709325
45	0x3db9ff54	0.09081903
46	0x3d9e4660	0.07728267
47	0x3da78375	0.0817937
48	0x3db26915	0.08711449
49	0x3d815d09	0.06316573
50	0x3d9fe414	0.07807174
51	0x3daf11e9	0.08548338
52	0x3d933316	0.07187478
53	0x3deb40d0	0.114869714
54	0x3da57d9d	0.080805995
55	0x3d835471	0.0641259
56	0x3d9dcbee	0.07704912
57	0x3d8241a0	0.06360173
58	0x3dd63872	0.10459985
59	0x3da1865b	0.078869544
60	0x3d9fe187	0.07806688
61	0x3dc7b948	0.097521365
62	0x3da75ca7	0.08171969
63	0x3dc56dcc	0.09640083

16.weight f4 [32, 64]
0	0x3dff3668	0.12461549
1	0xbdc24efe	-0.09487723
2	0x3dee6176	0.11639683
3	0x3e4c17d5	0.19930966
4	0xbdf8198f	-0.1211425
5	0x3cb7534d	0.022378588
6	0x3de4b604	0.11167529
7	0x3debd152	0.11514534
8	0x3cdeed1b	0.02721267
9	0x3e2a93cc	0.16657943
10	0x3d30656b	0.04306547
11	0xbcab873b	-0.020938506
12	0x3e0fba35	0.14035876
13	0x3e5814fa	0.21101752
14	0xbc8d8c84	-0.017278917
15	0xbce7d05f	-0.028297601
16	0x3d3e1adf	0.046412345
17	0xbd969954	-0.07353464
18	0x3e2c55ef	0.16829656
19	0xbd58ff1f	-0.052977677
20	0x3e0bf8dc	0.13669151
21	0x3d9a63e4	0.07538584
22	0xbde34588	-0.110972464
23	0x3cb66519	0.022265004
24	0x3d21c614	0.039495543
25	0xbda44981	-0.08021832
26	0x3bcde97f	0.0062839384
27	0xbdd3b36d	-0.10336957
28	0xbd1e2e51	-0.03861839
29	0xbd72ded0	-0.05929452
30	0x3e59e045	0.21276958
31	0xbe5d60ee	-0.21619007
32	0x3d0fd859	0.035118435
33	0x3db553f6	0.08853905
34	0x3e323a62	0.17405084
35	0x3cf8e4e9	0.03038259
36	0xbcae41a8	-0.021271542
37	0x3e1fee60	0.15618277
38	0x3c92bb53	0.017911589
39	0xbdc2f940	-0.09520197
40	0x3d6960b2	0.05697698
41	0x3d71f397	0.059070196
42	0x3e43b710	0.19112802
43	0x3d9ec16f	0.07751738
44	0xbd787f55	-0.06066831
45	0x3d8a93cd	0.06766472
46	0xbdc7c941	-0.09755183
47	0xbcf2ab76	-0.029622775
48	0x3e1ebd83	0.1550198
49	0x3d95d20e	0.073154554
50	0x3d1304a2	0.03589309
51	0x3caa9dc0	0.020827174
52	0xbd11b0e4	-0.035569087
53	0xbd1e1513	-0.038594317
54	0xbe540920	-0.20706606
55	0x3e790e7f	0.24321936
56	0xbd41bf0e	-0.047301345
57	0xbd535c0e	-0.051601462
58	0xbdb4cff2	-0.08828725
59	0x3e2fb0ba	0.1715726
60	0x3de47bb8	0.1115641
61	0xbd383504	-0.044972435
62	0x3d24d09b	0.040238004
63	0xbca79690	-0.020457536
64	0x3b2f3388	0.0026733596
65	0x3db2ff3f	0.087400906
66	0xbe0059e0	-0.12534285
67	0x3d920c37	0.07131236
68	0xbd8a4690	-0.0675174
69	0xbde3ee9a	-0.11129494
70	0xbdba67d1	-0.09101833
71	0xbbec2316	-0.007206331
72	0xbd0bfa8e	-0.034174494
73	0x3d85fa47	0.06541877
74	0xbdeb2ac9	-0.1148277
75	0xbdac5918	-0.08415431
76	0xbc65e46e	-0.014031513
77	0x3de93333	0.113867186
78	0xbddf501d	-0.10903952
79	0xbdcac826	-0.099014565
80	0x3d5e409e	0.054260843
81	0xbd8b4701	-0.06800652
82	0xbd0f0ec5	-0.034926195
83	0xbba883db	-0.0051426715
84	0xbe06406b	-0.13110511
85	0x3d9bf553	0.07615151
86	0xbcaf2cf2	-0.021383736
87	0xbdca4f2c	-0.09878382
88	0x3cb0b841	0.021572234
89	0xbcee3524	-0.029078074
90	0xbba8785d	-0.0051413015
91	0x3d4e1045	0.050308485
92	0xbe0fef2f	-0.14056085
93	0xbd581176	-0.052751027
94	0xbd4fbf97	-0.050719824
95	0xbdf7c8b1	-0.12098826
96	0x3d21d794	0.039512232
97	0xbd9f3633	-0.077740096
98	0x3d876bae	0.06612335
99	0x3d4cbe63	0.049986254
100	0x3d5ea8d7	0.054360237
101	0xbcbc2f41	-0.022971751
102	0xbdfc770a	-0.123273924
103	0x3ada6a4d	0.001666376
104	0xbdb8b79e	-0.09019397
105	0x3d8f5db9	0.07000298
106	0x3d9c5fd7	0.076354675
107	0xbdf86879	-0.121293016
108	0xbc53d33b	-0.012928779
109	0xbce41632	-0.027842615
110	0x3d0526c2	0.032507665
111	0x3df0b592	0.11753382
112	0x3c8dc30d	0.017304922
113	0xbcb93dcd	-0.022612477
114	0xbdcbb23c	-0.09946105
115	0x3dc30d8e	0.0952407
116	0xbc4f43da	-0.012650454
117	0x3bcf86b8	0.0063331984
118	0x3dabbbdf	0.08385443
119	0x3d1a9a52	0.037744828
120	0xbde594cf	-0.112100236
121	0xbdf05d06	-0.11736493
122	0x3d89b319	0.06723613
123	0xbdd1ecd6	-0.10250251
124	0xbe0aaf10	-0.13543344
125	0xbd440796	-0.047858797
126	0x3c0f4e18	0.008746646
127	0x3cb5de20	0.022200644
128	0x3e62c783	0.2214642
129	0x3e34fa80	0.17673683
130	0xbd5df7fd	-0.05419158
131	0x3dd92783	0.106032394
132	0xbbccf422	-0.006254689
133	0xbd17fed3	-0.037108254
134	0x3d6a9294	0.057268694
135	0xbbcad9ac	-0.0061904993
136	0xbde5634d	-0.11200581
137	0xbdd6a0c9	-0.10479886
138	0xbd80aff2	-0.06283559
139	0xbe0b039e	-0.13575599
140	0x3c32d51b	0.010915066
141	0xbe57609b	-0.21032946
142	0xbe056ba2	-0.1302934
143	0xbd22a366	-0.03970661
144	0x3d1ece08	0.038770705
145	0xbdca4341	-0.09876109
146	0x3cceb665	0.025233457
147	0x3d88acf0	0.0667361
148	0xbd701e2a	-0.058622517
149	0x3ca333f1	0.019922229
150	0x3e19ccb5	0.15019496
151	0xbd9efd97	-0.07763212
152	0xbda8d9fc	-0.08244702
153	0x3e0d890a	0.13821808
154	0x3bb3d5f6	0.0054881526
155	0x3ccb9071	0.024849148
156	0xbd367c63	-0.04455222
157	0xbd24f4b8	-0.040272444
158	0xbd9e5d53	-0.07732644
159	0x3e0fba8e	0.14036009
160	0x3e47f01c	0.19525188
161	0xbdd2e717	-0.10297983
162	0x3dd8387f	0.10557651
163	0xbe0ef32c	-0.1395995
164	0x3ddf39bd	0.108996846
165	0xbe2ae74f	-0.166898
166	0x3e316712	0.17324474
167	0xbcb04cb9	-0.02152096
168	0x3d8b804c	0.0681158
169	0x3cb65c41	0.022260787
170	0xbd9be954	-0.07612863
171	0xbba51325	-0.0050376826
172	0x3e479857	0.19491707
173	0x3dc5960e	0.09647761
174	0x3d2debd1	0.04246122
175	0xbe35145c	-0.17683548
176	0xbdba6ef8	-0.09103197
177	0xbdd4347d	-0.10361574
178	0x3e1757e1	0.14779617
179	0xbd68a696	-0.056799494
180	0x3dfdc1f6	0.12390511
181	0xbc94b4cb	-0.018152615
182	0x3e060d7f	0.13091086
183	0xbdb2f8a2	-0.08738829
184	0x3d9b744b	0.075905405
185	0x3df01abc	0.11723849
186	0x3e75bcea	0.23997846
187	0x3c935e1c	0.01798921
188	0xbd5dda81	-0.05416346
189	0x3d4440ca	0.04791335
190	0x3e046c9d	0.12932058
191	0xbcddcf27	-0.027076317
192	0x3b19edd8	0.0023487713
193	0xbccba0d3	-0.02485696
194	0x3da05003	0.07827761
195	0x3def7ff8	0.1169433
196	0xbe5b6afa	-0.21427527
197	0xbc2b36a6	-0.010450041
198	0x3c0c6dfc	0.008571144
199	0xbbd919ec	-0.0066254046
200	0x3e50bc7c	0.20384401
201	0x3d8cb347	0.06870132
202	0x3e387b32	0.18015745
203	0xbd5f333a	-0.054492213
204	0x3d95c253	0.07312455
205	0x3d388589	0.045049224
206	0x3da5f1a4	0.0810273
207	0xbd0d07fa	-0.034431435
208	0x3e1379de	0.14401957
209	0x3db1ea39	0.086872526
210	0x3e1a63d6	0.15077147
211	0x3d2d72d6	0.042345844
212	0xbd76ceb6	-0.06025573
213	0xbe41cd88	-0.1892606
214	0xbbce3172	-0.0062925154
215	0x3db63539	0.0889687
216	0xbe095ad8	-0.1341356
217	0xbe1704f6	-0.14747986
218	0xbde2032c	-0.11035761
219	0xbdc74390	-0.097296834
220	0x3da5791d	0.08079741
221	0xbdd3350d	-0.10312853
222	0x3dd8911c	0.105745524
223	0xbda51511	-0.08060659
224	0xbde32704	-0.11091426
225	0x3d0ac7cd	0.03388195
226	0x3e1410c6	0.14459524
227	0x3e2f7124	0.17133003
228	0xbcde5d0d	-0.02714398
229	0x3d868e36	0.06570093
230	0x3e51944a	0.20466724
231	0x3d739542	0.059468515
232	0xbcfc4a1e	-0.03079706
233	0xbcba6afb	-0.02275609
234	0x3d719b07	0.058985736
235	0x3e5d2933	0.21597748
236	0x3e0507b8	0.12991226
237	0x3e239e90	0.15978456
238	0xbe17298a	-0.1476194
239	0xbd46d086	-0.048538707
240	0x3dbac92c	0.09120402
241	0xbd8b576b	-0.06803783
242	0x3de77f1b	0.1130354
243	0xbde6c219	-0.1126749
244	0x3e08b15c	0.13348907
245	0x3c20da84	0.009817723
246	0xbd8b7e4b	-0.06811198
247	0x3d5ffacc	0.054682538
248	0x3e0806da	0.13283864
249	0x3e0b589b	0.13608019
250	0x3dbb4be1	0.09145332
251	0x3bbe2c3a	0.005803612
252	0xbddfb3bc	-0.109229535
253	0x3b9d5690	0.004801579
254	0x3e00ac29	0.12565674
255	0xbd7b0cfc	-0.06129168

16.bias f4 [32]
0	0x3e38196c	0.17978448
1	0xbd807b2b	-0.062734924
2	0x3e0a1185	0.13483246
3	0x3d9e0435	0.07715646
4	0xbd4c0df4	-0.049817994
5	0xbd620c90	-0.05518776
6	0x3dc937cd	0.09825096
7	0x3d175969	0.036950503
8	0xbd09484c	-0.033516213
9	0x3b44b4f1	0.0030015076
10	0x3c96f72d	0.01842841
11	0x3c72a543	0.014809909
12	0x3e043df4	0.12914258
13	0x3d8c2d74	0.06844607
14	0x3df176be	0.117902264
15	0x3bc06d1b	0.0058723814
16	0x3e2022bf	0.15638255
17	0x3e18a453	0.14906435
18	0x3e0032f0	0.12519431
19	0xbcb3aa93	-0.021931922
20	0x3d0dcb0a	0.03461746
21	0x3e0b1cbf	0.13585185
22	0x3d1455e8	0.03621474
23	0x3d8c17ae	0.06840454
24	0xba996564	-0.001170319
25	0x3de2e793	0.110793255
26	0xbdbcc813	-0.09217849
27	0xbc985f01	-0.018599989
28	0x3b5e5754	0.0033926563
29	0xbd6072a6	-0.054796837
30	0x3d20ff06	0.03930571
31	0x3e29a886	0.16568193
