03_AML2425_Unlearning/Practice/checkpoint/trained_model.pth (torch, 245369 bytes, 22 tensors)

0.weight f4 [32, 3, 3, 3]
00000000: 128a d33c b304 f43d e183 0fbe 6c0b f3bd
00000010: a220 4ebd 53b0 803d 8029 613c 9ab9 2d3e
00000020: 9a7f 85bc d205 333d c6d9 93bd 5bc2 13bd
00000030: 3171 3fbe 7367 00be 5aed 9bbd 0e67 08bc
00000040: a051 8a3d 7142 dc3d c6f4 3abe 822a 01be
00000050: 4f0c 863d cc3f 0b3e 25ce 20bd 37a7 2c3e
00000060: 4104 7dbd 2cbd a23c 1057 4a3e 16e7 9cbd
00000070: 32f4 2cbd bb34 933d 7e8b 5fbd cfdd 293e
00000080: 3e3b 84bd baf1 fcbd 69e7 4ebe 19b1 50be
00000090: 809c ffbd f672 123e 2a92 933d c232 793d
000000a0: 65bc 12bd 6ad4 0fbe fd0d f8bc 5728 87be
000000b0: 9355 71be b2ce 09be d23e a43d e42c 983d
000000c0: bdda d2bd ab04 f5bc b365 cc3d 23c6 373e
000000d0: 0c36 653d 0fae 85bb c925 713d 1617 22be
000000e0: df70 da3c d99e 46be 04ce ffbd 82ad 04bd
000000f0: e3fa 043e f24a 433e f0e7 3c3d 7646 ea3a
00000100: 3fe3 a03d 5cd6 32bd 1a74 81bd 836b c43c
00000110: 4b3a 083e 704b 013e 3840 19be 207a 22bd
00000120: c0ae ad3d 7311 453e 65e1 393e 834a fb3d
00000130: a88a 0d3d 0ec3 26be deb1 a5bd c367 2cbe
00000140: d91b 59be 7c21 113e 98c6 193e ff7c 48be
00000150: ee68 a43b 64d4 53bd 2a0b 4ebd 51f2 94bd
00000160: f3b9 c03d 561f bdbd 0c1a a83d b000 063e
00000170: b5b0 203e 3c69 883d 299c 48be 3f6f 0cbe
00000180: f3f2 0b3e af2d a13d 9dfa ebbd e931 c6bd
00000190: 0a0c 623e e561 463e 54d3 fabd 4ed2 94bd
000001a0: 021d 30be 4c9e b73b 9e9f f2bd 2e65 a3bd
000001b0: a971 44bc 4d9e 183b 9dd9 7dbd f282 ce3d
000001c0: 4d53 4bbe 1a7d 303e 0203 113e 8ccb 3cbe
000001d0: e01f 0d3d d56e c73c efe3 7e3c f59c 853d
000001e0: 7d84 dc3d 36fa 21bd f7c7 8ebd 46ab 0b3e
000001f0: 9753 49be 0614 dbbc 44d8 2a3c 7bc9 71bd
00000200: 9c74 68bc 4fc7 abbd e369 68bd 2558 b53d
00000210: cf6c 86bd e2b0 d9bc 8c15 493e 5aef 32bd
00000220: a267 03bd 72e7 56bd 8fe8 093d 8c19 f63d
00000230: d2a0 343e 7652 ff3d 780d 3c3e 4605 99bc
00000240: 3c0b 0ebe ab14 c7bd d69b 093e 484f 27bc
00000250: fe4c 02be 0cdc 2dbe 3013 37be c8b0 3fbe
00000260: 48be 5cbd 9aae 503e 3109 2d3e 254e d3bd
00000270: 911c 2d3e 9654 fdbd 8737 50bb c6e0 02bd
00000280: 4f79 a5bc db08 82bc 75d7 25be 3422 18be
00000290: d358 6abc c3bb ba3c 8120 84bd 97da ee3d
000002a0: ea66 11be 7de4 a83c 7aed 7d3e 33ae 77bd
000002b0: dd10 513e 065a 953d f735 19be d931 1d3e
000002c0: 6c92 9f3b a740 cdbd 8193 103e e0e0 17be
000002d0: e92c 3f3c 729d 25bd 0bd3 e33d deea 5b3d
000002e0: f85e ca3d 3597 833d bf53 8ebd 0e34 8dbd
000002f0: d303 3cbe e1db 113e dabe 403e ba8f 373e
00000300: 14d7 20be c7b5 87bc a7c4 1bbe 41b9 b4bd
00000310: b686 edbd d720 703d c331 e1bd 03b3 dc3b
00000320: 8cb8 203d e8d2 f73d 46cc 12be 2710 ebbd
00000330: 55c1 33bd 3c92 3f3e 1a95 53bc ec99 ef3d
00000340: 0cde d73c 0bb3 123b dc88 23bd 8c23 99bd
00000350: f35d 3b3b e505 bebc 1cda 593b 7d60 123d
00000360: 9391 cdbd c2e4 b9bd c84c 3b3e ccf2 07be
00000370: 0a95 243c ab2f 5c3e 49de e03d 6552 203d
00000380: 3c04 6bbe 3acb d93d beb5 19be ed12 5ebd
00000390: fbcd 98bd 5b3f ecbc 77c2 00ba 5086 163e
000003a0: b1ed 813c 0fe9 8f3d 1506 013e 21e2 edbd
000003b0: 89be d23d abbe 1abe 605e 93bd 27ee 8a3d
000003c0: e60b 043d 10ed 083e f4e4 12be 34e8 413c
000003d0: 2c73 c33d 8f56 28be 275f 293e 851f 24be
000003e0: 9c0d 083d 613e aa3a 380e b5bd 1534 923d
000003f0: e5da ff3d 8a94 c7bd 5c97 03be 03a4 b1bd
0.025822673 0.11914959 -0.14015152 -0.11867413 -0.05032409 0.06283631 0.0137428045 0.16965333
-0.016296197 0.043706723 -0.07219271 -0.036074024 -0.18695523 -0.12539463 -0.076136306 -0.008325351
0.0675385 0.1075486 -0.18257436 -0.12613872 0.065453164 0.13598555 -0.039259095 0.16860662
-0.061771635 0.019865595 0.19759774 -0.07661264 -0.04222507 0.07187792 -0.05457639 0.1658852
-0.06456612 -0.12350793 -0.20205463 -0.20380057 -0.12481022 0.14301667 0.07205613 0.060839422
-0.0358242 -0.14045873 -0.030280108 -0.26397964 -0.235678 -0.13457754 0.080197945 0.07430437
-0.10295627 -0.029909452 0.09980335 0.17946677 0.055959746 -0.0040795873 0.058873925 -0.15829119
0.02666515 -0.19396533 -0.12490466 -0.032392032 0.1298633 0.19071558 0.04611963 0.0017873782
0.07855844 -0.04366146 -0.06320973 0.023977047 0.13303487 0.12626433 -0.14965904 -0.03966725
0.084805965 0.19244938 0.18152387 0.12270071 0.03455606 -0.16285345 -0.08090566 -0.16836457
-0.2120203 0.1417293 0.15017164 -0.19578932 0.0050173914 -0.051716223 -0.050303616 -0.07272781
0.09410467 -0.092344925 0.08208093 0.130862 0.15692408 0.06660697 -0.1959082 -0.13714312
0.13666897 0.078700416 -0.1152241 -0.09677488 0.22074905 0.19373281 -0.12247339 -0.07266675
-0.17198566 0.0056035873 -0.11846851 -0.07978283 -0.011989989 0.0023287714 -0.06197511 0.100835696
-0.19855995 0.17235222 0.14161304 -0.18437022 0.034454226 0.024344841 0.015557273 0.06524078
0.10767458 -0.03954526 -0.06971734 0.13639554 -0.19660793 -0.026742946 0.010427538 -0.059030037
-0.014187958 -0.083876245 -0.056741606 0.08854703 -0.06563722 -0.026573602 0.19637126 -0.043685295
-0.032081254 -0.052466817 0.03366905 0.120165914 0.17639473 0.124669 0.18364513 -0.018679272
-0.13871473 -0.09720739 0.13438353 -0.010211773 -0.12724683 -0.16978472 -0.17878413 -0.1871978
-0.053892404 0.20379105 0.16898037 -0.10317639 0.16905428 -0.12369649 -0.0031771378 -0.031952642
-0.020199446 -0.015873363 -0.16195472 -0.14856797 -0.014303404 0.02279461 -0.06451512 0.116627865
-0.14199415 0.020616764 0.24797621 -0.060468864 0.20416589 0.07292561 -0.14961992 0.15351047
0.00486975 -0.10022097 0.14118768 -0.14831877 0.011668422 -0.040433355 0.111242376 0.053690784
0.09881395 0.06425325 -0.06949567 -0.06894694 -0.18360834 0.14244033 0.18822804 0.17925921
-0.15707046 -0.01656617 -0.15211736 -0.08824397 -0.1159796 0.05862507 -0.109958194 0.006735207
0.039238498 0.12100774 -0.14335737 -0.1147769 -0.043885548 0.18708128 -0.012913967 0.1169928
0.026350997 0.002238455 -0.03992544 -0.07477483 0.0028589934 -0.02319617 0.0033241576 0.03573655
-0.10037532 -0.09076835 0.18291008 -0.13276213 0.010045299 0.21502559 0.109798975 0.039141078
-0.22950834 0.106344655 -0.15010735 -0.054217268 -0.07461163 -0.028838804 -0.000491179 0.14699674
0.01586041 0.07026874 0.12599976 -0.11615396 0.10290248 -0.15111797 -0.07195735 0.06783705
0.03223791 0.13371682 -0.14345151 0.011835147 0.09543452 -0.1643927 0.16540204 -0.16027649
0.033216104 0.0012988561 -0.08840603 0.0713884 0.12492923 -0.097451285 -0.12850708 -0.08673861

0.bias f4 [32]
00000000: f5c7 6d3e 31c0 cabd c448 153c 8379 05bd
00000010: b4c2 72bd ef5f 903c 7632 163e d863 023d
00000020: 9c29 c4bd 5b88 3fbd 4900 96bd 0077 a9b5
00000030: a57c 713e 65c1 253e 23dd a9bd c2fc 3d3d
00000040: c02c b2bd 753a 43be 0ba4 abbd dbde 0d3e
00000050: 9030 c63c 65e1 fc3d dd23 ef3d 9457 f5bd
00000060: aa64 f13d ec37 2b3e 63fc edbd 2b29 1e3e
00000070: fea4 2f3e fc6b 303e eb6b 2dbd 0e0a 973d
0.23220809 -0.09899939 0.009111587 -0.032586586 -0.059267715 0.01762387 0.14667687 0.0318335
-0.09578249 -0.046760898 -0.07324273 -1.2626115e-06 0.23582704 0.16187055 -0.082941316 0.046383627
-0.08699942 -0.19065268 -0.08380898 0.13854544 0.024193078 0.12347678 0.11676762 -0.11979595
0.11786778 0.16720551 -0.116204046 0.15445392 0.17152783 0.17228693 -0.042339247 0.07374965

1.weight f4 [32]
00000000: cd84 6e3f 1421 453f 6bbf 7b3f 38a1 803f
00000010: abdc ae3f b3b2 623f e818 623f eb72 883f
00000020: deeb 853f 6727 523f 31c1 673f 9b4f 833f
00000030: ff77 653f 1611 803f ccb9 4e3f 4255 8a3f
00000040: 9a17 4e3f 3d4b 8a3f 956b 6b3f b5e7 833f
00000050: 3130 8c3f 7ac4 863f 9f01 6d3f 403e 6d3f
00000060: d87d 3d3f 3c8a 4b3f 0ca7 843f 5b15 5c3f
00000070: b058 863f b58a 6b3f 02ab 983f bde5 713f
0.9317139 0.770036 0.98338956 1.00492 1.3661093 0.88553923 0.88319254 1.066007
1.0462606 0.82091373 0.9052916 1.0258669 0.89636225 1.0005214 0.80752254 1.0807269
0.80504763 1.0804211 0.9196103 1.0305086 1.0952207 1.052871 0.925806 0.9267311
0.7402015 0.79507804 1.0363479 0.85970086 1.0495815 0.92008525 1.1927187 0.9449118

1.bias f4 [32]
00000000: f721 253c d3f5 a7be e624 f8bd ca7a 10bd
00000010: f567 22be ea9c 59be de3d 373c 2691 bebd
00000020: a4b2 f1bd f082 adbd 40df 39be f51c f2bd
00000030: 72f4 6bbe 38a6 12be 5ca5 2bbe 5af9 4dbe
00000040: 3166 20be 5475 b7bd 79ab 65bd 112f 30be
00000050: f26a 43be 195a a7be d799 03be c372 94be
00000060: 556b 78bc d0a3 4ebe 3f2c 48be 8dde 50bd
00000070: 4e95 60bd 4828 92bc 2113 54be c3ad 0cbe
0.010078899 -0.32804736 -0.12116413 -0.03527335 -0.15859969 -0.21251264 0.011184184 -0.093050286
-0.11801651 -0.0847224 -0.1815157 -0.11821929 -0.23042467 -0.1432122 -0.16762298 -0.20114651
-0.15663983 -0.089579254 -0.056071732 -0.17205454 -0.19083765 -0.32685927 -0.12851654 -0.28993806
-0.015162309 -0.20179677 -0.19548129 -0.05099349 -0.054829888 -0.017841473 -0.20710422 -0.1373816

1.running_mean f4 [32]
00000000: cd72 6b3e 718e c7bd 3fe8 653c de05 0cbd
00000010: c3c4 79bd e8de b33c 96f9 173e 4664 e93c
00000020: fb4d c4bd 7601 40bd 222f 98bd 91bf 303a
00000030: c28c 793e 8a8e 203e ed17 9bbd 8a9c 403d
00000040: f0dc adbd fbf9 44be 952d aebd 864c 0d3e
00000050: a943 c53c 8667 003e f1c0 f23d a845 f7bd
00000060: f1b5 ec3d 2c01 2b3e 794c f1bd 81a0 193e
00000070: 872f 303e e21a 313e fa63 2bbd b6bf 913d
0.22993012 -0.097439654 0.014032423 -0.034185283 -0.060978662 0.021956876 0.14841303 0.028490197
-0.09585186 -0.046876393 -0.07430865 0.0006742413 0.24370101 0.15679374 -0.07572923 0.047024287
-0.08489406 -0.19235985 -0.08504788 0.13798723 0.024080114 0.12539491 0.11853207 -0.12073833
0.1155814 0.16699666 -0.11782164 0.15002634 0.1720563 0.17295411 -0.041843392 0.07116644

1.running_var f4 [32]
00000000: 44af cf3d 70da 3c3f 0347 583d f751 2b3e
00000010: 6b4e 073d 57a3 893d 34d9 a23d 42a8 653d
00000020: 9105 0d3d d666 f63d db66 913d 4432 343d
00000030: eeda 623e a910 d23c 60f3 f93e 7153 893c
00000040: 96b3 473e 06dc 903d a2b8 d43d 9d9e f13c
00000050: 9420 f33c ed10 0f3d 7e26 563e 6089 993d
00000060: 1b07 9a3d f9ae 363d c4c0 293e ac16 d03d
00000070: 3000 5c3e 7d1a f83c 411f b53c b32d 193c
0.10140851 0.7377081 0.052802097 0.16730486 0.03303377 0.06720608 0.079515845 0.056068666
0.034429137 0.12031333 0.07099696 0.04399325 0.22153828 0.02564271 0.48818493 0.01676342
0.195021 0.07073216 0.103867784 0.029494578 0.02967862 0.03492825 0.20913121 0.07496905
0.075208865 0.04460046 0.1657744 0.10160574 0.21484447 0.030286068 0.02210963 0.009349274

5.weight f4 [64, 32, 3, 3]
00000000: 1405 22bc 307f 163c 6fe0 143c 2ecf 213c
00000010: 89c4 903d 5da9 c13d f046 9c3c 8d39 a53d
00000020: d0f0 d33d c2a4 2bbc a24a 1abd 8818 6fbc
00000030: e558 623b 5da9 8e3a cfd0 693d 7703 11bb
00000040: 140d 6abc 0b3b a6bc 1aaa e4ba 6d7e ebbc
00000050: f5be c0bd 330b d7bb 46fd c63c e483 4c3c
00000060: 7c2e 44bc f5be efbd 0c4f a0bd fe3a 9fbd
00000070: 08c7 a4bd 57ad ccbd bf4f 763c 5a41 d3bc
00000080: f9db 953d ffb8 bbbc 58e2 bfbd a754 36be
00000090: 630c 6fbd f3da 883d 8bd0 883d bc7a bd3d
000000a0: b214 123e a351 f13b 382b ec3d 7158 1d3d
000000b0: b9fc f63c 2d0a 59bd 32c6 623a 9541 8f3c
000000c0: f95b 613b 6090 713d b147 e23b 7722 a6bd
000000d0: 3875 183d e347 07bc a9b3 6cbd e822 7fbd
000000e0: 6430 d1bd 394c 9ebc 432e d33c 858b 8b3c
000000f0: 151a 02bd b0b9 a0bd 3720 26bd 0b35 19bd
00000100: 9d58 99bd 3fb1 78bd 9541 cd3d d266 9f3c
00000110: 89b5 673c 90a8 bb3c 9ec4 1fbc db5f febd
00000120: e7bf a03d 2d9b 433d 1787 f33b 9cf4 643d
00000130: a040 ae3d ab13 2d3d 7e30 09bd 4cf7 af3a
00000140: 4312 cd3d 4b9e fe3b d60e 8fbd 135f a83b
00000150: fdc8 35bc 0d8c cdbc e066 fc3c 8a76 b8bd
00000160: f20d dbbb 5bf7 37bd ba6d c3bd e034 88bd
00000170: 0a30 64bd b8bf 533d 0933 fbbc 0fc3 a33c
00000180: 7b2e 783c 997e a8bc 1997 1f3d 4bbf abbd
00000190: ce89 d939 1482 c2bb aa23 cdbb 0c3c d4bc
000001a0: d4a7 65bb 69c1 10be ea6b 1dbe b5b6 fdbd
000001b0: 65d0 83bd 768b 87bb 19a1 a9bd 4f4f 0b3c
000001c0: 6389 ba3c cdf9 3b3c a8f2 7c3c 33ef 22bc
000001d0: 0da0 9639 2a97 d7bd 6b95 77bd db4c e2bc
000001e0: 0f6d d33c 6820 cabc a53b d0bd f4e0 0bbd
000001f0: 128f 64bc 20d5 e7bd 8514 7fbc 52e1 9f3d
00000200: 1925 983c dbd2 5bba 7a40 0f3d 898f 7f3d
00000210: 38c0 44bd 09d0 ba3c 710b 92bb 56fb 45bc
00000220: d791 9eba 0d39 4bbd 3904 24bd b92d ffbb
00000230: e12a b7bd 79ba 98bd e16f 04be a5d6 09bc
00000240: 4647 7bbd cbdf 2b3d dbb5 d9bb de5a e4bb
00000250: 8f9f 6e3d dca2 653d de6f 39bb 41c5 35bb
00000260: bfdf 70bd a096 153d e5f4 563b 6248 7cbc
00000270: 3916 ce3d bd1f 363d de02 75bd 181b d9bc
00000280: c884 48bd fb1c c6bc 6b53 283d 0901 7c3b
00000290: 0a4d 3ebd 1ab4 7e3d 34dc 203d 7fc7 223d
000002a0: 0450 0ebd 838d ecbc a747 0bbd 7ed0 863c
000002b0: 6976 d23c c7f6 11bd a1a2 44bc dbdb b5bd
000002c0: b0bf 01bd 838f cebc f287 3a3a 0ebe e8bd
000002d0: 8e98 a73d 95e8 ca3d 2d54 583d 92e1 ed3d
000002e0: dea2 113e a16a 373b 3e0d e63d 39f9 d03c
000002f0: 866e 873b ca58 fa3b 9f8a 383c 80d9 13bd
00000300: 1a4f e23d 6713 393d 6e9f 7a3d 165a ab3d
00000310: 2f61 1e3d 7d5e 153d 8e96 a4bd 383c d3bc
00000320: 5995 03bd ec6d d3bc 988c 6e3d 5dbc 4e3d
00000330: f4c5 73bd 5dfb 11bd 9c0f 8e3c e805 0b3c
00000340: 2245 15bd e8a4 a73c 48b3 eb3b 3623 373c
00000350: 65ec bb3d b248 fabb f0cc 52bd c4b4 0abd
00000360: e629 39bd 9810 0eba 9603 82bd bf44 58bd
00000370: 33e4 4a3c ff28 efbc 5b54 67bd 79b6 0b3b
00000380: 9e99 c63c d2e4 a4bd 9a3e 56bd b18e 393b
00000390: 40e0 43bc 3d5b c83c dabc 373c b874 2abd
000003a0: 4947 84bc e28c 7abd 0a8c 443c da03 0e3d
000003b0: 91f8 2cbb 21be 7d3d bd9c 22bd c977 2bbd
000003c0: 0f03 96bd f139 b6bc 5e96 983d bd42 f2bc
000003d0: de48 4bbc 9cc1 ecbb b77f bbbb be14 19bd
000003e0: 9f22 843a 4761 26bd e962 2dbc c813 0fbd
000003f0: dcb9 1e3d 00e1 e8bc c1ec 33bd 22b1 22bd
-0.009888906 0.009185597 0.009086712 0.009876056 0.07068736 0.094561316 0.019076794 0.080676176
0.10348666 -0.010476293 -0.03766883 -0.014593251 0.0034537849 0.0010884214 0.0570839 -0.002212731
-0.014285345 -0.020291826 -0.0017445714 -0.028746808 -0.09411422 -0.0065626143 0.024290692 0.012482617
-0.011973973 -0.11706344 -0.07827577 -0.07774924 -0.08045775 -0.099939995 0.015033661 -0.025787998
0.07317347 -0.022915361 -0.093693435 -0.1780573 -0.058361422 0.06682386 0.066804014 0.09251925
0.14265707 0.007364468 0.11531681 0.038414422 0.030149804 -0.05298822 0.0008650749 0.017487327
0.0034387095 0.058975577 0.006905519 -0.081120424 0.037221164 -0.008256885 -0.057788525 -0.06228915
-0.10214308 -0.019323455 0.025778895 0.017034302 -0.031763155 -0.07847917 -0.040558066 -0.0374041
-0.07487605 -0.06071591 0.100222744 0.019458208 0.014142402 0.022907525 -0.009751467 -0.12420627
0.078491025 0.04775541 0.0074318754 0.05589734 0.0850842 0.042255085 -0.03349351 0.0013425141
0.10013249 0.007770335 -0.069852516 0.005138287 -0.011095283 -0.025091195 0.030810773 -0.090069845
-0.006685012 -0.04491363 -0.09542413 -0.0665071 -0.055709876 0.05169651 -0.030663984 0.019990472
0.015147801 -0.020568179 0.038962457 -0.083860956 0.00041492138 -0.0059359167 -0.006260355 -0.025907539
-0.003504266 -0.1413628 -0.15373197 -0.12388364 -0.064362325 -0.004136498 -0.0828268 0.008502795
0.02277059 0.011473131 0.015438713 -0.009944725 0.00028729477 -0.10526879 -0.06044523 -0.027624538
0.02580884 -0.024673656 -0.10167626 -0.03415008 -0.013950126 -0.11319947 -0.015568857 0.07806648
0.018572377 -0.0008385607 0.0349736 0.062392745 -0.048034877 0.022804277 -0.0044569303 -0.012083849
-0.0012097907 -0.049614955 -0.04004309 -0.007787433 -0.089437254 -0.07457442 -0.12933303 -0.008412992
-0.06134727 0.041961472 -0.0066439933 -0.00696884 0.058257636 0.056063518 -0.0028295438 -0.002773598
-0.05880713 0.0365206 0.0032799777 -0.015398117 0.100628324 0.04446386 -0.059817187 -0.026502177
-0.048954755 -0.02418374 0.04109518 0.0038452765 -0.04646019 0.062183477 0.039272502 0.039741036
-0.034744278 -0.028876072 -0.03400388 0.016456839 0.025691228 -0.035635736 -0.012001664 -0.08879825
-0.031676948 -0.025214916 0.00071155943 -0.11364375 0.08183394 0.09907643 0.05281465 0.1161529
0.14222285 0.002798714 0.112329945 0.025509464 0.0041330485 0.007639979 0.011263519 -0.036096096
0.11050244 0.04518452 0.0611872 0.08366792 0.0386669 0.036467064 -0.080365285 -0.02578555
-0.03212485 -0.02580925 0.05823955 0.050472606 -0.059514955 -0.03564011 0.017341428 0.008485295
-0.036442883 0.020464376 0.007193003 0.011177829 0.09175948 -0.0076380605 -0.051464975 -0.033863798
-0.045205973 -0.0005419343 -0.0634834 -0.052799936 0.0123835085 -0.029194353 -0.056476932 0.002131848
0.024243172 -0.080514565 -0.052305795 0.002831381 -0.011955321 0.024457568 0.011214459 -0.041615218
-0.016147273 -0.061169513 0.011996279 0.034671642 -0.0026393274 0.0619489 -0.03970026 -0.041862283
-0.07324802 -0.022244425 0.07450555 -0.029572839 -0.01240751 -0.0072252285 -0.005722012 -0.037373297
0.0010081119 -0.040620115 -0.010582664 -0.034930974 0.038751468 -0.0284276 -0.043926958 -0.03971971

5.bias f4 [64]
00000000: 3cf6 7bbc 9a2f 943d d434 dcbd 4c04 3d3d
00000010: aa22 943d 6e13 e7bd 78da 083d f2c0 ecbd
00000020: 7a35 1cbd 5c7e 273d 864c bc3d 8dc6 b93d
00000030: 1cc5 0b3e ccb8 f5bc 75c3 243d 468d b03d
00000040: 195d 3dbd 094c 86bc f06e 59bc 2c86 593d
00000050: 25f8 aebd e589 d93d b356 a63d ed95 a63c
00000060: 8bfe 693d fb15 613d f43f 6abd 4b86 32bd
00000070: 3600 4b3d cea4 69bc e4d2 833c d16d 323d
00000080: 8dc6 89bb 9e43 273e 62dc d23d 3a2d 29bd
00000090: b955 c0bd 6352 cfbc bbc1 97bc 18a8 c73d
000000a0: d308 a3bc 9023 74bd 65a6 4c3c 27ec 4ebc
000000b0: 9150 e6bc 8c1b 823d d9ea cb3d e0a2 d53d
000000c0: 9b4c 16bd e8c2 dbbd 73b3 91bd 68cd 10bd
000000d0: b4a0 67bd 9dc4 cebd 15d0 933d fc52 1a3d
000000e0: 373c cf3d 7a4c be3d 9ed6 babd 00ed 36bd
000000f0: 313f 20bc 6083 a13c 58fb 70bd 2b1b 683c
-0.015378531 0.07235642 -0.10752264 0.046146676 0.07233174 -0.11283003 0.033411473 -0.11560239
-0.038136937 0.04089199 0.09194283 0.09071074 0.1364941 -0.029995345 0.040225465 0.08620696
-0.046231363 -0.016393678 -0.0132710785 0.053106472 -0.085434236 0.106220044 0.08122005 0.020335162
0.057127517 0.054952603 -0.057189897 -0.043585103 0.049560748 -0.014260484 0.016091771 0.04356176
-0.0042045773 0.16334388 0.10295941 -0.041302897 -0.0939135 -0.02530784 -0.018524995 0.09748858
-0.019901669 -0.059604228 0.012490843 -0.012629545 -0.028114589 0.063529104 0.09956903 0.104314566
-0.03669415 -0.10730535 -0.07114305 -0.03535214 -0.056549743 -0.10096095 0.07217423 0.037676796
0.10118907 0.092919305 -0.09122966 -0.044659615 -0.009780691 0.019715965 -0.05883345 0.014166634

6.weight f4 [64]
00000000: 6988 713f e12f 753f 0d2d 6b3f 8453 6e3f
00000010: 683c 803f 1b55 723f 4e88 723f fd0e 7c3f
00000020: 357f 803f beb8 7c3f 930f 843f 7366 693f
00000030: aaac 773f e673 7b3f 384d 663f 8036 743f
00000040: 91cf 6b3f ea4f 6d3f 6706 7c3f 254b 693f
00000050: 255f 7c3f 00a1 6f3f 0aaf 6c3f 6561 703f
00000060: 48e5 7b3f 15fc 793f 0caf 7a3f f8c5 543f
00000070: 4e7b 6e3f 32f2 6b3f 1797 6a3f 1e20 7b3f
00000080: ba9b 6c3f 084d 783f 651d 7c3f d5d5 733f
00000090: 69fb 6d3f 291e 733f 6298 713f c5b1 7e3f
000000a0: ab87 7a3f 6b90 703f 0f12 6b3f d993 713f
000000b0: 98f2 753f d669 763f 7467 6c3f 5be8 793f
000000c0: 69c1 673f 7acc 663f 14bb 683f 1116 783f
000000d0: ac99 733f 4363 803f 275e 733f 48d9 7d3f
000000e0: da11 783f 577c 733f 05a6 6b3f 8d8e 6f3f
000000f0: f6e9 793f 131f 733f 5930 7b3f 237c 6d3f
0.9434877 0.9577618 0.9186562 0.93096185 1.0018435 0.9466111 0.94739234 0.9846037
1.003882 0.98719394 1.0317253 0.9117195 0.9674784 0.9822372 0.89961576 0.9539566
0.92113596 0.92700064 0.9844727 0.91130286 0.9858268 0.9360504 0.9245459 0.9389861
0.9839673 0.9765027 0.9792335 0.83114576 0.931569 0.92166436 0.91636795 0.9809588
0.9242512 0.9699254 0.9848235 0.95248157 0.92961746 0.94967896 0.9437314 0.99490005
0.9786326 0.93970364 0.9182443 0.9436622 0.96073294 0.9625524 0.92345357 0.9762017
0.90529495 0.90155756 0.9091046 0.9690867 0.9515636 1.0030292 0.9506554 0.9915967
0.9690224 0.951116 0.920502 0.9357689 0.9762262 0.9496929 0.9812065 0.9276754

6.bias f4 [64]
00000000: 0fb4 58be 424c dfbe 2a41 b8be acdd e7be
00000010: 61a2 91be dc58 1dbe 821b e6bd be31 a5be
00000020: faf1 57be efa3 27be d68a e2be 7d27 59be
00000030: 83dc 90be 8a3c aebe 27fd 94be a644 a9be
00000040: 7e74 96be cb7c d4be 356f 34be a615 b8be
00000050: 00d4 69be 0da5 8fbe 47dc a0be 5838 ffbd
00000060: 6e2c c5be bfe6 9fbe 7a90 16bf e7e6 89be
00000070: 231a 82be 6720 8ebe 1ae1 8ebe df9d b8be
00000080: fb70 99be aa80 c4be ebb7 74be 560c aabe
00000090: 79a2 77be b061 95be ae69 d4be 79f0 39be
000000a0: e941 9fbe c9dd b6be 73ae 3fbe 7713 a3be
000000b0: 27df 5dbe eff8 34be 2a4e 28be 2d8a b3be
000000c0: 5575 a7be ebc9 0abe d5d3 18be e3d9 afbe
000000d0: 5659 80be a108 97be c3fa cdbe 1123 05bf
000000e0: d008 c6bd d5e0 78be bfe5 91be d34f abbe
000000f0: 923a 89be d559 8fbe 311f a0be 8fe4 acbe
-0.21162437 -0.43612868 -0.35987216 -0.4528631 -0.28444198 -0.15365928 -0.112357154 -0.32264513
-0.210884 -0.1637113 -0.44246548 -0.2120647 -0.28293237 -0.34030563 -0.2909939 -0.33060187
-0.2938575 -0.4150146 -0.17620547 -0.35954016 -0.22834778 -0.2805561 -0.31418058 -0.124619186
-0.3851046 -0.31230733 -0.58814204 -0.26933977 -0.25410566 -0.27759096 -0.27906114 -0.36057946
-0.2996901 -0.38379413 -0.23898284 -0.33212537 -0.24183072 -0.29176092 -0.41486877 -0.1815814
-0.31104973 -0.35716084 -0.18718891 -0.31850788 -0.21667157 -0.17673086 -0.16436067 -0.35066357
-0.32706705 -0.13553588 -0.14924558 -0.34345922 -0.25068158 -0.2949877 -0.40230379 -0.5200663
-0.096696496 -0.24304517 -0.28495595 -0.3345934 -0.26802498 -0.27998224 -0.31273797 -0.33768126

6.running_mean f4 [64]
00000000: e416 0abf ed98 d5be 5e3a 91be 95f5 56be
00000010: 4314 c1be 4726 07bf c069 0dbf 221c 18bf
00000020: 7ade 20bf 841f 27bf d419 e2be 1a86 c0be
00000030: 5d81 06be 0ced 04bf d87c d0be 6b63 62be
00000040: b23b 59bf 22ff 07bf d386 82bf 6658 babe
00000050: e339 8dbf 9be5 c9be 4e19 a3bc 29b1 01bf
00000060: e01d ecbe da81 1cbf 7e0a 00bf cb7f ec3e
00000070: 9ae8 0dbe e8af 33bf d5cb dcbe bb46 59be
00000080: 8417 06bf ab6d 00bf 6e68 b2be edf5 52be
00000090: 196a 96bd e1d1 9abe 2e15 ddbe 00eb 0ebf
000000a0: 10af 95be 2636 babe ec4d 503e 42f7 81bf
000000b0: 5e7b 25be 92cb efbe 8a9f f9be 5c06 20bf
000000c0: 8ac8 083d 694f cabe 68f8 13bf e0fc b4be
000000d0: 68c0 19bf 3b0c 3ebf e510 ecbd cb66 0fbf
000000e0: e8f4 3dbf 0f37 bfbe 865c e9be 3602 1bbf
000000f0: d0d9 bbbe ea1e 91be 3173 2fbf 0d70 02bf
-0.5394118 -0.41718236 -0.28364843 -0.2099212 -0.3771077 -0.5279278 -0.55239487 -0.5941793
-0.6283947 -0.65282464 -0.4416033 -0.3760231 -0.13135286 -0.51924205 -0.40720248 -0.22108237
-0.8485671 -0.53123677 -1.0197395 -0.36395568 -1.1033291 -0.39432988 -0.019909527 -0.5066095
-0.46116543 -0.6113564 -0.5001601 0.46191248 -0.13858262 -0.70190287 -0.43124261 -0.21218388
-0.5237963 -0.5016734 -0.348453 -0.20601626 -0.07344455 -0.3023825 -0.4318022 -0.5582733
-0.29235125 -0.36369437 0.20342225 -1.0153582 -0.16160342 -0.46835 -0.4875453 -0.62509704
0.033394374 -0.3951371 -0.5780091 -0.35349178 -0.60059214 -0.7423741 -0.1152666 -0.56016225
-0.7420182 -0.37346694 -0.45578402 -0.6055025 -0.36689615 -0.28343898 -0.68535143 -0.50952226

6.running_var f4 [64]
00000000: 034c b43e 40a1 253f 4dce 823e b7cd aa3e
00000010: 8125 103f 4b05 ac3e a1c6 b13e 61db bb3e
00000020: 0092 e43e 540f 063f 662e 063f 5a51 eb3e
00000030: 7b1f b33e 79bb 833e de63 163f 32a0 833e
00000040: 9445 4c3f 17f7 153f 2fb9 6e3f 7205 813e
00000050: b2fe 3b3f f97a e33e 0452 763e 3512 d03e
00000060: 9d6c c63e 035c a63e 51e8 e63e 52be 7e3e
00000070: 2eba 703e ddae a63e 423a fb3e 9381 e03e
00000080: 6906 c33e 2235 3c3f 0f5d 1f3f f8ba 823e
00000090: f319 873e 2f2f b53e b80f b73e d9fa fe3e
000000a0: 0827 e53e b60c 7e3e 07d5 023f b5ea 413f
000000b0: 64d0 b53e 634a 913e 433f 353f 4b48 013f
000000c0: dc48 a23e 9dbb ea3e c6b8 b83e 641e 003f
000000d0: 1546 ae3e 99a0 fd3e 9b3a eb3e 91f6 df3e
000000e0: 10e5 fc3e 21b1 bf3e 5e6a 9e3e b533 fc3e
000000f0: fb48 103f 86e0 ac3e aee3 dd3e 027c f43e
0.35214242 0.6469917 0.2554802 0.33360073 0.56307226 0.33597788 0.34721854 0.3669081
0.4464264 0.5236714 0.5241455 0.45960504 0.34984955 0.25728968 0.58746135 0.25708157
0.7979367 0.58580154 0.9325132 0.25199467 0.7343551 0.44429758 0.24054724 0.4063889
0.3875474 0.32492074 0.45099118 0.24877289 0.23508522 0.32555285 0.49067885 0.43848857
0.38090828 0.73518574 0.6225137 0.2553327 0.26386985 0.3538756 0.3575418 0.49800757
0.4475634 0.24809536 0.51106304 0.7574876 0.35510552 0.28377065 0.70799655 0.50500935
0.31696212 0.45846263 0.3607847 0.5004637 0.34037843 0.4953659 0.4594315 0.43742803
0.4939351 0.37439826 0.30940527 0.492582 0.5636136 0.33765048 0.43337768 0.4775086

10.weight f4 [64, 64, 3, 3]
00000000: d8c7 d2bd d835 d8bd 2b1c e2bd 483a 91bc
00000010: 4a01 1ebd 2f81 41bd ae3e 2c3d 0f4b 463c
00000020: f92f b83b 560a f03d f5c4 f33d 23c8 fc3d
00000030: b380 a63b 0dc0 a83c 0764 a03c 6b43 82bd
00000040: 4d3c 5bbd 9a7b 91bd dd18 51bd 18ad dbbc
00000050: c484 bbbc 16a3 00bd 2546 52bb 025f c0bc
00000060: 2f12 bfbc 11e8 be3c bd3d 16bd 8724 843c
00000070: b814 7d3a e2e8 85bc 26fd 9cbc 650e 3fbc
00000080: 6108 05bc e2b6 35bd 6cdf 7cbd 73e4 8bbd
00000090: d204 d23c 48ac 7abc b93d 93bc 427e 3dbd
000000a0: e0d3 7fbd 37c7 20bd 0de0 2fbc baee 9ebd
000000b0: afd9 03bd 14ef 63bd 91e8 a8bd 8613 b2bd
000000c0: 1e28 74bd 23cc 95bd 0d5e 80bd ff7e 91bd
000000d0: 47fb 41bd d39a 52bd 8821 153e a990 503d
000000e0: ce9e 873d c328 533d 0caf 23bd cbf1 abbc
000000f0: b917 ff3c 51f4 86bc aa6d b7bc 639b 9cbd
00000100: 3c03 b2bd f843 c4bd f353 92bd 1b7c d5bd
00000110: 28ad cbbd 7a4d 56bc 690f 3fbc 8235 f4bb
00000120: ae45 03bd c309 ed3c ce1b d1bc 3835 7bbd
00000130: d87e 9bbc 2cb0 52bd 10ff a6bb bc5e ab3a
00000140: 3ffb f83b d96a 3cbd b20c d9bc 4b74 d9b9
00000150: 3ad0 12bd fba0 c3bd ddb6 3dbd 5d6d 90bc
00000160: a693 bfbd 2f44 27bc dcb9 ca3d d709 d63c
00000170: a05d 983d fd5b 8d3d caf8 8a3d 5381 963d
00000180: c2a0 b83d fcaf ff3d f6d4 1a3e cb46 65bb
00000190: 95df 6a3d a6e3 023d 74c6 a73a 3ec7 1a3d
000001a0: 1019 2cbc adab 8abb cde2 893d 0e3d 17bc
000001b0: 98e1 433d be03 d03c e99c e63d 05fc fbbb
000001c0: af01 cf3a a532 343d 930d 0dbc 54bf 24bc
000001d0: fc68 723d a042 583c 9ae7 3ebd 6a2e 52bd
000001e0: ed31 65bc 5dd1 4ebd 2f20 39bd c270 4abc
000001f0: 4f3f 35bd 7db7 6cbc 31d0 bf3c 0373 ba3b
00000200: 651d d6bb a76f debc ab91 b5bc aa75 bcbc
00000210: 1355 eabb 5357 2dbd 1285 75bc 7399 d93d
00000220: e537 b13d 1c4d 833d 5c14 8c3d 6d60 2a3d
00000230: 910b 493c 0cf5 093c 6cf3 823b de6b 663d
00000240: bf6d 01bb c9bb 25bc a2ec edba 94be a2bc
00000250: c87b 7ebb 4964 d23b c077 91bb 9d56 a63c
00000260: aaa4 2e3c 789a db3d 0ddf ea3d 7bfd c13d
00000270: 0678 f23c c794 7e3c 9a7b 68bb 099b 7bbd
00000280: bf5a 12bd 79db 75bd f4f6 7bbb ce1b f2bc
00000290: 1340 393c 50f4 73bc 89f8 0abd 2127 ba3c
000002a0: cf0a cb3c 2dee d6bc 852f 113d 744e 2d3d
000002b0: d7e2 a7bc dd5d 013c 5ad0 70ba 140a 32bc
000002c0: c226 58bc de76 c6bc f730 30bd 7b41 7fbc
000002d0: a3cc 28bc 8eb9 a9bc 8f9f 05bc bee9 44bc
000002e0: bef8 92bc 8ca3 2bbd 2edc 4fbc f262 c43b
000002f0: 79c1 02bd 4a50 103d e99b 813d d183 5a3d
00000300: 63ac c83b 5cbd c13c 2055 4c3b c4d8 8a3c
00000310: 6351 423d 62f4 6a3c f3fe c73c 6309 1b3c
00000320: 63d7 d53a 9af3 db3c 3cc6 2f3d 637d 9f3c
00000330: d539 763d c852 0e3d 5b44 293d a3f1 6abd
00000340: cc9b 2fbd 4a38 5abd 8764 26bd c92a bfbc
00000350: 70df e1bb dec1 9cbb 329c e33b f5a2 f13c
00000360: 4506 26bd eae2 b63b de78 60bc a95d c3bd
00000370: 1209 3ebd fb91 9cbd fb37 96bd 026b 51bd
00000380: 537d 53bd 4dbc 753b 6f37 c33c d888 153d
00000390: a256 083d 96db 113d 8de5 b53c 864d d53d
000003a0: 0aa3 a33d e680 a63d 7187 20be ef93 ddbd
000003b0: 952b 32be 624f 2abe 407f a8bd 821e 32be
000003c0: d0a1 f4bd 3177 5abd dbb2 adbd b69c b93c
000003d0: 59fe b1ba adc2 da3c c1e0 f33b c257 a63b
000003e0: 972f 48bc 775b 513d 1f79 383d 9b85 6d3d
000003f0: 3b68 02bd 956f a4bc 7a52 13bd e921 69bd
-0.102920234 -0.10557145 -0.11040529 -0.017727986 -0.038575448 -0.04724234 0.042051964 0.012102856
0.005620953 0.117207214 0.11902801 0.123428605 0.00508126 0.02059939 0.019578947 -0.06360515
-0.053524304 -0.07103653 -0.051049102 -0.026815936 -0.022890456 -0.03140553 -0.0032085266 -0.023482803
-0.0233241 0.023304017 -0.036679972 0.016130699 0.00096542714 -0.016346399 -0.01916368 -0.011661147
-0.0081196735 -0.044363864 -0.06173651 -0.068306826 0.025637064 -0.015299864 -0.017973768 -0.046262987
-0.06245792 -0.039252486 -0.01073457 -0.07760377 -0.03219002 -0.055647925 -0.082474835 -0.0869513
-0.05960857 -0.073143266 -0.06267939 -0.07104301 -0.047358777 -0.051417183 0.14563572 0.05091921
0.066220865 0.051552545 -0.03996186 -0.02098932 0.031139242 -0.016473921 -0.02239116 -0.07646825
-0.08692023 -0.095832765 -0.07144918 -0.10424062 -0.09945136 -0.013079995 -0.011661389 -0.0074526677
-0.032048874 0.028935319 -0.025525954 -0.06133005 -0.018981382 -0.05143754 -0.005096324 0.0013074498
0.0075983102 -0.046000335 -0.026495311 -0.0004147611 -0.03584311 -0.09552189 -0.04631697 -0.017630273
-0.093543336 -0.010209127 0.09898731 0.026127739 0.074397326 0.06902311 0.06785734 0.073488854
0.09015037 0.12484738 0.151203 -0.0034984823 0.05734213 0.031955384 0.0012800233 0.03778767
-0.010504022 -0.004231891 0.06732712 -0.009230865 0.047822565 0.02539241 0.11260397 -0.007689955
0.0015793348 0.04399361 -0.008609193 -0.010055382 0.059182152 0.013199478 -0.04660759 -0.051313795
-0.013988954 -0.050492633 -0.04519671 -0.012355985 -0.04424983 -0.014448044 0.023414703 0.00568998
-0.006534266 -0.02715285 -0.022164186 -0.023005325 -0.007151255 -0.042319607 -0.01498534 0.10624971
0.08653239 0.06411192 0.06839821 0.041595865 0.012270824 0.00842024 0.0039963033 0.056255214
-0.0019749252 -0.010115572 -0.0018152187 -0.019866265 -0.0038831104 0.0064206463 -0.004439324 0.020304972
0.010659376 0.10722822 0.11468325 0.09472176 0.029598247 0.015538401 -0.0035474063 -0.06142715
-0.035731073 -0.06002376 -0.0038446756 -0.029554274 0.01130678 -0.014889792 -0.033928428 0.022723736
0.024785427 -0.026236618 0.03544571 0.042311147 -0.020493908 0.007895914 -0.000918632 -0.010866661
-0.013192834 -0.024226602 -0.043015447 -0.015579577 -0.010302695 -0.020718362 -0.0081557175 -0.012018619
-0.017940875 -0.041904017 -0.012686772 0.0059932405 -0.03192279 0.03523282 0.063285656 0.053348366
0.0061240657 0.023649864 0.0031178668 0.016949065 0.047440898 0.014340492 0.024413561 0.009462687
0.0016314801 0.026849557 0.04291366 0.019468969 0.060113747 0.034746915 0.041324954 -0.05735935
-0.04287319 -0.053276338 -0.040623214 -0.023335831 -0.006893091 -0.004783853 0.00694611 0.02949665
-0.040533323 0.0055812495 -0.013700692 -0.09539349 -0.04639537 -0.07645031 -0.07334896 -0.05112744
-0.05163319 0.003749627 0.023830144 0.036507457 0.033285744 0.035609804 0.022204185 0.10415177
0.079900816 0.08130054 -0.15676667 -0.10819232 -0.17399438 -0.16631845 -0.08227396 -0.1739445
-0.11944926 -0.053336326 -0.084813796 0.022657733 -0.001357983 0.026704157 0.0074425642 0.0050763795
-0.012218378 0.05111262 0.045037385 0.057988744 -0.031837683 -0.020072738 -0.035967328 -0.056917105

10.bias f4 [64]
00000000: 21ef c83c e5fa b73c 5587 883c 9ec0 d33c
00000010: facb 813d 012a e23c 8887 943d df8a 64bd
00000020: 871f a0bc 82dd 123c 0841 ef3b 03f5 32bc
00000030: 3e80 acbc c65b bb3c f9ab 4e3b 2a6e c9bc
00000040: d192 e3bc 2966 173d 4a0a cfbc d259 713d
00000050: 8ce5 e43c 0713 d6bc fc72 883d 8c37 be3c
00000060: 0d84 57bd f14a 533d e59a 883d 4835 c8bb
00000070: 901e d7bb 8feb c43c 8001 7bba a93b 753d
00000080: f9de 433d bb2b 0f3d c557 3e3c 1efe dfbc
00000090: 06e4 543d 9354 063d 3122 a6bc 18c5 093d
000000a0: 68fb 27ba 50a2 1cbd 3b9f b13a 44c1 39bd
000000b0: d514 753d 8d9b c0ba 2bce 803d 061c 163c
000000c0: bad1 883b d47a 823d 5601 57bd 3208 433d
000000d0: 26cc e03c b510 95bc fc19 673d 4800 353d
000000e0: f5cc 993d 01db 193d 4c91 433c a8f2 06bc
000000f0: 5ed6 2f3d e617 6d3c 8e49 adbc 9be1 1d3d
0.024528088 0.022458503 0.016666094 0.025848683 0.063377336 0.02760792 0.07252413 -0.0557965
-0.019546283 0.008963944 0.0073014535 -0.010922673 -0.021057244 0.02287091 0.003153561 -0.024588663
-0.027779968 0.036962662 -0.02527346 0.05892355 0.027941488 -0.02613212 0.066625565 0.023219846
-0.052616168 0.05158514 0.06670169 -0.0061098672 -0.0065649226 0.024038104 -0.00095751137 0.05987135
0.047820065 0.034953814 0.011617606 -0.027342852 0.051975273 0.0327955 -0.020279976 0.03363523
-0.0006408007 -0.03824073 0.0013551483 -0.045350328 0.05983432 -0.0014694795 0.062893234 0.009161955
0.004175392 0.06371084 -0.05249151 0.047615238 0.027441096 -0.018196443 0.056421265 0.04418972
0.075097956 0.037562374 0.011936497 -0.008236565 0.042929046 0.01447103 -0.021153238 0.038545232

11.weight f4 [64]
00000000: a8cf a03f e0ab aa3f 9818 ae3f 6844 b53f
00000010: b717 ad3f 036c b73f 0765 9f3f d0f5 b13f
00000020: 77dc a83f 82c1 a73f e9e3 ac3f 3b57 a43f
00000030: a4c5 a73f 8a52 a73f b076 ab3f 0844 9c3f
00000040: 10f9 b13f e0a3 ab3f 66f0 a63f fe9b a83f
00000050: 9c78 ae3f a0fa a33f 59c5 a93f b71d af3f
00000060: 2d1f c13f 4bec aa3f 7e6d a13f b092 b93f
00000070: 9d66 bb3f 3836 a53f 9d96 a93f c9cd af3f
00000080: e61a a53f d2e2 a83f 9b74 aa3f 0ad9 bf3f
00000090: b223 9c3f 0cd3 a33f 904d ad3f b09a 973f
000000a0: 8ec6 ab3f a765 af3f a944 b23f 313f ab3f
000000b0: 99ac a83f eb68 b73f 0c7f aa3f ff2e b53f
000000c0: ded5 a13f e6a3 af3f ba52 a63f ea12 b33f
000000d0: 392e aa3f 7fd6 a63f 0914 ae3f 80e6 bc3f
000000e0: 1f70 ae3f fb0b ac3f cdb0 b53f 8377 b73f
000000f0: d695 9f3f ec95 ad3f 5b2d b03f 3135 b73f
1.2563372 1.3333702 1.3601255 1.4161501 1.3522862 1.4329838 1.2452706 1.3903141
1.319228 1.3105929 1.3507053 1.2839121 1.310719 1.3072064 1.3395596 1.2208261
1.3904133 1.3409386 1.3042114 1.3172605 1.3630557 1.281086 1.3263351 1.3680943
1.5087639 1.3353361 1.2611539 1.449789 1.464069 1.2907171 1.3249089 1.3734676
1.2898834 1.319422 1.3316835 1.498811 1.2198393 1.2798781 1.3539295 1.1844082
1.3419969 1.3702897 1.3927203 1.337866 1.3177673 1.4328893 1.3320022 1.4154967
1.2643392 1.3721893 1.2993996 1.3990147 1.3295356 1.3034209 1.3599864 1.4757843
1.3627967 1.3441156 1.419458 1.4333347 1.2467601 1.3561378 1.3763841 1.4313108

11.bias f4 [64]
00000000: 88cb 0abe 94d5 87bd a16c 00bd c159 78bd
00000010: 28fe 01be d73c ebbd 717e a2bd 98cd 2dbe
00000020: 7cd3 41be 6fd2 3cbe e46c cabd 7291 b4bd
00000030: 9768 1dbe c2ad 08be 07dd 82be 92e3 653b
00000040: 793c 51be 70c0 27be 1960 b8bb 90cf a9bd
00000050: afce c93c 4d68 01be cdf1 c2bd bcf9 5cbe
00000060: 14f8 c838 98fc a6bd 630f d0bd a6fb c4bd
00000070: 2e21 9bbd c9ab 47be 9840 cdbd 654d 53bd
00000080: cc17 123b 8a5e 24be f756 5bbe 4bb7 4c3c
00000090: 71b2 9bbd 02b5 11be f836 06be 1529 cdbc
000000a0: 6278 5dbe 3ba0 73be 864d 1fbd 7abf 4cbe
000000b0: 431f 33be 5303 c6bd 470a a9bd b2e9 2cbe
000000c0: f9cb 25bd 67c3 fbbd e2ce fabd 8b5a 12bb
000000d0: a76c ccbd f9d3 40bd e40f 0fbd 0b81 9abc
000000e0: 2c84 ecbd 7d97 25bd c9fb 3cbe 17a7 dabd
000000f0: 5b2d c0bc 3f43 dcbd 2abc c0bd ae8a 13be
-0.13554204 -0.06632534 -0.031353597 -0.06063247 -0.12694609 -0.11486214 -0.07934273 -0.16972959
-0.18928331 -0.18439649 -0.098840505 -0.08816804 -0.15371929 -0.13347533 -0.25559255 0.003507827
-0.20433225 -0.16382003 -0.00562669 -0.082915425 0.024634687 -0.12637444 -0.09518776 -0.21579641
9.582951e-05 -0.08153647 -0.10159185 -0.09618311 -0.07574688 -0.19499125 -0.10022086 -0.05158748
0.0022292016 -0.16051689 -0.21419893 0.012494872 -0.07602394 -0.14229205 -0.13106906 -0.025044004
-0.21627954 -0.23791592 -0.03889229 -0.19994918 -0.17492394 -0.09668603 -0.082539134 -0.16886023
-0.040477727 -0.122931294 -0.12246491 -0.00223318 -0.09981661 -0.047077153 -0.034927264 -0.01886036
-0.11548647 -0.040427674 -0.18455423 -0.10676401 -0.023459127 -0.10755014 -0.094108894 -0.14408371

11.running_mean f4 [64]
00000000: abc5 07be 8013 d0be 032f 09bf a30b ab3d
00000010: 2d8e 12bf e274 d9bd 6cb2 5bbe 6638 9ebe
00000020: bda0 bebe 3ac4 91be 9aec a9be 45eb 1bbe
00000030: c070 04bf 72cf f4be a8b9 86be 1c8b 8dbd
00000040: cb1e dbbe 7f6a f7be b9b9 efbd c6d6 53bd
00000050: 870c fcbe 4dde d4be a539 f7be 19bf 13be
00000060: 9753 4c3f 6bb0 8c3e 0180 02bf e333 18bd
00000070: da2a 6cbe cb7e 6b3d 0c85 80be cf98 74bf
00000080: af5f aabe fe27 5ebe ed98 1cbe 5fa3 73be
00000090: 6810 d3be e259 80be 1f81 07bf 20b3 b7be
000000a0: 9680 8bbe 6fe5 d8be 6d6e 36be e389 adbe
000000b0: 1930 1fbf 5414 18bf b81a 29bf ece4 b6bd
000000c0: f09e d1be 447d d2be 4b9b 27bf 530c 1d3e
000000d0: 6f65 02bf c9a3 b0be 489a bd3e f6db 7a3e
000000e0: fd9b 563c 449e f63e 8da7 d0be b073 d4be
000000f0: 218b 4abe 4eb2 aebd c89d 15bf d0ab acbd
-0.13258998 -0.40639877 -0.5358736 0.08351829 -0.57248193 -0.10617997 -0.21454781 -0.30902404
-0.3723201 -0.2847002 -0.33188325 -0.15226467 -0.5173454 -0.47814518 -0.2631352 -0.06911299
-0.4279693 -0.48323438 -0.11705346 -0.051718496 -0.49228308 -0.41575852 -0.48286167 -0.14428367
0.7981505 0.27478346 -0.5097657 -0.037158858 -0.23063222 0.057493966 -0.25101507 -0.9554567
-0.33276126 -0.21694943 -0.15292712 -0.2379279 -0.41223454 -0.25068575 -0.529314 -0.3587885
-0.2724654 -0.42362544 -0.17815562 -0.33894262 -0.62182766 -0.5940602 -0.66056395 -0.08930382
-0.40941572 -0.41111195 -0.65471333 0.15336733 -0.50936025 -0.34499958 0.3703177 0.24497971
0.013098714 0.48167622 -0.4075283 -0.41494513 -0.19779636 -0.08530103 -0.5844388 -0.08431208

11.running_var f4 [64]
00000000: 661e 2e3e f8dd 2c3e 5c3d 633e 2170 173e
00000010: 9762 313e 11c2 4a3e 5245 353e 725f 533e
00000020: c5c0 443e 2b46 2d3e 7b42 803e 9f07 243e
00000030: 04ff 4a3e 7ce0 243e 0cbe 343e 801d 7f3e
00000040: 33a6 2f3e 4f63 343e b73e 3f3e 33b5 5b3e
00000050: 4f2b 713e caec 463e bfea 533e 30cd 363e
00000060: b049 6a3e b652 223e 20af 4d3e 0390 673e
00000070: 7eef 553e 81e2 143e 324c 1d3e 8b89 8f3e
00000080: ca9b 673e d90c 713e 1f99 2e3e aec1 393e
00000090: 6d60 683e 67ba 553e 8685 463e 0e6c 703e
000000a0: 1eef 2f3e c837 6e3e 751a 3c3e 2f25 2a3e
000000b0: 3f1c 3a3e bc9f 793e 8f2f 4d3e ccfa 2d3e
000000c0: 52e3 6f3e 56ae 453e 51ea 4f3e d9c4 523e
000000d0: f0aa 573e 15c7 4a3e c1bc fe3d 9484 4e3e
000000e0: e181 343e 13b7 553e fa31 373e 9980 533e
000000f0: 2be0 8a3e 19c2 4d3e 385a 743e 1ada 403e
0.17003784 0.1688155 0.22191375 0.14788868 0.17322765 0.19800593 0.17702225 0.20641878
0.1921416 0.16921298 0.2505072 0.16018532 0.19823843 0.16101259 0.17650622 0.24913597
0.17153244 0.17616008 0.18676268 0.21455841 0.23551677 0.19426265 0.20695017 0.1785171
0.22879672 0.15851864 0.20086336 0.2261353 0.2089214 0.1453953 0.15361097 0.28034624
0.22618023 0.23540057 0.17050599 0.18140289 0.22693034 0.20871888 0.19386873 0.2347872
0.1718106 0.23263466 0.18369468 0.16615747 0.18174838 0.2437734 0.20037673 0.16990203
0.2342656 0.19304785 0.20304228 0.20582904 0.21061301 0.19802506 0.12438346 0.20167762
0.1762767 0.20870619 0.17890158 0.20654525 0.27124152 0.20093574 0.2386254 0.18833199

16.weight f4 [32, 64]
00000000: 91e5 8fbc 62ce 603c 6516 80bb 5eaa 2f3e
00000010: 8357 16be bbd0 bfbb de88 bb3d 5a8d 943e
00000020: eaa2 9e3d 0daf 533e aaed a93c a39a 33be
00000030: d3da 1b3e f956 9e3e 15b9 953d 4b1f 52be
00000040: 14e0 043e 2a89 973c 31cf 5dbb b297 69bd
00000050: 6564 703e 2c81 383e 84f5 9fbe 6b63 db3d
00000060: f49d ecbd d532 09be 2e1f 91bd 4602 b5be
00000070: 487e f13d 3a05 1ebe 3fee 8b3e e638 d5be
00000080: 808b 04be 8192 e13d bd54 613e 7eba 5a3e
00000090: 2e24 70be 3289 603d 93b4 5cbe 0358 6abe
000000a0: bac8 753d af2d 1b3d 1155 523e c970 263e
000000b0: d799 80be 346d afbd 1140 73be 029b e33c
000000c0: 1deb 25bc 97d0 ca3d fc0e 943b 8e7b 8b3d
000000d0: 84b7 40bd 770e 9a3d 3076 92bd 6492 a83e
000000e0: 6a41 1bbe 6a5d 7abe c50f 4abd ef2a 393e
000000f0: c071 4bbe 980e c438 bfe2 5ebd bc8e 5d3e
00000100: bd62 f6bb 131a 853e f07b 17be 250c 9a3e
00000110: 4207 81bd 7e77 02bd f04e 40be fd68 533d
00000120: 1e35 33bd 0bc9 dd3d 654c 0abe b7c1 72be
00000130: 5569 1bbd 03f3 173e b7ae 36be 5727 92be
00000140: 8ca3 933e c109 69be 7426 6ebe 32b4 743e
00000150: ad44 e3bd 5ebf 943e 676b 013e 8e3a 1abe
00000160: b48d 183e 4888 1abe 0d6d 0fbe b7c6 f13c
00000170: df0c 03be 046c 163d e0d4 6dbd 496b 82be
00000180: a496 57bd bbad 5f3b bf5f a53e ff5c 713e
00000190: 12e7 f4bd 1b60 553d 0dc9 cdbd 7e3f 9dbd
000001a0: fddd 183d 5def 6d3e af57 553e 327c 33be
000001b0: 3cd3 0b3e 1efe bebd d45b 49bd fa55 b13e
000001c0: 2984 02bc 5af3 143e c116 ae3d 180d e63e
000001d0: b726 0fbe 9bc2 e53d 7df7 a83e 2e36 313e
000001e0: 3395 d0bb 2ec5 44be 7dc9 903e 5771 35be
000001f0: f77f 99be 7b47 b43d d676 be3d fb7e 633e
00000200: 6e36 293e 1122 9a3e 21db 0c3e 6df5 81bd
00000210: 605b 9ebd 0b3b 2d3e 82df 453d 4bec 5cbe
00000220: 374a 26be a51b 27be e7f0 513d 5818 6ebe
00000230: 8026 1b3c 9f60 a3be 7d31 9abe 2566 ffbd
00000240: 575d d43c 54d5 59be 3f8b bd3d 2220 353e
00000250: d321 283c 39de 2d3d 0c37 7a3e fdc1 90be
00000260: 172b a1be 6053 153e db24 babc 20a0 b5bc
00000270: ea94 4ebe 4acb b23d 1ea8 e2bc a9eb a13e
00000280: 40fe f93d 6e0a 68be 1dec d13e ba34 7ebe
00000290: 24cf 403e 208a 1e3b d056 973e 2e48 c1bd
000002a0: 1aee 1d3e 362c 883e f1c0 e4bd 5c36 4dbd
000002b0: 9ee1 a03e 445a a13e 04fe d1bc bcd9 91be
000002c0: f43d 8a3d fed3 47be 0c73 763e aaa4 28be
000002d0: 1200 403d 44f1 ee3c 4f20 ca3d fc4f 46bc
000002e0: 03e4 f73d 1baa 073e e0ae ac3e 509e bb3b
000002f0: ea4f d2bd e3f6 7d3d 5a4f 8d3e d349 71bb
00000300: 3de5 8e3d e32d 643d 87d6 b8bc 7963 d03d
00000310: ea46 9cbe 09fe 2bbd 5b6e 3fbe d8fe 263e
00000320: 02be b43e c3a2 a43d a223 2e3e 9dd3 fdbd
00000330: d3e8 0f3e 261d 143e 4d61 703e 4c7e 30bd
00000340: 9a90 9d3e 5dda 223e 1e80 0b3e 7820 09bd
00000350: 9d38 17be d76a 8cbe 03bb 413c a43e 5f3e
00000360: f628 62be 6689 7fbe ddf2 81be ac13 5fbd
00000370: b6c6 5f3e b9ea 77be abf1 b43d d4af 04be
00000380: 5c0d a7be 5116 c53d 335f 1b3e 2141 4f3e
00000390: 9ab2 d1bd f7a6 19bd b04b b13e 4c7c dd3d
000003a0: 40a0 933c c64e 1abe 6f2e eabc 4181 bd3e
000003b0: 8938 6f3e a455 ab3d b0aa 67be b205 91bd
000003c0: 7951 ab3c f7b3 59bd c1f0 21bd 7fc3 1abd
000003d0: 4405 6f3e 76a2 16be 8ac0 3b3c 8941 edbd
000003e0: 61b5 443e bcbe 3fbd 7626 8b3e c3c3 b3bb
000003f0: fac9 06be 28e4 39be e48d cc3d 8323 513d
-0.01756552 0.0137210805 -0.0039089196 0.17154834 -0.1468182 -0.00585374 0.09156965 0.29014093
0.07745917 0.20672245 0.02074321 -0.17539458 0.15220194 0.3092573 0.07310692 -0.2051975
0.12976104 0.018498022 -0.003384542 -0.057029434 0.23475797 0.18018025 -0.31242 0.10712322
-0.11553565 -0.13398297 -0.07086025 -0.35353297 0.11791664 -0.15431681 0.27330205 -0.41644973
-0.1294384 0.110142715 0.22004981 0.21360204 -0.23451301 0.05481834 -0.21553259 -0.22885136
0.06000588 0.037885364 0.20540263 0.16253962 -0.2511737 -0.08565751 -0.23754908 0.027783874
-0.010126856 0.099030666 0.004518388 0.068106756 -0.047050014 0.0752229 -0.07151449 0.32924187
-0.15161672 -0.24449697 -0.049331445 0.18082784 -0.19867611 9.3487266e-05 -0.05441546 0.2163648
-0.0075190947 0.25996456 -0.14793372 0.3008739 -0.063002124 -0.031852238 -0.18780112 0.051613797
-0.04375183 0.108293615 -0.13505705 -0.23706709 -0.03794225 0.14838795 -0.17840086 -0.2854564
0.28835714 -0.22757627 -0.23256856 0.23896864 -0.11097083 0.29052252 0.12638627 -0.150614
0.14897805 -0.1509105 -0.14006443 0.0295137 -0.12797879 0.036724105 -0.05806434 -0.25472477
-0.052633896 0.003413065 0.3229961 0.23570631 -0.11958136 0.052093606 -0.10048113 -0.07678126
0.03732108 0.23235841 0.2083423 -0.17527846 0.13654798 -0.09325813 -0.04915984 0.34635907
-0.00796608 0.14545956 0.08500434 0.44931865 -0.13979612 0.11218759 0.3300132 0.17305824
-0.006365442 -0.19215843 0.28278723 -0.17719017 -0.29980442 0.08802696 0.0930001 0.22216408
0.1652467 0.30104116 0.13755466 -0.063456394 -0.07732272 0.16917054 0.048308857 -0.21574514
-0.16239248 -0.1631914 0.051255133 -0.23251474 0.009469628 -0.31909654 -0.30115882 -0.124706544
0.025923414 -0.21272784 0.09255075 0.17688039 0.010261971 0.042448256 0.24435061 -0.28273
-0.31478187 0.14582586 -0.022722652 -0.02217108 -0.20173994 0.087301806 -0.027668055 0.31625107
0.122066975 -0.22660229 0.41000453 -0.24824801 0.18829018 0.0024191216 0.2955842 -0.09437595
0.1542286 0.2659623 -0.11169613 -0.05010067 0.31422132 0.3151418 -0.02563382 -0.2848643
0.06750098 -0.19514462 0.24067324 -0.16469064 0.046875067 0.029167779 0.098694436 -0.012104031
0.12104037 0.13248484 0.3372717 0.0057256594 -0.10269149 0.062003028 0.27599603 -0.0036817684
0.069773175 0.055707823 -0.022563232 0.10175223 -0.30522853 -0.041990314 -0.18694441 0.16308153
0.35301214 0.08038857 0.1700578 -0.12393878 0.14053659 0.14464244 0.23474617 -0.043089196
0.30774385 0.15903611 0.13623092 -0.03347823 -0.1476769 -0.27425262 0.011824372 0.21801239
-0.22085938 -0.24954757 -0.25380602 -0.05446212 0.21853146 -0.24210633 0.08835157 -0.12957698
-0.3262738 0.09623397 0.15173034 0.20239688 -0.10239144 -0.037512746 0.34628057 0.10814723
0.01802075 -0.15069112 -0.028586594 0.37012675 0.2336141 0.08365944 -0.22623706 -0.070811644
0.020912873 -0.053150143 -0.03953624 -0.037784096 0.23341852 -0.14710411 0.011459479 -0.115847655
0.19209816 -0.046812758 0.2717778 -0.005485983 -0.13162985 -0.18153441 0.09988001 0.051059257

16.bias f4 [32]
00000000: e223 1d3e f00d 9d3c 3e4f 063e 8121 913d
00000010: 7b8c 61bd beac f73a 3443 d23d a4b3 5b3d
00000020: ea51 dbbb 73e0 923c f286 8abc 0fb8 803d
00000030: 64cc 9c3d 8e5b 2a3d 132b 153e 54d7 c33a
00000040: abe3 f63d 2a6c 0b3e 19ae 053e d4cf 62bd
00000050: c8a6 b03d 319a 233e 79e6 063d c5c6 553d
00000060: ff9a c5bb f124 113e 5a44 31bc 560c 08bd
00000070: 3500 b1bb 321b 25bd 2892 863d f5bc 323e
0.1534572 0.019171685 0.13116166 0.070864685 -0.055065613 0.0018896086 0.10266724 0.053638116
-0.0066931145 0.017929291 -0.01691005 0.062851064 0.07656172 0.04159122 0.14567213 0.0014941492
0.12055143 0.1361548 0.13054694 -0.05537398 0.08625561 0.15976788 0.03293464 0.052191515
-0.00603044 0.14174248 -0.010819519 -0.03321489 -0.005401636 -0.04030914 0.06570846 0.17454894
