03_AML2425_Unlearning/Practice/checkpoint/trained_model.pth (torch, 245369 bytes, 22 tensors)

0.weight f4 [32, 3, 3, 3]
00000000: bd9d 093c 8fbf ea3d 3c0d 1bbe 253e fdbd
00000010: 375e 80bd bca3 4a3d 057d 663c 95f9 203e
00000020: 33c2 93bc 3817 2e3d 6eaf 81bd 84f7 37bd
00000030: 11a3 36be 08ca 02be 3bb2 babd a40c 5e3c
00000040: fe43 8f3d ff8b d83d 7d72 07be 36b0 a5bd
00000050: 395d 973d 70e8 333e ac14 d4bc e9ca 193e
00000060: 6287 40bc daab 043d c2b4 3e3e 0fa0 23be
00000070: d491 eebd 7bac 1fbd 7992 d3bd 36d5 083e
00000080: fa00 16be 322d 09be 9f45 32be ba1c 55be
00000090: 1567 b5bd 1675 393e 518b d03d 610a ca3d
000000a0: 8af0 6e3c ed66 b9bd 249d e93c a0cc 35be
000000b0: 15c6 07be cff0 c8bd 2171 ef3d 0a1d dc3d
000000c0: 0c30 bdbd 2633 77bc f015 ed3d e6a0 383e
000000d0: b1fd 8c3d 931b a13c e7f1 f23d 29f3 f9bd
000000e0: 9ff9 0d3d 4453 29be a83f 11be 5127 cabd
000000f0: d7ac 943d 7f4c 963d fc92 e0bd 151a 413d
00000100: 37ea c33d 5950 e1bc dab6 59bc 3c4d 013d
00000110: 1f4c eb3d c0a9 243e 5d56 26be b464 9dbd
00000120: 99fe cf3d 9c4b 3f3e 465b 4b3e 7b78 353e
00000130: 7ff7 683d a0b2 10be 8114 2f3c 7cfe e2bd
00000140: 1713 24be 9e8c 2d3e a66e 1a3e f2a1 4fbe
00000150: 6c0d 113d cc2d e9bc a3e5 2cbd d749 b7bd
00000160: 6648 a13d df5e f9bd dae0 ab3d fbec f23d
00000170: 4209 123e 4b68 ae3d a407 31be 9261 f8bd
00000180: 3dba df3d bc47 723d 882d 13be 867b adbd
00000190: 3cc9 5d3e 7983 1f3e 7450 79bd e790 67bc
000001a0: e5e0 20be c749 a83c e7bf dcbd 472c edbd
000001b0: 3ad9 84bc 94e1 aa3c 5141 acbd b5ea ec3d
000001c0: 9c5f 01be 0a7f 333e 0422 0c3e 16bb 31be
000001d0: 44c2 48bd 1cb4 053d caa8 433d 3bec 893d
000001e0: c21b d43d 2660 ce3c c43e 8abd 61a8 f83d
000001f0: 6ad6 31be 1382 bcbd d19a 88bc 2486 85bd
00000200: f7d1 18bd a350 f3bd 9fed a9bc 649f 9c3d
00000210: db53 a9bd dbf1 a03b 85e1 2a3e c6d7 a8bc
00000220: c32e a0ba 48ca cfbc 4705 223d f8c9 f13d
00000230: 64dd 333e 223b fb3d 1b24 363e 5924 b2bc
00000240: d8e7 2cbe 9fa4 c6bd de37 fa3d 88bb 923a
00000250: 9dbd d1bd 3276 21be a00c 37be 0dc2 2ebe
00000260: 3238 53bd c5c7 043e 00c5 e93d 138c 37be
00000270: a00f 123e dacd 11be b387 15bd 5ceb 5ebd
00000280: 9034 e8bc dbe5 0bbd d6d1 28be 619a 22be
00000290: 8d3c c0bc ef8b c23b 10c8 a9bd 0112 a13d
000002a0: 28b0 29be 904f 85bb 4d8a 383e 12b6 88bd
000002b0: b8cf 3d3e 13f5 a43d 5e6d 28be 56b3 073e
000002c0: b6cc 1abc 5bff 9cbd 4e08 2a3e 85af 0fbe
000002d0: c5e3 f93c 6f65 dcbc 8d4e 1b3e 8c15 783d
000002e0: 51f4 d43d d01c a83d 6a40 19bd 5585 ddbc
000002f0: 9d23 12be e51e f03d d5b5 2e3e c1c1 1c3e
00000300: 458d 03be af2b bb3c d1d8 f7bd 0d52 c8bd
00000310: 9523 cdbd f12d 963d d934 eabd 0a8c 413a
00000320: ed47 973c 4cf8 003e 1f61 0bbe 3442 febd
00000330: 5e51 d8bd 5a63 143e b013 87bd a7a5 1f3e
00000340: de23 893d 5bd9 d03c e6fc bebb 336d 13bd
00000350: bedd d13c cf9c 2bbd bdc9 853b 3742 c73c
00000360: a437 0dbe 798f cfbd 8d22 253e cb5f 10be
00000370: 3cdc d9bb cf8a 4d3e 52e7 bb3d 24fd 953c
00000380: f4df 28be a9e9 a73d d19d 23be 9241 8cbd
00000390: a1ec 9dbd 5e70 3cbd c190 19bc a344 183e
000003a0: 679d db3b 7cb3 153e 1132 f93d c5b0 ffbd
000003b0: 1f17 bd3d e4b0 06be 520c a3bd ae9c 893d
000003c0: f1c8 8b3d c257 163e a035 87bd b844 053c
000003d0: b36d d73d 79ac 30be 0326 193e 4315 19be
000003e0: 908e 533c 424d 65bc 0ca4 b3bd 4255 143d
000003f0: e576 273e 6bf5 50bd 08f8 d5bd d98b 80bd
0.008399424 0.11462318 -0.15141767 -0.12365369 -0.0626797 0.049472556 0.014067893 0.15720208
-0.018036937 0.042502612 -0.06332289 -0.044913784 -0.17835642 -0.12772381 -0.09116026 0.013552818
0.0699539 0.10573577 -0.13227268 -0.0809025 0.07390828 0.17569137 -0.025888763 0.1501881
-0.011751028 0.032390453 0.18623641 -0.15979026 -0.11648908 -0.03898285 -0.10330672 0.13362584
-0.1464881 -0.13396147 -0.17409371 -0.2081174 -0.08857552 0.18111071 0.101828225 0.09865261
0.014583716 -0.09052835 0.028517313 -0.1775384 -0.13259156 -0.098115556 0.116914995 0.10747726
-0.0923768 -0.015087878 0.1157645 0.18030128 0.06884325 0.019666469 0.118625455 -0.12204582
0.034661885 -0.1653567 -0.14184439 -0.0987078 0.07259529 0.07338809 -0.10965535 0.047144014
0.09566157 -0.027504133 -0.013288224 0.031567797 0.11489128 0.1608038 -0.16243882 -0.07685223
0.101559825 0.18681186 0.19859037 0.17721741 0.056876656 -0.1413064 0.010686041 -0.11083695
-0.16022907 0.16948172 0.15081272 -0.20276621 0.03541319 -0.02846422 -0.042211186 -0.08949631
0.07875137 -0.12176298 0.083924964 0.11861607 0.14261344 0.08515986 -0.17288071 -0.12127985
0.10924194 0.059150442 -0.14372838 -0.08470826 0.21658796 0.15577497 -0.06086774 -0.0141336685
-0.1571079 0.020542992 -0.1077879 -0.11580711 -0.016216863 0.020859517 -0.084108956 0.11568204
-0.12634128 0.1752893 0.13684851 -0.17356524 -0.04901339 0.03264247 0.04776839 0.067345105
0.10356857 0.025192332 -0.06750253 0.12141491 -0.17366949 -0.09204497 -0.016675385 -0.06519726
-0.037309613 -0.118806146 -0.02074319 0.07647589 -0.08267947 0.004911644 0.16687591 -0.020610701
-0.0012220967 -0.02536501 0.039555814 0.118061006 0.17564923 0.12267138 0.1778721 -0.021745848
-0.16885316 -0.09699368 0.12217687 0.0011194805 -0.10241244 -0.15767744 -0.1787591 -0.17066212
-0.051567264 0.12966831 0.11414528 -0.17924528 0.14263773 -0.14238682 -0.036506366 -0.054423675
-0.028345376 -0.034154754 -0.16486296 -0.15879203 -0.023466373 0.0059370915 -0.08290112 0.07864762
-0.16571105 -0.0040683225 0.18021508 -0.06675352 0.1853627 0.08054557 -0.1644797 0.13252005
-0.009448221 -0.07665893 0.1660473 -0.14031799 0.030504117 -0.026903836 0.15166683 0.060567424
0.10398162 0.082086205 -0.037414946 -0.027041117 -0.14271398 0.11724643 0.17061551 0.15308286
-0.12846859 0.022847978 -0.12101901 -0.09781275 -0.10016552 0.073329814 -0.11435861 0.0007383233
0.018466914 0.12594718 -0.13611268 -0.12414971 -0.105623946 0.14491025 -0.06595552 0.15590535
0.06696294 0.025494268 -0.0058284877 -0.035992812 0.02561843 -0.04189759 0.004082887 0.024323566
-0.13790756 -0.10134787 0.16126461 -0.14099042 -0.0066485684 0.20072483 0.0917498 0.018309183
-0.16491681 0.08198864 -0.15978171 -0.06848444 -0.07711149 -0.0460056 -0.009372891 0.14869933
0.0067021134 0.14619249 0.121677525 -0.12484888 0.092329256 -0.13153416 -0.07961334 0.067193374
0.06825436 0.14681914 -0.06602025 0.00813406 0.1051897 -0.17253293 0.14955907 -0.14949517
0.0129124075 -0.0139954705 -0.08771524 0.03621412 0.16353948 -0.0510153 -0.10447699 -0.06276674

0.bias f4 [32]
00000000: 364e 413e a86c abbd 6975 80bc e0f4 adbd
00000010: 0564 9ebc 6133 1b3d 6c78 d23c ae16 e4bc
00000020: 52ab 42be 1697 033c df5a c6bb 5092 da3c
00000030: c470 163e bf3a 403e 3ba4 eabd 5a90 20bc
00000040: 64cf 99bd 4ff0 2bbe 8cc4 0ebe 2374 3b3e
00000050: 38a4 dd3d 8fed cb3d 94c4 df3d 2e43 1ebe
00000060: 3807 a63c 3ea5 383e 4bce d2bd 03cb 303e
00000070: f3d0 4c3d 2394 0c3e 09bd a9bd 5eee b63d
0.18877491 -0.08370334 -0.015680986 -0.08493972 -0.019334802 0.037890796 0.025692187 -0.027842846
-0.19010666 0.008031627 -0.006053313 0.026681095 0.14691454 0.1877241 -0.11457106 -0.009800041
-0.0751026 -0.16790889 -0.13942164 0.18306021 0.10822338 0.0995742 0.10926166 -0.15455315
0.020267114 0.18031785 -0.102932535 0.17264943 0.050003957 0.13728385 -0.08288009 0.08932184

1.weight f4 [32]
00000000: 8b95 823f e9ae 7b3f d73e 7d3f adaf 803f
00000010: 691b 803f cb20 803f d782 7a3f 33a3 833f
00000020: b86c 7e3f 231e 7d3f 3b0c 793f 3b49 7c3f
00000030: 040b 7b3f da4f 803f 6e15 7c3f b349 783f
00000040: 5135 783f 435a 813f de52 7b3f 2268 7d3f
00000050: bc21 833f 170a 7f3f d283 823f b72f 7f3f
00000060: 9dd9 763f fc02 773f cb1a 823f 7676 7e3f
00000070: 2d59 863f a63a 813f ae61 853f ff0b 793f
1.0201887 0.98313767 0.9892401 1.0053612 1.0008365 1.0010008 0.97855896 1.028418
0.9938464 0.9887411 0.9728429 0.9854924 0.98063684 1.0024369 0.984702 0.96987456
0.96956354 1.0105671 0.9817332 0.9898702 1.024467 0.9962477 1.0196478 0.9968218
0.964258 0.9648893 1.0164427 0.9939951 1.0495964 1.0096023 1.0420434 0.9728393

1.bias f4 [32]
00000000: 0926 f93c bec4 0fbc ec6b 3d3b 41c7 a83c
00000010: cb8d 4d3c 11a5 373b ef26 40bc a2cd c2bb
00000020: 2914 813b 4edc cf3c 7d5d 1abd 8a3b 88bc
00000030: 1026 bbbc e203 313c a4cb 1dbc 3fc0 9a3c
00000040: 9018 03bd 6ae2 89bb a474 b13a 8e3b 673a
00000050: c5fb 56bb d553 9fbc 5515 dc3c 4412 17bc
00000060: 02fe 1dbc cacd 17bd c775 32bd 9243 e4bc
00000070: 7904 20bd 53c8 143c 8307 5abc 1980 2d3b
0.030413644 -0.008774934 0.0028903438 0.020602824 0.012546013 0.0028021971 -0.0117280325 -0.0059449235
0.003939171 0.025373604 -0.037686814 -0.016629953 -0.022845298 0.010804148 -0.009631071 0.018890498
-0.032005847 -0.004207899 0.001353879 0.0008820825 -0.0032803875 -0.019449154 0.02686564 -0.009220663
-0.00964308 -0.03706149 -0.043569352 -0.027864251 -0.039066765 0.009080964 -0.013307455 0.0026474057

1.running_mean f4 [32]
00000000: f5f3 3a3e 360b a8bd d305 68bc 0eff a9bd
00000010: 2eac b4bc b1b2 303d 9f9c e33c 8777 fbbc
00000020: 2ba7 47be 0c7a ea3b 8e5e 0cbc 21bb dd3c
00000030: 102f 183e 8535 3f3e 87b6 eebd cf45 26bc
00000040: bcae 96bd 5f35 2ebe 084a 12be acaa 383e
00000050: f07a df3d b0fd d23d 105f e13d ccdb 1dbe
00000060: 9290 8d3c 8e27 383e 69ed dcbd 065c 2c3e
00000070: 3f10 553d 64b7 093e 91c0 acbd 2c73 b13d
0.18257125 -0.08205263 -0.014161545 -0.08300601 -0.022054758 0.043139163 0.027784644 -0.030696644
-0.19497363 0.0071556624 -0.0085674655 0.02706677 0.14861703 0.1867276 -0.11655908 -0.01014848
-0.07357547 -0.17012547 -0.14286053 0.18033856 0.1091212 0.10302293 0.1100446 -0.15415877
0.01728085 0.17983839 -0.1078747 0.16831979 0.052017447 0.13448864 -0.084351666 0.086645454

1.running_var f4 [32]
00000000: ff2e bf3d 05a5 ef3e 22c2 3c3e 905f 393e
00000010: 7404 ca3c a295 303e 6baf c53d 3008 8e3d
00000020: f06f 863d ab4f 063e a18e ee3d b93b c93c
00000030: 3593 353f d330 283d e6b6 1d3f 417a 1c3d
00000040: 8ccc 3a3e ab52 623d 34db 0c3e 5b0e 163d
00000050: e763 f33c ed01 813d 189f 853e 8857 c93d
00000060: e2ab dd3d 95f0 d33d b3ab 0b3e 3e4a 063e
00000070: ec1a 3a3e 4f38 953d 7b1a a33c 1125 be3d
0.09335136 0.46805587 0.18433431 0.1810286 0.024660327 0.1724458 0.09652599 0.069351554
0.06564319 0.13116328 0.11648298 0.02456461 0.70927745 0.041062187 0.61607206 0.038202528
0.18242091 0.05525462 0.13755494 0.036634784 0.029710723 0.062991954 0.2609794 0.098311484
0.108238 0.10348622 0.13639717 0.13114259 0.18174332 0.07286131 0.019910088 0.092844136

5.weight f4 [64, 32, 3, 3]
00000000: e2a3 45bd e55b ab3b a633 ed3c cd9e 843b
00000010: 922b 373d 5026 5d3d 9bac 573d d61c 2e3d
00000020: be88 383d b94c 81bc 5c90 54bd 96ef d8bc
00000030: 6476 cabb c3a7 debc 7398 133d 88f2 e63c
00000040: 101c a33c 6a3e de3c 7b28 353d b86e 15bb
00000050: 3b37 9cbd 61e1 9cbc 6833 d73c 7134 643c
00000060: cbd6 153d 33b1 89bd 15a4 54bd c541 853c
00000070: 1ad8 2a3c fcfa b7bd d08f 473d 6a98 08bd
00000080: 406a 663d 299a 8e3c 942a 493d 7cdf 67bd
00000090: ef0f 9dbd 7915 b23c f73c ec3c ad34 ab3c
000000a0: a565 f33c 0518 73bd 88e8 f33c 7be2 87bd
000000b0: 5e9a dc3b 7870 50bd 7f1b 09bd 90b6 f73a
000000c0: 6bb8 98bc 667a 3abb b988 4bbd 6d07 47bd
000000d0: 429d 013d 2434 8dbc c339 83bd ee4d 62bd
000000e0: df91 9dbd 5611 8dbd 5130 523c c0e5 253c
000000f0: 020a febb fd38 44bd 34db 0e3c d416 99bc
00000100: 65e9 6dbd 269d 33bc 3c57 b73d 513e d4bc
00000110: 7da6 f4bc 8ba5 ca39 aac4 1c3d 87db dbbc
00000120: 13ff f53c ce39 563d 228b 013d 6d3c d43b
00000130: 28be 6b3d ada5 093d 7a0a fdbc 8455 923b
00000140: a33e e73c 2952 213d e52e 8ebd b97b d43c
00000150: 21a3 1fbc db6e 6cbd be8b 9b3c 8913 07bd
00000160: bc61 4b3b 2e3c f8bc d38f 6dbd 2d17 60bc
00000170: f466 c8bc e441 853c f353 2fbc 70b2 fd3c
00000180: 7e23 4d3c bf4e 94bc 07f7 243d 4214 dbba
00000190: fa1a 1c3b d60f 09bd 5e7e 4e3c 34b2 09bc
000001a0: 360e dbbb 350c 30bd e08d a6bb 8566 49bd
000001b0: 4233 3dbc 3093 0d3d 1eeb 0fbd d3f1 f1bc
000001c0: 966a 09bc 230b 84bb ce9d 993c 77c3 643c
000001d0: a505 1b3d e4bd 80bd 1cbc ebbc 7292 273c
000001e0: 4b40 e53c 9f3b dabc a3d4 69bd d46d 89bb
000001f0: e4b2 463c 0c54 71bd 9d87 49bc e94d 483d
00000200: 1988 b63c 9f68 10bd 94e4 7fbc ff16 3d3d
00000210: 888d 7fbb b0a2 593d a486 7d3d c65c 94bb
00000220: 6bfc b6bc 984c 33bd 1f8f bebc a937 09bc
00000230: c756 8ebd cf7a 1ebd 23c3 9dbd dc38 633b
00000240: 503f 61bd 5465 0a3d ae80 02bd 4d26 f8bc
00000250: 26d7 c63c 751d 1f3c c00c 133d de7f ab3c
00000260: 4608 44bd d50e 173d 2827 74bc 86ba d3bc
00000270: dbb2 183d cac9 1d3d da5a 54bd bea0 5339
00000280: b1c4 493d d1e7 ef3c 05f9 8b3d 6aae c8bb
00000290: c76a 38bc 0b05 823d 1b97 043d 7adc 923d
000002a0: b9cd dcbb 7650 efbc 7cc2 9f3b e962 84bd
000002b0: d522 6c3c 53bd d43c fe0e 1a3c b873 79bc
000002c0: 2f24 3e3c 3991 43bd 3ca4 2c3d 2a16 a9bd
000002d0: 5cff 6bbd 1e03 d1bb 3746 533d ac83 aa3c
000002e0: adb7 073d 1a5a 15bd 9083 243d c6a8 8c3b
000002f0: 1c5c 163d 2702 d73c b583 ab3c 5da0 42bc
00000300: a986 aa3b 2d52 aebc b27c 4fba 600a 303d
00000310: 451a 63bc 2400 363d 4f20 8dbc 0bd0 b9bc
00000320: 8786 fcba 24f4 0dbd 997a 91bb c6dc d43a
00000330: 914e 203c bf98 4fbc da0b 633d 151a 033d
00000340: b1ea 47bd 9d5e cb3b 3c09 6ebc d6d9 11bd
00000350: 8995 103d 106d dfbb 766b 35bd 7141 6abd
00000360: f22e 14bd 0234 193c 8d56 7dbd f2db 70bd
00000370: 5306 423b 4a88 25bd b7ad 62bd 37cc debc
00000380: 9fdd abbb 26b5 3fbd 6d23 01bd 1e2c 623c
00000390: fa64 1abd be53 4d3b 62ca a7bc 1821 ccbc
000003a0: c89a 033d 2092 fdbc a0a3 78bd 30ef a73c
000003b0: 89ab 87bb 29e9 db3c bd1a 29bd c311 83bd
000003c0: f59a a8bc 7046 a8bc a7ad 883c e226 79bd
000003d0: 658e 31bc c17a ea3c 3612 57bd a867 44bd
000003e0: 020f 323c 4ab0 6ebd 3eb1 3d3b 15de 62bd
000003f0: 9732 363d dd8d 1ebd 0e7d 173d 7a27 d8bc
-0.048251994 0.0052294605 0.028955292 0.004047251 0.044719286 0.053991616 0.052654844 0.04250797
0.045052283 -0.015783655 -0.051895484 -0.026481431 -0.006178664 -0.027179604 0.03603406 0.02819182
0.019910842 0.02712937 0.04422806 -0.002280159 -0.07627722 -0.019150438 0.02626963 0.013928519
0.036581796 -0.06723251 -0.051914293 0.016266713 0.010427499 -0.08983418 0.048721135 -0.03334848
0.05625367 0.017407494 0.04911287 -0.056609616 -0.07669055 0.021738755 0.028837664 0.020899141
0.029711554 -0.05934908 0.029773965 -0.066349946 0.006732269 -0.05088851 -0.033473488 0.0018899012
-0.018642625 -0.0028454303 -0.049690936 -0.048591066 0.031644113 -0.017236777 -0.064075015 -0.0552501
-0.07693838 -0.06888072 0.012828902 0.010125577 -0.007752658 -0.04790591 0.008719254 -0.018687643
-0.05808391 -0.01096276 0.089521855 -0.025908621 -0.029864544 0.00038651782 0.03827349 -0.026838077
0.030028855 0.05230122 0.031626828 0.00647693 0.057554394 0.033605266 -0.030888785 0.0044657607
0.02822811 0.039384995 -0.06942538 0.025937902 -0.009743483 -0.057722908 0.018987533 -0.032977615
0.0031033596 -0.030302133 -0.05799849 -0.013677401 -0.024463154 0.01626677 -0.010701167 0.030968875
0.012520669 -0.018103955 0.040274646 -0.0016714411 0.002381979 -0.033462368 0.0126033705 -0.008404303
-0.0066850437 -0.04298039 -0.005082831 -0.049170036 -0.011547865 0.034564197 -0.035136335 -0.029534256
-0.0083872285 -0.004029648 0.018752005 0.013962618 0.03784718 -0.06286219 -0.028776221 0.010227786
0.027984759 -0.026639758 -0.05708755 -0.0041940007 0.012127612 -0.058918044 -0.012300399 0.048902426
0.022281693 -0.035256024 -0.015618462 0.04616451 -0.0038994271 0.053133667 0.06189598 -0.004527661
-0.02233716 -0.043774217 -0.023261605 -0.008375087 -0.06950145 -0.03869134 -0.07703235 0.0034671342
-0.05499202 0.03378804 -0.031861 -0.0302917 0.024272513 0.009711613 0.03590083 0.020934995
-0.047859453 0.03687938 -0.014901914 -0.025845777 0.037279945 0.03852252 -0.051844455 0.00020182409
0.049259845 0.029285343 0.06834606 -0.0061243074 -0.011255926 0.06348618 0.032370668 0.07170959
-0.0067383912 -0.029213171 0.0048754793 -0.06464178 0.0144126015 0.025969183 0.0094029885 -0.015225343
0.0116053065 -0.047745917 0.042148814 -0.082561806 -0.057616577 -0.0063785454 0.051580634 0.02081474
0.03313415 -0.03646288 0.04016453 0.0042925803 0.036708936 0.026246144 0.020936826 -0.011879054
0.005204041 -0.021279419 -0.00079150044 0.042978644 -0.013861244 0.044433728 -0.01722732 -0.02268221
-0.0019266166 -0.03465666 -0.0044396636 0.0016240112 0.009784357 -0.012670695 0.055431224 0.032007296
-0.048807804 0.006206347 -0.014528569 -0.035608135 0.035298858 -0.006818421 -0.044291936 -0.057191316
-0.036177583 0.009350779 -0.06185012 -0.058803506 0.002960582 -0.04041318 -0.05534145 -0.027196987
-0.005244925 -0.046803616 -0.031527925 0.013804464 -0.037693955 0.0031330432 -0.020482246 -0.024918124
0.032130033 -0.030953467 -0.06070292 0.020499796 -0.0041403216 0.026844578 -0.041285265 -0.06399872
-0.020581702 -0.0205414 0.016684366 -0.060828097 -0.010837172 0.028622987 -0.0525076 -0.047950417
0.010867836 -0.05827359 0.0028944756 -0.055387575 0.04448184 -0.03870951 0.036984496 -0.026386011

5.bias f4 [64]
00000000: 6565 15bc 9f26 bc3c 52c7 58bd f7dd 133c
00000010: bcee 473c 9339 63bd 1d37 0d3c 25a2 3dbd
00000020: 8d70 4fbd 7b52 5c3d 6775 fe3c 9863 2d3d
00000030: 7e1a 4d3d a9a6 00bd bb86 cabc 5f29 3b3b
00000040: afd2 b63c 5e7d c63b 83e1 5fbb a0fc 6e3d
00000050: 2c3c e3bc e523 cb3c 88db be3c 176c edbc
00000060: d713 033d cf58 263d e136 41bc 339f 2dbd
00000070: 7db2 203d 2967 3a3d 2c42 b73c 0551 023c
00000080: 0062 ec3c fbc3 913c 65bf 91bc 2d54 32bd
00000090: 8eb7 cdbc 031b a43c 7ac5 c5bc f6e4 bc3c
000000a0: 0cb4 f7bc c2d4 34bd 884b 2d3d 64cb 15bd
000000b0: a6d1 803c a124 4a3d e29a 853b 72df 113d
000000c0: a1d5 53bc 1ace 59bd 2070 f1bc 1c43 93bc
000000d0: 0e01 0fbd 75ff 09bd 75bd cc3c 8e76 663d
000000e0: 2f4e 1b3d 42be 9f3c 9cf1 4bbd f3e0 26bc
000000f0: fe41 c13c 65c7 483d fcf5 e2bc 0eb6 103d
-0.009118413 0.022967635 -0.05292446 0.0090250885 0.012202915 -0.05547483 0.008619097 -0.04629721
-0.050644446 0.053789597 0.031061841 0.042331308 0.050074093 -0.03140894 -0.024722448 0.0028558595
0.022317259 0.0060574254 -0.0034161515 0.05834639 -0.027738653 0.02479739 0.02329804 -0.028982205
0.032001343 0.04061204 -0.011792869 -0.042388152 0.03923272 0.045508537 0.02237042 0.007953887
0.028855324 0.017793646 -0.01779146 -0.043537308 -0.02511194 0.020032411 -0.024142016 0.023058396
-0.03023722 -0.044148214 0.04230836 -0.03657092 0.015724968 0.04935134 0.0040773014 0.035613485
-0.012929351 -0.05317507 -0.02947241 -0.017976336 -0.034913115 -0.03369089 0.024992684 0.056265406
0.03791636 0.019499902 -0.049790964 -0.010185468 0.023591038 0.049018282 -0.027705185 0.03532987

6.weight f4 [64]
00000000: 6218 7d3f 8136 783f 633f 7c3f 5a65 783f
00000010: 3b52 843f de5f 823f 1e40 843f 587f 723f
00000020: 2b8d 853f 2346 823f b3ce 7e3f a8f7 803f
00000030: db0b 813f 9ea4 833f 9866 753f 25ec 823f
00000040: ac5d 7e3f b976 7f3f d7ec 7f3f bf83 7c3f
00000050: b499 843f 4c4b 7c3f f984 803f 3192 813f
00000060: 8d2f 7c3f f652 7c3f 665d 7a3f f858 7a3f
00000070: dd25 773f af4b 763f fa27 773f e3f2 753f
00000080: 8996 7d3f 255d 783f 0e02 7d3f 65bc 813f
00000090: adb7 803f f6e1 7b3f 797f 833f 20c9 803f
000000a0: 6ec5 7c3f e8cc 833f b901 803f 1f07 7c3f
000000b0: dfa4 7f3f fdeb 823f 9595 823f 86f2 843f
000000c0: d497 813f 3828 7e3f ac40 833f d76f 7e3f
000000d0: 4699 813f 2db5 803f 64c2 733f 800a 823f
000000e0: 2124 813f e488 7d3f 7660 7e3f f764 7e3f
000000f0: 4a17 813f 74e6 863f 57da 803f 8bb8 843f
0.9886533 0.96958166 0.9853422 0.9702965 1.0337595 1.0185506 1.0332067 0.9472556
1.0433706 1.0177654 0.9953415 1.0075579 1.0081743 1.0284612 0.9585967 1.0228316
0.9936168 0.9979053 0.99970764 0.9863853 1.0359406 0.98552394 1.004058 1.0122739
0.98510057 0.9856409 0.97798765 0.97792006 0.9654215 0.96209234 0.96545374 0.9607374
0.99057823 0.9701713 0.9883126 1.0135618 1.0056053 0.98391664 1.0273277 1.0061378
0.98738754 1.0296907 1.0000526 0.98448366 0.9986095 1.0228268 1.0201899 1.0386512
1.0124459 0.9928012 1.0254111 0.99389404 1.01249 1.005529 0.9521849 1.0159454
1.0089151 0.99037004 0.9936594 0.9937281 1.0085232 1.0539079 1.0066632 1.0368818

6.bias f4 [64]
00000000: 6dfd 0f3c b008 7dbd 66da 20bd bed3 34bd
00000010: 67af dcbc 0a3f 0b3d c782 333c 3ee3 84bd
00000020: 50d1 ee3b 8556 5ebc e91a 14bd 56e0 5d3c
00000030: dc10 ea3a 1135 21bc 1e4b 15bd 7a30 d93c
00000040: 52d1 4ebc e5b6 74bd a1a8 dfbc dfef 3b3c
00000050: e300 c3bb e7cb a1bc 3291 7ebc 866c 163d
00000060: 1047 42bd bde1 11bd 1650 47bd 0f48 15bc
00000070: cf59 0bbd 60ba 3abd 0db1 25bd 5ca9 c9bc
00000080: 818f 10bd cf72 c3bc f5bd 723b fb04 8bbb
00000090: d892 57bc a3f5 1cbd dd62 18bd 1c00 05bd
000000a0: 1f78 a1bc efdd c5bc 6729 be3c 3dda ddbc
000000b0: ba86 99ba 477f 70bc f51e b33a 8cd0 f9bb
000000c0: 45ef 2d3c dbd7 5abb 336d 4c3c 75b3 d1bc
000000d0: a649 a03b 98ad 0cbb e0c9 82bd 7f9d 82bd
000000e0: ab1d 883c 6f68 2ebc 3fde 25bc 05b2 fabc
000000f0: 0390 ae3c 5ee7 e9bc ef5e d3bc 6511 10bd
0.008788449 -0.061775863 -0.03927078 -0.044147246 -0.026939107 0.033995666 0.010956473 -0.064886555
0.0072881356 -0.013570433 -0.036158476 0.013542255 0.0017857808 -0.009839312 -0.03644859 0.026512373
-0.012623148 -0.059744734 -0.027302088 0.011470764 -0.0059510334 -0.019750549 -0.015537547 0.03672459
-0.04743105 -0.03561567 -0.04866036 -0.009111418 -0.034021195 -0.045587897 -0.040452052 -0.02461689
-0.035293106 -0.023858456 0.0037039493 -0.004242537 -0.013157569 -0.038320195 -0.03720366 -0.032470807
-0.019710599 -0.024153678 0.023213102 -0.027081603 -0.0011713125 -0.014678783 0.0013665842 -0.0076237377
0.010616128 -0.003339282 0.012477207 -0.025598267 0.004891592 -0.0021465775 -0.06386161 -0.06377696
0.01661571 -0.010645016 -0.010123788 -0.030602464 0.021308905 -0.028552707 -0.025802104 -0.03517284

6.running_mean f4 [64]
00000000: a1c5 0dbf 61db bb3c 7e1e 2c3e ab33 293f
00000010: fda4 51bf 1195 39bf 16b0 5dbe bb5d 2c3e
00000020: 4d06 46be 89c8 44bf 6a74 0fbf c2c0 d9be
00000030: b4df 33be d37a 043c 330d 813e f540 9fbe
00000040: 1b8b 81bf 4e48 b7be 17e0 88bf 71fa 02bf
00000050: b176 1cbf 9210 4cbe 1ce9 a03e ffc7 48bf
00000060: b2da babe 6392 23be aa83 61be 7ea2 3b3f
00000070: 4216 6dbd fcf0 99be 504f d5be 57d9 5dbe
00000080: 12af fbbe 097b 30bf b6ee ebbe aa53 e2bd
00000090: ec39 8b3e 36d2 aa3e 8bfa b9be e788 03bf
000000a0: 5c34 9fbe 4017 853d 2d16 04bf 9f6f 8bbf
000000b0: f2fc b0be 3631 d6be a4d1 adbe cda5 88bf
000000c0: 1ef7 87be 1690 8abe 1e7f 65be 8cdf fcbd
000000d0: f99b d3be 060e 46bf 3575 4cbd 46a8 e3be
000000e0: 5531 97bf 686b 45be 448f a4bc e940 22bf
000000f0: b55c 35bf 33df 9fbd 5bc7 7cbf df4b 17be
-0.5537968 0.022931756 0.16808507 0.66094464 -0.8189238 -0.7249308 -0.21649203 0.1683263
-0.19338341 -0.7686849 -0.5603701 -0.42529875 -0.17565805 0.008085924 0.25205383 -0.31104246
-1.0120577 -0.35797352 -1.0693387 -0.51163393 -0.6111861 -0.19928196 0.31427848 -0.7843017
-0.36494976 -0.15973811 -0.22022882 0.7329482 -0.057882555 -0.3006667 -0.41662073 -0.2166494
-0.49157006 -0.68937737 -0.4608056 -0.11051114 0.27192628 0.33363503 -0.36323962 -0.5138077
-0.31094635 0.06498575 -0.5159634 -1.0893439 -0.34567982 -0.4183442 -0.33949006 -1.0675598
-0.26555723 -0.27063054 -0.22411773 -0.12347326 -0.41329935 -0.7736515 -0.049916465 -0.4446432
-1.181193 -0.19279253 -0.020087846 -0.63380295 -0.70844585 -0.07806244 -0.9874169 -0.14775036

6.running_var f4 [64]
00000000: 2336 1c3e 07c8 7c3e bb42 f53d afa7 a33e
00000010: 4e9b 9c3e ef83 a23e c378 853e 0a03 353e
00000020: 515c 993e 4cb6 9a3e 80fa 553e 4605 8c3e
00000030: 7d63 0a3e b749 173e 83b4 8f3e cff1 513e
00000040: 7e75 f03e abf5 773e 87bd dd3e 5846 723e
00000050: 370d 373e 6037 403e 9aad a93e 9fca 0e3f
00000060: 1c20 0f3e bc30 de3d 1cf8 263e 240c 7a3e
00000070: e829 6b3e bd78 1f3e 81a2 de3e 1923 9d3e
00000080: 2d6e 5d3e bbda a03e 1492 4d3e 1d61 023e
00000090: 8fd2 9a3e 05d2 3e3e b8ee 523e 02b7 653e
000000a0: fd9b 303e 5acf ed3d fef7 113f a4ca c23e
000000b0: 60eb d43d 139f 2e3e fc0f 8e3e 41b0 f43e
000000c0: 10f9 0d3e 3266 693e 6291 773e ebb5 433e
000000d0: f1d4 2f3e fb46 9c3e 7e98 433e 7772 443e
000000e0: 41f4 2e3f e12a 9b3e 2d98 bc3e 35f0 733e
000000f0: 6c32 be3e 8e07 4e3e bcea 963e c683 493e
0.15255027 0.2468568 0.119756185 0.3196387 0.30587238 0.31741282 0.26068696 0.1767694
0.29953244 0.30217206 0.2089634 0.27347773 0.13514514 0.14774214 0.28067407 0.20502399
0.4696464 0.24214809 0.4330866 0.23659647 0.17876135 0.18771124 0.3314026 0.55777925
0.13977093 0.10849139 0.16305584 0.24418694 0.22965205 0.15573402 0.43483356 0.3069084
0.2162406 0.31416878 0.20075256 0.12732358 0.30238768 0.18634804 0.20598876 0.22433093
0.17247005 0.11611815 0.5701903 0.38045228 0.10396457 0.1705287 0.2774657 0.4779072
0.13864541 0.2279289 0.24176553 0.19112365 0.17171074 0.30522904 0.1910114 0.1918429
0.6834145 0.30306152 0.3683485 0.238221 0.37147844 0.2012007 0.29475963 0.19679174

10.weight f4 [64, 64, 3, 3]
00000000: f5ad 0cbc d064 0fbd e788 95bd fa5f d83a
00000010: 9d1a 80ba 08c4 62bd 8087 e83c 4f3c 11bc
00000020: ff6c 47bd bd4b 7a3c 22b6 8a3c 8acd b5bb
00000030: dfbd 10bd 249a d6bc bcff 2e3c ad4b 02bc
00000040: e8fc 9fbb 73e7 85bc 08af c9bb fd1c e5bc
00000050: 45c6 8bbb 5bba dfbc e2ff e5bc 9e3a adba
00000060: 0184 08bd 2ec2 c03b 46b5 14bd 132a 743c
00000070: fd10 a8bc cf69 3d3c 1fca 38bc 5918 123c
00000080: b3ec 0f3d f207 2dbc 4aaa 0bb9 9968 9ebc
00000090: 0c71 383c 58f1 ca3b 11a1 a5bc ca38 86bc
000000a0: 0d30 023d 16c6 ef3c 64ec 773c f29a f6bc
000000b0: 2f02 c4bc db60 66bd 5f14 61bd 1471 0cbd
000000c0: 240d 16bd f079 4cbd 2367 29bd 1a37 e6bb
000000d0: a74f 99bc 4dcc 31bd a463 9e3d 827a f83c
000000e0: c35b 383d 50a9 023d a73d a5bc b587 fa3b
000000f0: 5cb9 a33b 89c7 723d 0f62 d23b 9961 a13b
00000100: e7f1 323c f5d3 d2bb d4d1 023c da4b 00bd
00000110: 01e8 86bc c62d 863c aca2 543d a89d 5dbc
00000120: 5e43 00b9 f225 a93c c429 18bd fd17 debc
00000130: 530f 07bd b058 b7bc e988 483d 4653 25bc
00000140: b61f 313d f7ba 70bd bf4c 163c 08d8 9fbc
00000150: d80d e3bc 68fb 20bd 06e4 f6bc 2725 1ebd
00000160: 7bb2 22bd fd62 edbc ab77 6e3d 3018 953b
00000170: f034 733d 04e6 e43c d7be 3e3d 3e85 a13c
00000180: 5330 bbbc 4629 bc3c 4bf0 ae3c a7ed 243d
00000190: 5d5e 333d 0cd2 6d3d c17c a33c eca0 0bba
000001a0: 9280 f43c 5372 993b cda0 603d 67fa e73c
000001b0: c1a9 083d 10ae 2e3d a9a6 943d 4cc6 e83c
000001c0: 7812 5b3d 3d35 493c f20e 253d ec7f 713d
000001d0: 9b65 703d 684b c0bc 943f a239 b530 51bd
000001e0: efcf 423c 9941 e6bc 5a4a b5bc 2158 04bc
000001f0: b574 dbbc 3113 9dbc bb2f 693c 0389 b13c
00000200: 95dd 13bb ae55 82bc 82aa 0dbc 529d 85bc
00000210: a927 dc3c 5039 a9bc 23af f9bb ca35 a2bb
00000220: 2114 a23c 7ac1 6e3d 0e43 cf3c 064a 973c
00000230: a1f4 0a3d d96f 92bb 05d8 6d3c a40a 783d
00000240: 12a2 2ebd ba68 3fbd 247c 1fbd 85b1 06bd
00000250: a830 abbb a3f6 783c 3133 a43c 6346 0d3d
00000260: 8421 983c 2c8d 1bbd 79c7 c3bb b1a9 4c3c
00000270: eaca b43c 028c d4bc c770 b73c 89e2 e8bc
00000280: 6420 02bd d481 81bb 2393 443c c933 f7bb
00000290: accf 1b3c b257 553a e03e babb 143c 483c
000002a0: 4591 1abb fc06 49bc acb4 b73b b2e6 14bc
000002b0: 913f 0ebd 5319 dd3c 793e 4abd c0e6 aa3b
000002c0: dcdc 05bd c934 12bc d47e 763c 220a 363c
000002d0: 449e 053d 7086 03bc fe4e 943c 2673 a03c
000002e0: 8d04 f3bc bf95 8abc 8d3d a03c 19f7 283c
000002f0: 63ee 38bc eeb3 0fbc 6121 a13c 9e32 cf3c
00000300: 326e f83c 2033 c93c 5446 f03b b619 0fbc
00000310: 42c6 233d 2cc2 443b 8bc9 e13c 71ad 4abc
00000320: bbc4 d53c 2637 0a3c 43b5 373d c806 423c
00000330: 99f6 173d b3bf bfbc 4cc8 933c 23ea 71bd
00000340: f8df 45bd 79db 67bd ad5b 2ebd b12f c8bc
00000350: 87ad 03bb cde3 173c a128 7bbb 60b8 9c3c
00000360: 82cb 26bd 409a c03c ea5b 26bd a7b1 88bc
00000370: 6544 83ba c98e d5bc 4749 8cba a2e1 4abc
00000380: b6dc 37bc 9759 1cbc 108e 29bc f653 703c
00000390: e84d f83c 671e 283d 2f83 d63c eca1 663d
000003a0: 61c9 da3c 21d9 193d 222f 28bd 3a58 d9bc
000003b0: b492 18bd 0433 0ebd ee95 1f3c f10e f0bc
000003c0: beb6 20bd e968 11bd 7ebe 1dbd 2603 eb3b
000003d0: 52a4 cdbc 0a6b 1ebb a956 913b b6d7 7f3c
000003e0: f97f 06bd e57a bc3c 79c8 4d3c dabf 713b
000003f0: 8b29 abbc 4a2e 8a3c a7dc bb3b 0823 02bc
-0.008586396 -0.03500825 -0.07301503 0.0016508095 -0.0009773556 -0.05536273 0.028384924 -0.008864476
-0.04868793 0.0152768465 0.01693255 -0.005548184 -0.035337325 -0.026196547 0.010681089 -0.007952613
-0.0048824437 -0.016345715 -0.0061548986 -0.027967924 -0.004265579 -0.02731054 -0.028076116 -0.0013216322
-0.033329014 0.005882523 -0.03630569 0.014902609 -0.020515913 0.011560871 -0.011278658 0.008916938
0.035137843 -0.010560976 -0.0001331951 -0.019336985 0.011257421 0.006193321 -0.020218404 -0.016384501
0.031784106 0.02926926 0.0151320435 -0.03010318 -0.023926822 -0.056244712 -0.054951068 -0.034287527
-0.036633626 -0.049920976 -0.041358124 -0.0070256116 -0.018714739 -0.043407727 0.07733849 0.030331854
0.045009386 0.03189975 -0.020171 0.007645572 0.004996462 0.059272323 0.006420381 0.0049249646
0.010921932 -0.0064339587 0.007984597 -0.031322338 -0.01646805 0.016379248 0.05191295 -0.013526358
-0.00012232127 0.020647977 -0.037149206 -0.027111048 -0.0329736 -0.022381157 0.048958693 -0.010090655
0.043243133 -0.058772054 0.009173571 -0.019512191 -0.027716562 -0.03930226 -0.030138027 -0.03860965
-0.039720993 -0.028977865 0.058219593 0.0045500025 0.059376657 0.027941711 0.046568718 0.019716855
-0.022850191 0.0229689 0.021354815 0.040265705 0.043791164 0.058061644 0.019956948 -0.00053264084
0.029846463 0.004682818 0.05484085 0.028317643 0.033365015 0.042646468 0.072583504 0.028414868
0.05348441 0.012280759 0.040297456 0.058959886 0.05869065 -0.023473457 0.00030946417 -0.05107184
0.011890396 -0.028107451 -0.02213018 -0.008077652 -0.026789049 -0.01917419 0.014232571 0.021671778
-0.0022562493 -0.015909996 -0.008646609 -0.016310368 0.02687438 -0.020657212 -0.007619755 -0.00495026
0.019784989 0.058289982 0.025300529 0.018467914 0.033924703 -0.0044688997 0.014516835 0.060557023
-0.04263503 -0.046730734 -0.03893675 -0.03288414 -0.005224306 0.0151955215 0.020043941 0.034490954
0.018570669 -0.03797643 -0.0059747067 0.012491629 0.022069413 -0.025945667 0.022392644 -0.028428333
-0.03176917 -0.0039522443 0.011997971 -0.007544015 0.009509962 0.0008138373 -0.005683765 0.012221355
-0.0023585123 -0.012269732 0.0056062546 -0.009088205 -0.03472859 0.026989615 -0.049375985 0.005215496
-0.03268133 -0.008923718 0.015044887 0.011110814 0.032621637 -0.008027658 0.018104073 0.019586157
-0.029665256 -0.016917108 0.0195606 0.010312819 -0.011287305 -0.008770926 0.019669237 0.02529269
0.030325983 0.024560511 0.0073326025 -0.008734157 0.039983995 0.0030022962 0.027561923 -0.012370453
0.026094785 0.008436 0.0448506 0.011842437 0.03710041 -0.023406839 0.018039845 -0.05906118
-0.048309296 -0.05660579 -0.042567898 -0.024436804 -0.0020092444 0.0092706205 -0.0038323777 0.019130886
-0.040721424 0.023511052 -0.040615 -0.016686274 -0.001001489 -0.026069062 -0.0010702991 -0.012382897
-0.011222055 -0.009542844 -0.010348812 0.014668455 0.030310586 0.04104462 0.0261856 0.056306764
0.026707353 0.037560586 -0.041060574 -0.026531328 -0.037249282 -0.03471662 0.009740336 -0.029304
-0.039236777 -0.03550044 -0.038511746 0.007172006 -0.025102768 -0.0024172687 0.0044353795 0.015615394
-0.032836888 0.02300782 0.012560003 0.0036888034 -0.020893833 0.016867775 0.005733091 -0.007942922

10.bias f4 [64]
00000000: 1a47 213d fc7a 0abd 4eb3 03bb 6357 8e3c
00000010: 65ce a03b f609 553c 757f 723c 09f5 1abd
00000020: 74d9 163d 998f d43c ce99 dfbc d30c e73c
00000030: ee64 723c 4337 6dbc 0b63 e93b 012c 68bb
00000040: a018 29b9 cbde 533c ebcd fb3c fc70 173d
00000050: eecd 9d3a 73c5 4d3c 85b2 bd3c 5e8f b53c
00000060: 8174 d3bc ec1c 9a3b 19e6 223d 6dd9 143d
00000070: e1f1 ab3c 1d66 1f3c ee2e d53c f006 213d
00000080: 830b 80bb 92e8 063d a18e 0b3d 779e 9bbc
00000090: c3ed 693b ec39 833c d5aa 4abc 63b2 033d
000000a0: 4686 02bd a794 c7bc 3e5a 263d 7d35 dfbc
000000b0: 4ce6 033d efe0 113d 7790 953c b881 2a3c
000000c0: 7b79 e4bb 19e1 c3ba d4c6 ff3a ffad 17bc
000000d0: cb17 343b 3a54 5e3c ce4e a23c ca83 063d
000000e0: 5524 883c 360d 033d 8f34 113c 5c9b 273c
000000f0: f8aa dd3c b130 493b 988d e4bc 5545 bfbc
0.03937445 -0.033808693 -0.0020095888 0.017375654 0.0049074166 0.013002863 0.014800896 -0.03783134
0.036828473 0.025947379 -0.02729502 0.028204357 0.014794571 -0.014478507 0.0071224025 -0.003542662
-0.0001612627 0.012931536 0.030737838 0.036972985 0.0012039521 0.012559283 0.023156414 0.02216309
-0.02581239 0.004703155 0.03977022 0.036340166 0.02098936 0.009728936 0.026023354 0.039313257
-0.0039076223 0.03293664 0.03407157 -0.01899646 0.0035694696 0.01601883 -0.012369831 0.032152545
-0.031866334 -0.024362875 0.040613405 -0.027247185 0.03220205 0.035614904 0.018257363 0.010406904
-0.0069724894 -0.0014944404 0.0019514211 -0.0092577925 0.0027480002 0.013569886 0.019812968 0.032840528
0.016618887 0.03199502 0.008862629 0.010229912 0.027059063 0.0030699188 -0.027899548 -0.02334849

11.weight f4 [64]
00000000: a767 893f eb7e 8b3f d65c 8c3f 4f05 8c3f
00000010: bea1 8c3f dc06 8c3f 2d84 8b3f c5c7 883f
00000020: 749f 8c3f 7828 8b3f 394b 8b3f da19 8b3f
00000030: e62b 883f 6517 8a3f 64fd 883f 1e03 8a3f
00000040: f1a7 8a3f 0573 8a3f 2a91 8a3f 3c14 8d3f
00000050: 26da 8a3f bb98 8d3f cf5d 8b3f b3d6 8a3f
00000060: 48e4 8c3f 6a1b 8d3f f359 8c3f efbe 883f
00000070: 8902 8d3f 1434 8a3f edf8 8c3f fcbc 8b3f
00000080: 3274 8c3f c502 8c3f d5c0 8a3f 72d9 8b3f
00000090: 8338 8a3f c9c0 8a3f 7f14 8d3f f0ba 8a3f
000000a0: 3b3e 8c3f 83d4 823f 4c38 8d3f 31bf 8c3f
000000b0: a014 8c3f 3df4 8c3f 8e10 8b3f c1f8 8b3f
000000c0: 011c 8b3f 43d2 8a3f d4f8 8c3f 4c90 8b3f
000000d0: 6b43 8c3f 0cbd 8d3f fa62 8a3f fbd2 8b3f
000000e0: 41fd 8c3f cb36 8a3f b83d 8a3f 65c7 873f
000000f0: 3752 8a3f 08c2 8c3f 4102 8c3f ad0e 8d3f
1.0734757 1.0898107 1.0965831 1.093912 1.098686 1.0939593 1.0899712 1.0685965
1.0986161 1.0871725 1.0882331 1.0867264 1.0638397 1.078839 1.0702329 1.0782201
1.0832502 1.0816351 1.082555 1.10218 1.0847824 1.1062235 1.0888003 1.0846771
1.1007166 1.1023991 1.096495 1.0683268 1.1016399 1.0797143 1.1013466 1.0917048
1.097296 1.0938345 1.0840098 1.0925734 1.0798496 1.0840083 1.102188 1.0838299
1.0956491 1.0221103 1.1032805 1.0995847 1.0943794 1.1012036 1.0864427 1.0935289
1.0867921 1.0845417 1.1013436 1.0903411 1.0958074 1.1073318 1.0811455 1.0923761
1.1014787 1.0797971 1.0800085 1.0607725 1.080634 1.0996714 1.0938188 1.1020104

11.bias f4 [64]
00000000: 71cb 2e3d 87c4 b73d 87f3 b63d 2c5a c33d
00000010: 4a35 b73d 3d1e 8d3d 9cb8 a43d 700c 6a3d
00000020: d83d a13d 5bc2 733d 1c91 b33d 5834 a63d
00000030: 8231 483d 9115 6b3d 1e42 353d fcd5 9a3d
00000040: eef8 453d 8b4d 733d 0ded 813d c2ef c83d
00000050: cb61 873d b5ac c63d 1293 ad3d e121 603d
00000060: e078 ba3d 395f c63d f0e3 b03d d4fc 2d3d
00000070: da63 c13d 20aa 733d 4542 a53d d55e aa3d
00000080: 0af2 bf3d e2e1 963d 7fbc 8e3d c8b3 a13d
00000090: b0e2 933d bee8 7f3d ad3a c43d 527c a43d
000000a0: 2827 9c3d 64ef 50bb c825 ba3d 8803 a63d
000000b0: bbba b13d ff7f c03d 8a20 a43d b164 913d
000000c0: d0af 933d c237 913d 9d1a c93d 96a7 9d3d
000000d0: c588 b03d 020f ca3d dc96 803d 70dd 8b3d
000000e0: 29e7 b63d 8971 903d 4fb2 753d 590b 203d
000000f0: 4f1a 8b3d e1c2 b73d 0fb4 ae3d 4f67 c73d
0.042674486 0.089730315 0.08933168 0.09538683 0.08945711 0.06890533 0.08043024 0.057140768
0.07873124 0.059511524 0.08767912 0.081154525 0.04887534 0.057393614 0.044252507 0.075603455
0.0483331 0.059400123 0.06344042 0.09811355 0.066104494 0.0970091 0.08475317 0.05471981
0.09105086 0.09686131 0.08637226 0.042477444 0.09442873 0.059488416 0.080692805 0.08318869
0.09372337 0.073673025 0.069695465 0.07895619 0.072209716 0.06247782 0.09581504 0.08031525
0.07624656 -0.003188097 0.090892375 0.08106142 0.08678194 0.09399413 0.08014019 0.070992835
0.07211268 0.07090713 0.09819529 0.0769798 0.08619837 0.09866144 0.06278774 0.06829345
0.08930809 0.07052905 0.0599845 0.039073322 0.06792127 0.08972717 0.08530437 0.097365014

11.running_mean f4 [64]
00000000: 6c79 8d3e c082 0e3d ce1e 11bf b450 4f3f
00000010: ea20 cbbe 6818 ec3e 0470 36bf 81e2 03bf
00000020: 7444 993e d2a4 c43b 8f0f 1c3d 7c71 9bbd
00000030: db07 783e 8b79 24be 5d31 4ebe 13c3 03bd
00000040: 14f8 083f 789b b7bc 2a81 8ebe c612 ce3e
00000050: 3628 3ebd b29b 92bd 47b9 d03b e6af 9d3d
00000060: a227 0d3f 45cd 34bf 410d 21bf 4eb3 193f
00000070: 7c09 06bf ae66 78bd 3176 a0be f4f1 c4be
00000080: 7a71 a6be 5a52 433e 50d4 0e3f aa8f f53d
00000090: 64fa eebd b949 1d3e fbf8 5c3e 3345 61bd
000000a0: da5e b13e 6155 29be 81a3 393d a22f 50be
000000b0: 5636 a93e e21a 5abe 680a 01bf f676 b53e
000000c0: 1954 e93d 8ba0 ab3c 12cc 673e d53b ae3d
000000d0: 3330 c23e ad6b 583e f514 043f 13e7 753f
000000e0: de10 f93e 5eea 7fbe 810d 303f aa47 34bc
000000f0: ec19 243c ba59 7b3d 65c4 57be 4945 d6be
0.276317 0.03479266 -0.5668763 0.8098252 -0.3967355 0.4611237 -0.7126467 -0.5151749
0.29935038 0.0060010934 0.038100775 -0.07590005 0.24221747 -0.1606199 -0.20136018 -0.03216846
0.5350354 -0.022413 -0.2783292 0.40248698 -0.046425067 -0.07158603 0.006369743 0.076995656
0.551386 -0.70625716 -0.6291085 0.6003922 -0.5235822 -0.060644798 -0.31340173 -0.38465846
-0.3250845 0.19074383 0.55792713 0.11990292 -0.11668852 0.15360154 0.21579354 -0.054997634
0.34642678 -0.16536476 0.045321945 -0.2033067 0.33049268 -0.21299317 -0.50406504 0.35442322
0.113929935 0.020950576 0.2263644 0.08507506 0.37927398 0.21134825 0.5159448 0.96055716
0.4864568 -0.24991748 0.68770605 -0.011003414 0.010015946 0.061364867 -0.21071012 -0.41849735

11.running_var f4 [64]
00000000: 4ceb 5d3e 3b3d f43e 650e c13e bec0 b43e
00000010: 43f0 883e 6a72 cc3e 946d 883e d8a1 9e3e
00000020: 885f 763e 11d5 b03e 7bb0 fe3e 5183 9f3e
00000030: c13b d33e 655f 743e d86e 803e 8dd5 e43e
00000040: 65bf 573e c738 8b3e 034c 5c3e 2fe9 bc3e
00000050: 7d8c 9c3e 59b4 883e edb1 713e 607b 943e
00000060: 9d63 b83e e561 ab3e 1656 8f3e 6cd2 4c3e
00000070: 2c2c 8f3e 9cbe d23e c5c9 b53e 51ce 8e3e
00000080: fff1 213f 5004 f23e 78de 503e a404 b03e
00000090: 078e f63e d52f dd3e 2aa1 853e ee14 143f
000000a0: 9c3e e33e d0f7 a53e 91f4 aa3e 271f 643e
000000b0: 3645 9b3e c3a6 b53e 97ec 823e 22aa 383e
000000c0: 8316 b73e 8bd5 ab3e 2a64 ec3e 46d9 8a3e
000000d0: 6cb0 c73e 23aa ba3e 1c64 8d3e deaf 8f3e
000000e0: 65e7 743e 46a7 733e 95b8 503e 6362 3c3e
000000f0: d577 d43e 902a b03e 02dd e23e 1dbc d23e
0.2167179 0.47702965 0.37706295 0.353033 0.26745805 0.3993104 0.266461 0.30982852
0.2405988 0.34537557 0.4974402 0.31154874 0.41256526 0.23864515 0.25084567 0.44694176
0.21069105 0.27191755 0.21513371 0.36896655 0.30575934 0.26700094 0.2360303 0.29000378
0.360135 0.33473125 0.27995366 0.20002145 0.27963388 0.41161048 0.355055 0.27891782
0.6325988 0.47268915 0.20397365 0.3437854 0.48155233 0.43200555 0.2609952 0.57844436
0.44383705 0.32415628 0.33389714 0.22277509 0.3032624 0.35478792 0.2557113 0.1803365
0.35759363 0.33561358 0.4617017 0.2711889 0.39001787 0.3645793 0.2761544 0.28063864
0.23916395 0.23794279 0.20382912 0.18396907 0.41497675 0.34407473 0.4430924 0.41159144

16.weight f4 [32, 64]
00000000: 8a01 a43d 2fcf ddbd 4f92 793c 3f91 163e
00000010: dd4e 8ebd b058 e9bc 9561 9d3d 6c5d f53d
00000020: 5c89 97bb 5b41 0d3e 3552 72bc 1a0b 9ebd
00000030: 8e75 c93d 96b0 353e 9e76 5dbd f046 c3bd
00000040: 84f9 983c 17a8 7bbd fd8b bd3d 7916 40bd
00000050: 8901 8a3c 96f6 a63d 9fae 85bd 5d6c 503c
00000060: 60fa a3bc 1144 d4bd d18c 393d 15f4 06be
00000070: 3f5e 3c3c 2d90 98bd 93b3 353e b736 12be
00000080: 8fa8 02bc 1ed5 4f3d 0a45 3b3d 5a66 81bc
00000090: bd09 8cbc dc8a 033d be8b 7bbc 9c2d d5bd
000000a0: 94db 783c 5967 f4bc 372f 223e 5169 5e3d
000000b0: 3129 e6bd cbfd 633d 2307 7fbd d25a f4bc
000000c0: 9f26 c23d e082 c9bc 9e95 d9bc 2979 ddbc
000000d0: de75 84bc c2c6 12bd 0516 0bbe 0d5e cc3d
000000e0: 8792 ccbd 488e 5ebd af84 89bd 4045 e53d
000000f0: 9ea8 d93c ddc3 59bd a41b 42ba 3aee 703c
00000100: c173 e53d 4d75 fe3d 1253 eabd cd27 0b3e
00000110: d204 b1bb 2ab2 26bd 94ca bebd 3f8d ad3d
00000120: 9e4d 813d 5ebb 043e 681f afbd 5ad5 6abd
00000130: 41dd 733d 2355 533e 1557 57bc 3243 e0bd
00000140: cd83 273e 2b0d 043c a0a3 e9bc 86d3 d33d
00000150: 9f0f f6bd 5d06 2a3e e18b 853c 1729 94bb
00000160: 783d ed3d c6ab f8bc d1b3 973b 5a07 183e
00000170: 3906 85bd aef5 82bd 64ac d63c 9909 9cbd
00000180: 535a 073d 7f6f 2ebb d6ca 273e 974e f93d
00000190: 78f0 693d 5be7 38bd 5f99 55bd 7aab 873b
000001a0: 8db1 bdbc 79b4 133e 0499 293e 9f70 4dbd
000001b0: 1941 973b aad3 483d 7e35 2f3d a04a 653e
000001c0: 9b02 473d e055 953d 3782 40bd 9d6c 433e
000001d0: 65e9 463d 32e7 ed3d 23ff c33d 9662 1b3e
000001e0: 3724 75bd 5de1 c3bd e327 2d3e 9766 47bd
000001f0: 6e28 1bbe 20ca 3a3d 2613 243d 8f3a f43d
00000200: d25b e93d ae15 d33d 7c3e e43c f9d7 343d
00000210: 305c 52bd 9336 8f3d 1f44 10bc 27b1 9ebd
00000220: 2c1c f7bd aa5f 8c3d c2e6 d33d a459 33bd
00000230: a54a 343e 6c17 e7bd 2bb4 c0bd 5815 89ba
00000240: 3760 b7bd 5984 5b3c cf55 84bd 5ae0 34bc
00000250: bfe2 9cbd 57bb 863b d96e 6f3d 8356 b1bd
00000260: 2f77 2bbd ead9 f93d c644 94bd 2414 463c
00000270: 5ef1 2cbe 03b0 ab3c 1bc9 51ba 1663 973d
00000280: 2bde 1e3e cdf1 383d 1858 e23d a3e9 42bd
00000290: 766e 363e 694e 89ba 8fb2 113e 91b6 1ebd
000002a0: b031 3d3e 1c48 d8bd 2164 cf3d 39fc f93c
000002b0: 2202 ee3d ceb6 0d3e e9a3 b7bc 5abb abbd
000002c0: 87d6 753d 0b5c 28be a59f de3c 524a dbbd
000002d0: 7fc7 383e 8ee3 9dbd d1db d43d a790 0cbd
000002e0: 91a5 de39 eee1 14bd f2ad 0c3e 5c51 9e3d
000002f0: 5239 aebc 6cc6 90bc f211 253d 7cc8 19be
00000300: 7033 00bc f439 2dbc 0e30 fc3c 33ac a73d
00000310: 5280 2ebe 16f8 3c3a 4f80 263a 88f3 a73c
00000320: 8933 4e3e de7e 8b3d 7a1e 313e d8bd 71bc
00000330: a92b 8a3d bde5 533d 5fea a33d a25b 433c
00000340: 3861 0f3e c42c d13d 9209 fa3d acda 943d
00000350: 02ea 8ebd d1a6 32be 7f21 39bd 27eb fb3d
00000360: 4e25 cebd 3212 c4bd f085 9abd f990 12bc
00000370: 3e47 223e 0e28 7abd 6d6d e83d 0fd3 f5bc
00000380: a2ca 18be bda5 a53d 8ace 5a3d 435f 243e
00000390: 05b0 d63c c8e1 42bc a36f 4a3e 369b fa3d
000003a0: 7b76 803c 651e 81bd 712d 613d e301 5c3e
000003b0: 41a8 b53d 6301 283e 0346 eebd b2a5 033d
000003c0: 8e56 803d a34d 18bd cc98 163c 04a8 b3bd
000003d0: 258e 183e 6504 303d 407a 89bc 7daf 69bb
000003e0: 0299 db3d 3c0e d83d 5718 ff3d 8671 14bc
000003f0: 3a22 8fbd f23c d53c 799b 863d 5645 e2ba
0.08008106 -0.10830533 0.015232637 0.14703844 -0.06948636 -0.028484672 0.07684628 0.119807094
-0.004624529 0.13794462 -0.0147901075 -0.07716961 0.09836875 0.17743143 -0.0540682 -0.09535015
0.018673666 -0.0614396 0.09255216 -0.04689643 0.016846435 0.08152501 -0.06527447 0.012721148
-0.020016849 -0.10364545 0.04530031 -0.13179047 0.011497079 -0.07449374 0.17744283 -0.14278685
-0.007974758 0.050740354 0.045720138 -0.015795875 -0.017094487 0.03211485 -0.015353141 -0.1040909
0.01518907 -0.029834436 0.15838324 0.054299656 -0.112383254 0.055661958 -0.062262665 -0.029828463
0.09480023 -0.024598539 -0.0265606 -0.027035313 -0.016169485 -0.03583408 -0.13582619 0.09978876
-0.099888854 -0.05433491 -0.067147605 0.11194849 0.02656966 -0.053165305 -0.00074046315 0.014705235
0.11203719 0.12424717 -0.11441626 0.13589402 -0.005402186 -0.040697254 -0.093159825 0.08474206
0.063136324 0.129621 -0.08550912 -0.057332374 0.059537176 0.20637946 -0.013143321 -0.109503165
0.16358872 0.00805978 -0.028520405 0.10343079 -0.12014698 0.1660399 0.016302051 -0.0045215
0.1158399 -0.030355345 0.00462959 0.14846554 -0.064953275 -0.06394516 0.02620525 -0.07619018
0.033045124 -0.002661675 0.1638597 0.12173193 0.057114094 -0.045142513 -0.05214822 0.0041403146
-0.023155952 0.14424314 0.16562277 -0.050156232 0.0046159145 0.049029984 0.042775624 0.22391748
0.04858647 0.0729177 -0.046999183 0.19084401 0.048562426 0.11616363 0.09570148 0.15174326
-0.05984899 -0.09564469 0.16909747 -0.04868182 -0.15152141 0.045602918 0.040057324 0.11925232
0.113944665 0.103068694 0.027861826 0.04415128 -0.051357448 0.06992831 -0.008805304 -0.07748633
-0.1206592 0.06854184 0.10346748 -0.04378666 0.176066 -0.11283764 -0.09409364 -0.0010458631
-0.089538984 0.013398253 -0.06461679 -0.011039818 -0.07660436 0.004111688 0.058455322 -0.08659079
-0.04186171 0.12199767 -0.0723968 0.012089763 -0.1688895 0.020957952 -0.00080026843 0.07391946
0.15514438 0.045152474 0.11051959 -0.047586095 0.17815575 -0.0010475639 0.14228271 -0.038748328
0.18475986 -0.10560629 0.1012652 0.030515777 0.116215006 0.13839266 -0.022417026 -0.08385344
0.060019042 -0.16441362 0.027175734 -0.10707535 0.18044852 -0.07709418 0.10393489 -0.03431764
0.00042466496 -0.036348276 0.1373823 0.07730362 -0.021267567 -0.01767274 0.040300317 -0.15017885
-0.007824764 -0.010572899 0.030784633 0.08187141 -0.17041138 0.00072085985 0.0006351517 0.020501867
0.20136847 0.06811307 0.17296782 -0.014754735 0.06746609 0.051732767 0.08003687 0.011923702
0.1400193 0.102136165 0.12208857 0.07268271 -0.06978227 -0.17446448 -0.04519796 0.12300711
-0.10065709 -0.09573783 -0.07545078 -0.008945697 0.15847489 -0.061073355 0.11348996 -0.030007867
-0.14921048 0.08088253 0.053419627 0.16051964 0.02620698 -0.011894651 0.19769149 0.122366354
0.015681496 -0.063046254 0.054974977 0.21485095 0.088699825 0.16406779 -0.116344474 0.03214044
0.06266509 -0.037183415 0.009191703 -0.08772281 0.14897974 0.04297294 -0.016781926 -0.0035657578
0.10722543 0.1054959 0.12455814 -0.009060269 -0.0698895 0.026030038 0.06572623 -0.0017263095

16.bias f4 [32]
00000000: e643 063e 2b59 c23c bc82 dc3d 253e b13d
00000010: e83b 83bd f37f 883c 48de a83d e7f1 3c3d
00000020: 3ddf 2abd a46e abbc dd12 3cbd df2c 2c3c
00000030: bf1d b13d a1f4 733d 67e0 e03d 3c6d 2f3b
00000040: 0d73 0a3e 1f13 663d 56bd f63d 61a6 5cbd
00000050: 1990 723d cbb0 053e ea11 ed3c d6ff 3c3d
00000060: 636a 193b aa21 d23d bef6 bdbd 2eaa 57bd
00000070: eec4 713c 8e35 53bd cefd 033d 896e 213e
0.13111839 0.02372416 0.10767123 0.08654431 -0.064079106 0.016662573 0.08245522 0.046129134
-0.041716803 -0.020926781 -0.045916427 0.010508745 0.08648252 0.05955947 0.10980301 0.002676799
0.13520451 0.05617058 0.12047832 -0.05386961 0.059219453 0.13055722 0.028939206 0.04614242
0.0023409359 0.10260327 -0.09275578 -0.05265253 0.014756424 -0.051564746 0.03222447 0.15764822
