03_AML2425_Unlearning/Practice/checkpoint/trained_model.pth (torch, 245369 bytes, 22 tensors)

0.weight f4 [32, 3, 3, 3]
0	0x3cf23534	0.029566385
1	0x3deb4928	0.11488563
2	0xbe131bbf	-0.14366053
3	0xbe00bba1	-0.12571575
4	0xbd56b76e	-0.052421026
5	0x3d8b50df	0.06802534
6	0x3c2e73ea	0.010647753
7	0x3e2fc6c0	0.17165661
8	0xbc465f49	-0.012107679
9	0x3d68b4f4	0.056813195
10	0xbd926a64	-0.07149199
11	0xbd2dbd28	-0.04241672
12	0xbe43706c	-0.19085854
13	0xbe056fc5	-0.13030918
14	0xbda78ac7	-0.081807666
15	0xbc229d0a	-0.009925136
16	0x3d82c388	0.06384951
17	0x3dcbaf31	0.099455245
18	0xbe2ed1d7	-0.17072235
19	0xbe01f382	-0.12690547
20	0x3d666879	0.056251977
21	0x3e0ff93d	0.1405992
22	0xbd1c2754	-0.038123444
23	0x3e2a228e	0.16614744
24	0xbd3d9086	-0.046280406
25	0x3cf67cc9	0.0300888
26	0x3e4c8ae5	0.19974859
27	0xbdf98662	-0.121838346
28	0xbd4f0c7c	-0.050549015
29	0x3d85c0f0	0.065309405
30	0xbd702b6e	-0.058635168
31	0x3e2fd044	0.17169291
32	0xbdafc37d	-0.08582208
33	0xbd641f2c	-0.05569379
34	0xbe06f400	-0.13179016
35	0xbe215a8b	-0.15757196
36	0xbe1b75ff	-0.1518173
37	0x3e14a375	0.14515479
38	0x3db279f3	0.08714666
39	0x3d40e278	0.047090977
40	0xbd28a328	-0.041171223
41	0xbe177e93	-0.14794378
42	0xbcd3ebbb	-0.025869241
43	0xbe8425fa	-0.25810224
44	0xbe665f27	-0.22497235
45	0xbe25266f	-0.16127943
46	0x3da03313	0.07822242
47	0x3db75cb0	0.089532256
48	0xbe08c897	-0.13357769
49	0xbd364683	-0.04450084
50	0x3dc03a09	0.09386069
51	0x3e15c04f	0.14624141
52	0x3d0f2c82	0.034954555
53	0xbc8186bd	-0.015811319
54	0x3d7df5dc	0.062002048
55	0xbe26177c	-0.16219896
56	0x3cecfe2c	0.028929792
57	0xbe49ce0c	-0.19707507
58	0xbe08bd0b	-0.13353364
59	0xbd0e27ea	-0.034706034
60	0x3df87013	0.121307515
61	0x3e3dd3bb	0.185378
62	0x3d3c4fea	0.04597465
63	0x3c19edc6	0.0093950685
64	0x3da14a14	0.078754574
65	0xbd15f5ef	-0.036611494
66	0xbd5f5635	-0.054525573
67	0x3cc1e51a	0.023668814
68	0x3e0b80f6	0.13623413
69	0x3e019657	0.12655006
70	0xbe1a443e	-0.15065095
71	0xbd1eec2c	-0.03879945
72	0x3dac761e	0.084209666
73	0x3e3f503c	0.1868295
74	0x3e3b7c19	0.18309058
75	0x3dff9ee0	0.12481475
76	0x3cea87d5	0.028629223
77	0xbe296a7d	-0.16544528
78	0xbda9b2d4	-0.08286062
79	0xbe306b10	-0.17228341
80	0xbe5a621c	-0.21326488
81	0x3e0bab97	0.13639675
82	0x3e1d2071	0.15344407
83	0xbe4020c0	-0.18762493
84	0xbb34d3d7	-0.0027592087
85	0xbd5c1a83	-0.05373622
86	0xbd4f6541	-0.050633673
87	0xbda14aea	-0.07875617
88	0x3db9f026	0.09079008
89	0xbdb7999f	-0.08964848
90	0x3dadcd98	0.084864795
91	0x3e0af20b	0.13568895
92	0x3e25a4df	0.16176175
93	0x3d81c881	0.06337071
94	0xbe4f288b	-0.2023031
95	0xbe11c00b	-0.14233415
96	0x3e09d39d	0.1345963
97	0x3d949aef	0.07256114
98	0xbde5b270	-0.11215675
99	0xbdbcba60	-0.09215236
100	0x3e682447	0.22670089
101	0x3e55fe34	0.20897752
102	0xbe0cc3b0	-0.13746524
103	0xbdb09f84	-0.08624175
104	0xbe3335d7	-0.17501007
105	0xbb2d7457	-0.002646705
106	0xbe0110b1	-0.12604024
107	0xbd84460a	-0.064586714
108	0xbc82b964	-0.015957542
109	0x3a411cfa	0.00073666836
110	0xbd7f0cab	-0.06226794
111	0x3dd474c9	0.103738375
112	0xbe4b405e	-0.19848773
113	0x3e2fd880	0.17172432
114	0x3e0c7328	0.13715804
115	0xbe3e260e	-0.18569204
116	0x3d14c6cc	0.0363224
117	0x3cd865e1	0.026415767
118	0x3c58d894	0.01323523
119	0x3d8080d5	0.06274573
120	0x3debabaf	0.115073554
121	0xbd2882f8	-0.041140527
122	0xbd93b540	-0.07212305
123	0x3e0c160e	0.13680288
124	0xbe49bc04	-0.19700629
125	0xbce9b6a5	-0.028529475
126	0x3bff37de	0.0077886423
127	0xbd6621b8	-0.0561845
128	0xbc44775a	-0.011991346
129	0xbdacc9ea	-0.084369496
130	0xbd663a27	-0.056207802
131	0x3dabe3b6	0.08393042
132	0xbd8f117b	-0.06985756
133	0xbccadfdf	-0.024764953
134	0x3e47924c	0.19489402
135	0xbd428d68	-0.047498137
136	0xbcf9534f	-0.030435232
137	0xbd3737de	-0.044731013
138	0x3d0f8586	0.035039447
139	0x3df70b1c	0.12062666
140	0x3e348c32	0.17631605
141	0x3df992c8	0.121861994
142	0x3e3d5af0	0.18491721
143	0xbcb8fc17	-0.022581143
144	0xbe139408	-0.14411938
145	0xbdd332ae	-0.10312401
146	0x3e159b92	0.14610127
147	0xbc5ae23d	-0.0133596035
148	0xbe103062	-0.14080957
149	0xbe347e68	-0.17626345
150	0xbe316526	-0.17323741
151	0xbe3c082d	-0.18362494
152	0xbd563d59	-0.0523046
153	0x3e4a6f40	0.19769001
154	0x3e2433fc	0.16035455
155	0xbdd07316	-0.10178201
156	0x3e2be591	0.16786791
157	0xbe0e2519	-0.13881339
158	0xbcb09b7e	-0.02155852
159	0xbcd16166	-0.025559139
160	0xbcadaa76	-0.021199446
161	0xbd07fc58	-0.033199638
162	0xbe243f3c	-0.16039747
163	0xbe0b0391	-0.13575579
164	0xbb40bf94	-0.0029411064
165	0x3bae8cd7	0.005326848
166	0xbd93f9ee	-0.07225405
167	0x3ddaa126	0.10675268
168	0xbe1bfc06	-0.15232858
169	0x3c6445a8	0.013932623
170	0x3e7b3ca7	0.24534856
171	0xbd914ca5	-0.07094697
172	0x3e554e7f	0.20830725
173	0x3d91778c	0.0710288
174	0xbe327c5e	-0.17430255
175	0x3e11115f	0.14166783
176	0xbc5b70a3	-0.013393554
177	0xbdf42ac7	-0.11922222
178	0x3e05ec19	0.13078345
179	0xbe220ff3	-0.15826397
180	0x3d0185df	0.03162181
181	0xbc9895ef	-0.018626181
182	0x3de4b2d3	0.111669205
183	0x3d74603b	0.059662085
184	0x3ddad6ae	0.10685478
185	0x3d4e4c99	0.050366018
186	0xbd618f25	-0.055068154
187	0xbd57881b	-0.052620035
188	0xbe3e47ec	-0.18582124
189	0x3df63893	0.120225094
190	0x3e3caa38	0.18424308
191	0x3e385e6f	0.18004774
192	0xbe334f0e	-0.17510626
193	0xbca37a4b	-0.019955775
194	0xbe1d258e	-0.15346357
195	0xbdb0c632	-0.08631553
196	0xbdd0f98e	-0.10203849
197	0x3d8758f1	0.06608761
198	0xbdf675a0	-0.12034154
199	0x3bc94d51	0.00614325
200	0x3d1ac791	0.037787978
201	0x3df2e153	0.118593834
202	0xbe0d5345	-0.13801296
203	0xbde6e7c1	-0.11274672
204	0xbd04950e	-0.032368712
205	0x3e5261a2	0.20545056
206	0xbb8cf316	-0.004301439
207	0x3dde9069	0.10867388
208	0x3ca75e1f	0.020430623
209	0xbc0c524c	-0.008564543
210	0xbd2e4f74	-0.04255624
211	0xbd9d7942	-0.07689144
212	0xbb7ddbd2	-0.003873576
213	0xbc6653aa	-0.014058033
214	0x3c571840	0.01312834
215	0x3d1341d2	0.035951443
216	0xbdb66216	-0.08905427
217	0xbdbc2677	-0.09187024
218	0x3e34c1b1	0.17652012
219	0xbe028643	-0.1274653
220	0x3ca05932	0.019573782
221	0x3e58c2fc	0.2116813
222	0x3dcdadfc	0.100429505
223	0x3d3a1a7f	0.045435425
224	0xbe7aeb19	-0.24503745
225	0x3de55b35	0.11199037
226	0xbe1b1911	-0.15146281
227	0xbd60f187	-0.05491784
228	0xbd98249e	-0.07428859
229	0xbc913209	-0.017724054
230	0x3848c34c	4.78656e-05
231	0x3e0bff23	0.13671546
232	0x3cbc7249	0.023003714
233	0x3d63cf1c	0.055617437
234	0x3e080dec	0.13286561
235	0xbdefdbaa	-0.117118195
236	0x3dd24f67	0.10269051
237	0xbe167945	-0.14694698
238	0xbd743259	-0.059618328
239	0x3d9674de	0.073465094
240	0x3cc06fd3	0.023490822
241	0x3e1090ca	0.14117733
242	0xbe1f5d64	-0.1556297
243	0x3a897bf0	0.0010489207
244	0x3d8fb6ce	0.07017289
245	0xbe340655	-0.1758054
246	0x3e1f3059	0.15545787
247	0xbe41663f	-0.1888666
248	0x3cba92fb	0.022775164
249	0x3a85d2ef	0.0010209958
250	0xbdd38caf	-0.10329568
251	0x3d880d1f	0.06643128
252	0x3e08636b	0.13319175
253	0xbdbe0f7d	-0.09280298
254	0xbdea76dc	-0.11448452
255	0xbd990c8a	-0.07473095

0.bias f4 [32]
0	0x3e50858e	0.20363447
1	0xbdc41738	-0.09574741
2	0xbce05c0c	-0.027387641
3	0xbdf70be1	-0.120628126
4	0xbce6d0bd	-0.028175706
5	0x3d22f755	0.039786655
6	0x3d733248	0.059374124
7	0xbcc60a5c	-0.024174862
8	0xbe5eca8f	-0.21756957
9	0xbccece46	-0.025244843
10	0x3c78186c	0.015142541
11	0xbd0a43d6	-0.0337561
12	0x3e16fd33	0.14745025
13	0x3e40a6fc	0.188137
14	0xbe053e2f	-0.13012002
15	0x3d896d5f	0.06710314
16	0xbd52fde2	-0.051511653
17	0xbe2d7f69	-0.16943134
18	0xbe01cf8d	-0.1267683
19	0x3e421f88	0.1895734
20	0x3dcae877	0.099076204
21	0x3db5df49	0.08880479
22	0x3de183fe	0.11011504
23	0xbe41b90d	-0.18918248
24	0x3bd76790	0.006573625
25	0x3e39a8e9	0.1813084
26	0xbddb9179	-0.10721106
27	0x3e4e3a25	0.20139368
28	0x3d636a0b	0.055521052
29	0x3e256b0d	0.16154118
30	0xbd4aeb20	-0.04954064
31	0x3d740a4a	0.059580125

1.weight f4 [32]
0	0x3f78042a	0.96881354
1	0x3f40154f	0.75032514
2	0x3f79eb53	0.976247
3	0x3f761550	0.9612627
4	0x3fae12cf	1.359949
5	0x3f5e8e37	0.8693575
6	0x3f52aa10	0.82290745
7	0x3f88ac06	1.0677497
8	0x3f88c04f	1.0683688
9	0x3f4e75eb	0.8064868
10	0x3f62f287	0.8865132
11	0x3f806797	1.0031613
12	0x3f56157c	0.8362653
13	0x3f7bdf5c	0.98387694
14	0x3f4e9684	0.8069842
15	0x3f94bc3d	1.1619946
16	0x3f458675	0.7715829
17	0x3f89425a	1.0723374
18	0x3f75e332	0.960498
19	0x3f88e0e4	1.0693631
20	0x3f8ce6dd	1.1007954
21	0x3f876dcb	1.0580381
22	0x3f68b968	0.9090791
23	0x3f6b5222	0.919222
24	0x3f3b13d4	0.7307713
25	0x3f3d0ef5	0.7385095
26	0x3f842923	1.0325054
27	0x3f5f10c1	0.8713494
28	0x3f833254	1.0249734
29	0x3f647fcb	0.89257497
30	0x3f990466	1.1954467
31	0x3f7b9128	0.98268366

1.bias f4 [32]
0	0xbd0674df	-0.0328263
1	0xbea00b8c	-0.3125881
2	0xbe34e396	-0.17664942
3	0xbda05906	-0.0782948
4	0xbe1f5699	-0.15560378
5	0xbe70b251	-0.23505522
6	0x3c137926	0.009001052
7	0xbda7a906	-0.081865355
8	0xbdee5639	-0.116375394
9	0xbdea5073	-0.11441126
10	0xbe6eece1	-0.2333255
11	0xbe193414	-0.14961272
12	0xbe86e27d	-0.26344672
13	0xbe2fbebd	-0.17162605
14	0xbdd96a00	-0.10615921
15	0xbe4d707b	-0.20062439
16	0xbcebe685	-0.028796444
17	0xbdfeedcf	-0.12447702
18	0xbdbb2dc4	-0.091395885
19	0xbe39de1e	-0.18151137
20	0xbe40c134	-0.18823701
21	0xbea07554	-0.31339514
22	0xbdd5e9b2	-0.104449645
23	0xbea7c497	-0.32767174
24	0xbd8fe8f0	-0.07026851
25	0xbea3cdce	-0.31992954
26	0xbe52521e	-0.20539138
27	0xbe554f0f	-0.2083094
28	0xbd90f514	-0.07077995
29	0x3d251176	0.040299855
30	0xbe4e3328	-0.20136702
31	0xbe546343	-0.2074099

1.running_mean f4 [32]
0	0x3e4e954e	0.20174143
1	0xbdb591c3	-0.088656925
2	0xbcc2a713	-0.023761308
3	0xbdf690f7	-0.120393686
4	0xbcec730d	-0.028863454
5	0x3d34a9e0	0.044107318
6	0x3d80bd9b	0.062861644
7	0xbcd99668	-0.026560977
8	0xbe5fb0b8	-0.21844757
9	0xbcb70aae	-0.02234396
10	0x3c63fc42	0.013915123
11	0xbd0b68c7	-0.03403547
12	0x3e1d600c	0.1536867
13	0x3e3d7050	0.18499875
14	0xbe07f557	-0.13277183
15	0x3d88d120	0.066805124
16	0xbd3b5d7f	-0.04574346
17	0xbe2eb78a	-0.17062202
18	0xbe04abee	-0.12956211
19	0x3e40714e	0.18793222
20	0x3dc6a1f8	0.09698862
21	0x3dba3344	0.090918094
22	0x3dea1737	0.11430209
23	0xbe413c2f	-0.18870614
24	0x3bb2b42e	0.005453608
25	0x3e3bd99b	0.18344729
26	0xbddf4e27	-0.10903578
27	0x3e4acb8b	0.19804208
28	0x3d63494e	0.05548983
29	0x3e27253a	0.16322795
30	0xbd4c8b3f	-0.049937483
31	0x3d7a6b36	0.0611374

1.running_var f4 [32]
0	0x3dcc2405	0.09967808
1	0x3f2b36ff	0.6688079
2	0x3d660743	0.05615927
3	0x3e317b73	0.17332248
4	0x3d050e6d	0.03248446
5	0x3dac2286	0.08405022
6	0x3dae6307	0.08514982
7	0x3d35d8b7	0.04439613
8	0x3cf1313e	0.029442426
9	0x3e0b55ba	0.13606921
10	0x3db7f445	0.089821376
11	0x3d2e6c10	0.042583525
12	0x3e7a3ca0	0.24437189
13	0x3cd33343	0.02578128
14	0x3ec15dfd	0.3776702
15	0x3c7ec4ca	0.015549848
16	0x3e4d7f19	0.20068015
17	0x3d8a02b2	0.06738795
18	0x3dbc8471	0.09204949
19	0x3ce48312	0.02789453
20	0x3cf1e6fb	0.029529085
21	0x3d11fb00	0.035639763
22	0x3e5ca7f2	0.21548441
23	0x3d8f337c	0.06992242
24	0x3d98f9b2	0.074695006
25	0x3dd74b59	0.10512418
26	0x3e1f312e	0.15546104
27	0x3de8151c	0.11332151
28	0x3e582179	0.21106519
29	0x3d40ffd6	0.047118984
30	0x3cbbf795	0.022945205
31	0x3c1cf4e8	0.009579875

5.weight f4 [64, 32, 3, 3]
0	0xbd9b2779	-0.07575888
1	0x3b240fc1	0.0025033804
2	0xbbe40985	-0.0069591426
3	0xbc8df095	-0.017326633
4	0x3d8c7361	0.06857944
5	0x3d856ba5	0.06514672
6	0x3dca30a4	0.09872559
7	0x3df08d16	0.1174566
8	0x3d9e1a80	0.07719898
9	0x3ca02399	0.019548224
10	0xbccb36d3	-0.024806416
11	0x3c5a5455	0.01332577
12	0x3ca69420	0.020334303
13	0xbc77e4d5	-0.015130241
14	0x3d45cb47	0.048289564
15	0xbb6708b8	-0.0035253
16	0xbca11a26	-0.019665789
17	0xbb8e8fe0	-0.0043506473
18	0xbd7ee78c	-0.06223254
19	0xbd439705	-0.047751445
20	0xbd3fa6a1	-0.04678977
21	0xbddd81af	-0.10815751
22	0xbd7b41f2	-0.061342187
23	0xbd86759a	-0.065653995
24	0x3d12c9aa	0.035836853
25	0xbd0b0b47	-0.0339463
26	0xbd4665b2	-0.048436828
27	0xbd1ba35d	-0.037997592
28	0x3d2b1e41	0.0417769
29	0xbd63b0d8	-0.055588573
30	0x3c124664	0.008927915
31	0xbc8815a9	-0.01661189
32	0xba173a3b	-0.000576887
33	0xbd203161	-0.03910959
34	0xbcb3c32a	-0.021943647
35	0xbe2e0409	-0.16993727
36	0x3b9de53d	0.004818587
37	0x3defa429	0.11701233
38	0x3dad7e7a	0.08471389
39	0xbd45251c	-0.048131093
40	0x3ca6f617	0.020381017
41	0xbe26b27f	-0.16279028
42	0xbcc7293e	-0.024311658
43	0xbd485d35	-0.048917014
44	0xbe01cf5b	-0.12676756
45	0xbdf0e9cd	-0.11763344
46	0xbcaeb8f6	-0.02132843
47	0xbbc3d358	-0.005976122
48	0x3b762ca3	0.0037563227
49	0x3dbb4c02	0.09145357
50	0x3d162ecd	0.036665726
51	0xbd6bde60	-0.05758512
52	0x3db4e44f	0.08832609
53	0x3c90c48e	0.01767185
54	0xbcb297fd	-0.02180099
55	0xbdb067f3	-0.08613577
56	0xbdb0c53d	-0.0863137
57	0xbca1c772	-0.019748423
58	0xbd2db577	-0.042409386
59	0xbcc8ed75	-0.02452729
60	0x3c5ee9b4	0.013605524
61	0xbce8b0c4	-0.0284046
62	0x3d0bf02c	0.034164593
63	0xbdcbf6de	-0.099591956
64	0xbda417e3	-0.080123685
65	0xbd44a44b	-0.048008244
66	0x3b1af99b	0.0023647312
67	0xbd36e3fa	-0.04465101
68	0xbdda48e0	-0.10658431
69	0xbdce1979	-0.10063452
70	0xbce638f4	-0.02810333
71	0xbdfd88e9	-0.12379629
72	0x3d1b7ac6	0.037958883
73	0x3d977f6a	0.07397349
74	0x3c6cff7b	0.014465208
75	0x3c66e643	0.014092985
76	0x3d9e624c	0.077335924
77	0x3d375c15	0.04476555
78	0xbd5cb203	-0.053880703
79	0x3cca98b0	0.02473101
80	0xbc85274b	-0.016254088
81	0xbd28f4dc	-0.04124914
82	0xbdd1170a	-0.102094725
83	0x3caba590	0.02095297
84	0xbd39a26a	-0.045320906
85	0xbd7dfc4b	-0.062008183
86	0x3c263500	0.010144472
87	0xbcd93c03	-0.026517874
88	0x3caccb10	0.021092921
89	0xbc3a310b	-0.011364232
90	0xbdbd146b	-0.0923241
91	0xbd8a337f	-0.06748103
92	0xbd819c69	-0.06328661
93	0xbc8c7a9e	-0.017148312
94	0xbd643ecb	-0.055723947
95	0xba2afef4	-0.00065229763
96	0x3a3b3218	0.00071409484
97	0xbd833a4a	-0.06407602
98	0x3bd1e972	0.0064060027
99	0xbd92c61c	-0.071666926
100	0x3d7bab20	0.061442494
101	0x3cf0417b	0.029328099
102	0xbdc2fcca	-0.09520872
103	0xbcdbf19a	-0.026848603
104	0xbcefc2e4	-0.029267736
105	0xbe2cdfc0	-0.16882229
106	0x3aa0f32d	0.0012279503
107	0xbdcfcddc	-0.101466864
108	0xbb025520	-0.0019887164
109	0x3d0c0642	0.034185655
110	0xbcc280e0	-0.023743093
111	0x3c5bf3a0	0.013424784
112	0x3d05c7cd	0.032661248
113	0x3cc0d4d3	0.023538982
114	0x3d181614	0.03713043
115	0x3d0c814b	0.03430299
116	0x3d5e1b27	0.054225113
117	0xbdcdedfe	-0.10055159
118	0xbd1ff719	-0.03905401
119	0xbdc4c0f2	-0.09607114
120	0x3c9b2768	0.018939689
121	0xbbce34ae	-0.006292901
122	0xbda8fff5	-0.08251945
123	0x3d374f7a	0.04475353
124	0x3dbdd1cb	0.092685305
125	0xbc90aa75	-0.017659405
126	0xbd0e28eb	-0.03470699
127	0x3d48cddd	0.04902445
128	0x3c9c89b4	0.01910863
129	0xbc9a75a9	-0.018854933
130	0x3cbf04b4	0.023317672
131	0x3d88dd27	0.066828065
132	0xbd22bef3	-0.039732885
133	0x3cf42249	0.029801505
134	0x3cef810f	0.029236345
135	0x3d1ec999	0.038766477
136	0x3d4c6be9	0.0499076
137	0xbb4282bf	-0.0029679982
138	0xbce0983c	-0.027416341
139	0x3b8289b3	0.0039837
140	0xbda82253	-0.08209672
141	0xbe3548fe	-0.17703626
142	0xbe1d4f0f	-0.1536219
143	0xbddd0704	-0.10792354
144	0xbdbd4de4	-0.09243372
145	0x3d10a17b	0.03531025
146	0x3b98324e	0.0046446687
147	0xbd258d83	-0.04041816
148	0x3c9c4987	0.01907803
149	0x3c67a174	0.0141376145
150	0x3c808082	0.015686277
151	0x3d06f867	0.03295174
152	0xbd077666	-0.033071898
153	0x3dbd5a4e	0.0924574
154	0x3d1bd2af	0.03804272
155	0x3c2d25a2	0.010568054
156	0x3dc24032	0.094849005
157	0x3c9d9469	0.019235807
158	0xbd723006	-0.05912783
159	0xbdac175b	-0.08402892
160	0xb8211dc0	-3.8413098e-05
161	0xbd512b62	-0.051066764
162	0x3d7b8df5	0.061414678
163	0xbc958d02	-0.018255714
164	0xbd3ed275	-0.046587426
165	0x3d613f9e	0.05499231
166	0x3c218dd9	0.009860479
167	0x3c8ead09	0.017416494
168	0x3c60a3e1	0.013710947
169	0xbc0031d4	-0.00782438
170	0x3bcadaa8	0.0061906166
171	0x3dc73326	0.09726553
172	0x3d6b8152	0.057496376
173	0x3d8abc70	0.06774223
174	0x3d9d31d8	0.076755226
175	0x3c96a007	0.018386854
176	0x3d115f08	0.03549102
177	0xbe2a09b0	-0.16605258
178	0xbd0d0bda	-0.03443513
179	0xbe3972a3	-0.18110137
180	0x3d579067	0.052627947
181	0x3db6c1ab	0.08923658
182	0x3d9378f0	0.07200801
183	0x3d53b50e	0.05168634
184	0x3e0ac855	0.13552983
185	0xbb0c7dd4	-0.0021437304
186	0xbb8e086c	-0.0043345
187	0x3cc03717	0.023463769
188	0x3a2c7786	0.00065790897
189	0xbd5834ec	-0.052784845
190	0x3967180e	0.00022038838
191	0xbd8e999c	-0.069628924
192	0x3af389b9	0.0018580473
193	0x3d56c2c7	0.052431848
194	0x3c7c3a52	0.015394764
195	0xbc20dd42	-0.009818377
196	0x3ce76eb7	0.028251035
197	0x3d0bfe1d	0.03417789
198	0xbdce7665	-0.10081176
199	0xbd167301	-0.03673077
200	0xbc3ca04c	-0.011512827
201	0xbd19f310	-0.037585318
202	0x3d4040c7	0.046936776
203	0x3d239fe6	0.039947413
204	0x3d51d30b	0.051226657
205	0x3d6d9066	0.057999037
206	0x3d94b496	0.072610065
207	0x3af59b5e	0.001873832
208	0xbc242200	-0.010017872
209	0x3dc76523	0.09736087
210	0xbc9cec75	-0.01915572
211	0x3cc67c2f	0.024229137
212	0x3d9c83f2	0.07642354
213	0x3d2f15fb	0.04274557
214	0x3d437d85	0.047727127
215	0x3c890409	0.016725557
216	0x3ba20aa7	0.0049451175
217	0x3c980490	0.018556863
218	0xbd21d517	-0.03950986
219	0xbccafbf3	-0.024778342
220	0x3c78efcf	0.015193894
221	0xbcadbf65	-0.021209428
222	0xbcfc6484	-0.030809648
223	0xbb61b194	-0.003443812
224	0x3c88a504	0.016680248
225	0xbd529cb8	-0.05141899
226	0xbd04d3ac	-0.03242843
227	0x3cff5717	0.031169457
228	0xbcc82989	-0.024433868
229	0x3ca155b6	0.01969419
230	0xbbdae8b6	-0.0066805733
231	0xbcaa7423	-0.020807331
232	0x3d2083c7	0.039188173
233	0xbc83553a	-0.01603185
234	0xbcedaf36	-0.029014211
235	0x3ca2036b	0.01977702
236	0xbd066873	-0.032814454
237	0x3d077a84	0.033075824
238	0xbbd6a89c	-0.0065508615
239	0xbd08807e	-0.033325665
240	0x3cce6c4d	0.025198126
241	0x3c8d7d00	0.017271519
242	0x3ca476cf	0.020076184
243	0xbcb3bd6a	-0.021940906
244	0x3c321d55	0.010871251
245	0x3c44d010	0.012012497
246	0xbbcaffb7	-0.0061950344
247	0xbc2fe92b	-0.010736744
248	0x3d1fb8b8	0.03899452
249	0x3cc205dc	0.023684435
250	0x3d201763	0.039084803
251	0xbbb83b45	-0.0056223
252	0x3d9bb8b5	0.076035894
253	0xba074297	-0.0005159764
254	0x3cc8ceb6	0.02451263
255	0xbd8239d2	-0.063586846

5.bias f4 [64]
0	0xbc6cc290	-0.014450684
1	0x3d906f08	0.070524275
2	0xbd0f7fcd	-0.03503399
3	0x3bff08b8	0.007783022
4	0xbc32ffee	-0.010925276
5	0xbdb91ed3	-0.090390824
6	0x3bc47884	0.005995812
7	0xbd85925a	-0.06522055
8	0xbd63aab4	-0.055582717
9	0x3db6d5e4	0.08927515
10	0x3d81a413	0.06330123
11	0x3d42caf5	0.047556836
12	0x3d4deb05	0.05027296
13	0xbc9e5f4c	-0.01933255
14	0xbd4f04ab	-0.05054156
15	0x3c7dd364	0.015492294
16	0x3c5625ff	0.013070582
17	0x3c4bb3a9	0.012432971
18	0x3b0bbe53	0.002132316
19	0x3df1656a	0.11786921
20	0xbd6effc4	-0.058349386
21	0x3d04010c	0.03222756
22	0x3ceee7d7	0.029163284
23	0xbd7fc505	-0.06244375
24	0x3caaa095	0.020828525
25	0x3d4a91d2	0.04945547
26	0xbd8b742a	-0.06809266
27	0xbd61a9c8	-0.055093557
28	0x3b51e244	0.0032025734
29	0x3d526b5d	0.05137192
30	0x3d240eac	0.040053055
31	0x3ce0f6b7	0.027461393
32	0x3d11bb2e	0.0355789
33	0xbbb4d53f	-0.005518585
34	0xbcaa4f74	-0.02078984
35	0xbd6f6e42	-0.05845476
36	0xbc595b68	-0.013266422
37	0xbc07b1d6	-0.0082821455
38	0xbb1389aa	-0.0022512474
39	0x3d6ee92f	0.05832785
40	0xbd63e463	-0.05563773
41	0xbd483d7c	-0.04888676
42	0x3d62be22	0.055357106
43	0x3b5303e1	0.0032198357
44	0x3b49afd0	0.0030774958
45	0x3d77c8a6	0.060494088
46	0xbcaaa5e9	-0.020831065
47	0x3d2f6fcf	0.04283124
48	0xbcf28191	-0.029602798
49	0xbd3ff8c0	-0.046868086
50	0xbd0bea1c	-0.03415881
51	0xbbc64abb	-0.006051389
52	0xbda17905	-0.07884411
53	0xbd41cab2	-0.047312446
54	0x3d4c6e85	0.049910087
55	0x3c90d87b	0.017681351
56	0x3cc77661	0.02434844
57	0x3be47dbb	0.006972996
58	0xbd26740c	-0.040638015
59	0xbbe8d447	-0.0071053836
60	0x3c872de9	0.016501384
61	0x3d141f87	0.03616288
62	0xbd4c9249	-0.049944196
63	0x3d989351	0.074499734

6.weight f4 [64]
0	0x3f731066	0.949469
1	0x3f6d304b	0.92651814
2	0x3f702e2a	0.9382044
3	0x3f6c8386	0.9238819
4	0x3f804f1c	1.0024142
5	0x3f6f3661	0.9344235
6	0x3f75c4a2	0.9600316
7	0x3f75eb20	0.960619
8	0x3f7a1b28	0.9769769
9	0x3f810465	1.0079466
10	0x3f7ef4cc	0.9959228
11	0x3f6fc6fd	0.9366301
12	0x3f735685	0.95053893
13	0x3f73d309	0.9524389
14	0x3f679e38	0.904758
15	0x3f71d168	0.94460154
16	0x3f6e18be	0.93006504
17	0x3f7109d7	0.9415564
18	0x3f76960c	0.96322703
19	0x3f7f459a	0.9971558
20	0x3f7ae65c	0.9800775
21	0x3f6ce74a	0.9254042
22	0x3f69e4c1	0.91364676
23	0x3f709e96	0.9399198
24	0x3f7b2dce	0.9811677
25	0x3f703de2	0.93844426
26	0x3f7914a1	0.972971
27	0x3f5d6730	0.86485577
28	0x3f63fbdf	0.890562
29	0x3f6ec2c7	0.93265957
30	0x3f6e1a1b	0.93008584
31	0x3f7db031	0.9909697
32	0x3f67dc28	0.90570307
33	0x3f7e5c50	0.9935961
34	0x3f7a6dc5	0.97823745
35	0x3f749013	0.9553234
36	0x3f6615a1	0.89876753
37	0x3f79d80b	0.9759528
38	0x3f6e4216	0.9306959
39	0x3f788226	0.9707359
40	0x3f77c88e	0.967904
41	0x3f7a210e	0.9770669
42	0x3f5f8fa4	0.87328553
43	0x3f78aed8	0.9714179
44	0x3f72c34b	0.94829243
45	0x3f6ed7d0	0.93298054
46	0x3f6ee728	0.93321466
47	0x3f7cb26b	0.98709744
48	0x3f737d4b	0.95113057
49	0x3f67bca6	0.9052223
50	0x3f63cc7c	0.88983893
51	0x3f6adbf1	0.91741854
52	0x3f725556	0.9466146
53	0x3f782f49	0.9694715
54	0x3f61fd6d	0.8827732
55	0x3f7dc5d9	0.99130017
56	0x3f787499	0.97052914
57	0x3f74a0c7	0.95557827
58	0x3f7181a7	0.9433846
59	0x3f70df95	0.9409116
60	0x3f7521b0	0.9575453
61	0x3f7a9ea2	0.97898304
62	0x3f743f7c	0.9540937
63	0x3f6d75a0	0.92757607

6.bias f4 [64]
0	0xbecbb335	-0.39785162
1	0xbeeb0548	-0.45902467
2	0xbec15e57	-0.37767288
3	0xbec3cb58	-0.38241076
4	0xbea21609	-0.31657436
5	0xbe7ad12b	-0.24493854
6	0xbe311d24	-0.17296273
7	0xbe98b69f	-0.2982683
8	0xbe87fbb3	-0.2655922
9	0xbe352a20	-0.1769185
10	0xbf004867	-0.5011048
11	0xbe92828d	-0.28615227
12	0xbe7c629a	-0.24646989
13	0xbe9523af	-0.29128787
14	0xbe7ec21d	-0.24878736
15	0xbe4f555e	-0.20247409
16	0xbe8a5efa	-0.27025586
17	0xbed69dbf	-0.41917226
18	0xbe43effb	-0.19134514
19	0xbeae3158	-0.3402202
20	0xbe48e9d0	-0.19620442
21	0xbe9c8ce4	-0.3057624
22	0xbe9d16e8	-0.3068154
23	0xbe113fe2	-0.14184526
24	0xbeb6ef2c	-0.3572935
25	0xbe979b07	-0.29610464
26	0xbf0791a6	-0.52956617
27	0xbe8c3356	-0.27382916
28	0xbe85c0ef	-0.2612376
29	0xbec3c563	-0.38236532
30	0xbe9e6bdd	-0.30941668
31	0xbedab5ea	-0.42716914
32	0xbe5ed83a	-0.21762171
33	0xbea9c75d	-0.33159915
34	0xbe88457e	-0.26615518
35	0xbea4e555	-0.32206216
36	0xbe88e63b	-0.26738152
37	0xbed077fb	-0.40716538
38	0xbedc0a6b	-0.42976698
39	0xbec3a3e4	-0.38210976
40	0xbea42893	-0.32062206
41	0xbeaaf356	-0.33388776
42	0xbdcd1bc2	-0.1001506
43	0xbec1d5cf	-0.37858436
44	0xbe7665c9	-0.24062265
45	0xbe4dbf03	-0.20092396
46	0xbe5d08fa	-0.21585456
47	0xbe7c86ce	-0.24660799
48	0xbea54325	-0.3227779
49	0xbde82ed3	-0.11337056
50	0xbe91e677	-0.28496143
51	0xbe7225b6	-0.23647198
52	0xbe6d40e3	-0.23169284
53	0xbe969655	-0.2941157
54	0xbec647cd	-0.38726655
55	0xbf08bd0a	-0.5341345
56	0xbe7c399f	-0.24631356
57	0xbe9bc8f5	-0.30426756
58	0xbe3b2f88	-0.1827985
59	0xbebee760	-0.372859
60	0xbe957ec9	-0.29198292
61	0xbeb30606	-0.34965533
62	0xbeae63ec	-0.3406061
63	0xbeaaa6c0	-0.33330345

6.running_mean f4 [64]
0	0xbf42d27a	-0.7610241
1	0xbe46adf6	-0.19402298
2	0xbe3a3595	-0.18184502
3	0xbe503d85	-0.20335968
4	0xbf252db5	-0.6452287
5	0xbedef9a7	-0.43549845
6	0xbedbce4e	-0.42930835
7	0xbeef9c3a	-0.4679888
8	0xbf203248	-0.62576723
9	0xbf4d8c34	-0.8029206
10	0xbefc1416	-0.49234074
11	0xbf09af7b	-0.53783387
12	0xbcbdd1b3	-0.023171281
13	0xbe64d325	-0.2234617
14	0xbea5fdb8	-0.32420135
15	0xbedac51c	-0.42728508
16	0xbf1e84e9	-0.61921555
17	0xbefef0e7	-0.4979317
18	0xbf802219	-1.0010406
19	0xbed9b785	-0.42522827
20	0xbf7c696e	-0.9859837
21	0xbefb2355	-0.49050394
22	0x3ed05bfd	0.4069518
23	0xbf36e0b8	-0.71436644
24	0xbf26345b	-0.6492364
25	0xbedf980a	-0.43670684
26	0xbef9c77a	-0.48785
27	0xbcf3b968	-0.029751495
28	0x3d735517	0.05940732
29	0xbe0ab02b	-0.13543765
30	0xbf205f0a	-0.6264502
31	0xbe8c9691	-0.27458623
32	0xbef0a85b	-0.47003445
33	0xbf3ae62f	-0.7300748
34	0xbf1295af	-0.5725965
35	0xbed4ef65	-0.41588894
36	0xbb31dc51	-0.0027139375
37	0xbe8cb54b	-0.27482066
38	0xbed023b1	-0.4065223
39	0xbe94fffd	-0.29101554
40	0xbef09183	-0.46986017
41	0xbebdbf07	-0.37059805
42	0xbe4d64e0	-0.20058012
43	0xbf52206e	-0.82080734
44	0xbef72856	-0.4827296
45	0xbf15307d	-0.5827711
46	0xbf432063	-0.76221293
47	0xbf3c9993	-0.73671836
48	0xbedfe058	-0.43725848
49	0xbea7501c	-0.32678306
50	0x3e5af856	0.21383795
51	0xbe95adea	-0.29234248
52	0xbf288e59	-0.65842205
53	0xbf16a75a	-0.5884911
54	0xbeaef7c6	-0.3417341
55	0xbf188900	-0.59584045
56	0xbf1d0d1c	-0.6134813
57	0xbf08786d	-0.53308755
58	0xbf147c58	-0.58002234
59	0xbf29294a	-0.6607863
60	0xbee37c45	-0.44430748
61	0xbe936e5a	-0.2879513
62	0xbf290b44	-0.66032815
63	0xbf00eff7	-0.5036616

6.running_var f4 [64]
0	0x3eff36e0	0.49846554
1	0x3f10dca3	0.56586665
2	0x3e96904e	0.2940697
3	0x3ed7bf20	0.42138004
4	0x3f2c8ea7	0.6740517
5	0x3e942369	0.28933266
6	0x3ead6cf3	0.33872184
7	0x3ec72965	0.3889877
8	0x3ecba8b3	0.39777145
9	0x3f3398b4	0.7015488
10	0x3f09c39a	0.5381409
11	0x3ef21820	0.4728403
12	0x3e8989d5	0.2686297
13	0x3ea33c5b	0.31881985
14	0x3e95dd5c	0.29270446
15	0x3ed80447	0.42190763
16	0x3f0c371f	0.5477161
17	0x3f10dfc8	0.56591463
18	0x3f5197ab	0.8187205
19	0x3efda7fd	0.49542227
20	0x3f0abc40	0.54193497
21	0x3ef5d837	0.4801652
22	0x3ec4ce7e	0.3843879
23	0x3f08c0d5	0.5341924
24	0x3eece4ff	0.4626846
25	0x3e7fa613	0.24965696
26	0x3ef8094c	0.48444593
27	0x3e77aeb1	0.24187733
28	0x3e97340c	0.29531896
29	0x3e8405f7	0.257858
30	0x3f3c3d80	0.7353134
31	0x3edf26b1	0.43584207
32	0x3eb29fb7	0.34887478
33	0x3f630e32	0.88693535
34	0x3f0bef02	0.5466157
35	0x3e80f43d	0.2518634
36	0x3e5d2964	0.2159782
37	0x3eb82911	0.3596883
38	0x3f1922ab	0.59818524
39	0x3e8b7b2c	0.2724241
40	0x3ef976ba	0.48723394
41	0x3e929508	0.28629327
42	0x3f0e9645	0.55698043
43	0x3f580f12	0.84397995
44	0x3eb1371c	0.34612358
45	0x3e90840d	0.28225747
46	0x3ef2f041	0.47448924
47	0x3eead789	0.45867565
48	0x3e918872	0.28424412
49	0x3ec7b6ce	0.39006656
50	0x3eadafa8	0.33923078
51	0x3ed9be4f	0.42528006
52	0x3e97c7b1	0.2964454
53	0x3edc3f24	0.43016922
54	0x3ece9b0d	0.4035267
55	0x3ed7d950	0.42157984
56	0x3ebee6a4	0.3728534
57	0x3eda5011	0.4263921
58	0x3ec5be84	0.38621914
59	0x3eda85fe	0.42680353
60	0x3ef4e8fc	0.47834003
61	0x3eb2ec03	0.34945688
62	0x3f124ee5	0.57151634
63	0x3ed8aca9	0.4231923

10.weight f4 [64, 64, 3, 3]
0	0xbd605e22	-0.054777272
1	0xbdabce00	-0.08388901
2	0xbdc58c64	-0.09645918
3	0xbbf33914	-0.0074225757
4	0xbcbc25b9	-0.022967206
5	0xbd252962	-0.04032267
6	0x3ca74072	0.020416472
7	0xbc24162f	-0.010015055
8	0x3bc56591	0.0060240705
9	0x3ca016cc	0.01954212
10	0x3d1be7ce	0.038062863
11	0x3c242967	0.010019637
12	0xbcc8ee38	-0.024527654
13	0x3af582ab	0.0018730959
14	0xbcfc9fea	-0.030837972
15	0xbd926c24	-0.071495324
16	0xbd37f245	-0.04490878
17	0xbdcb30e7	-0.09921437
18	0xbde81daf	-0.11333787
19	0xbd947345	-0.072485484
20	0xbda4752b	-0.080301605
21	0xbdc562ff	-0.09638023
22	0xbd4bcac3	-0.049753916
23	0xbd91716f	-0.07101714
24	0xbd2cd8d4	-0.04219897
25	0x3c3acd34	0.011401463
26	0xbd3ebf8f	-0.046569403
27	0xbc8dee0e	-0.017325427
28	0xbd086313	-0.03329761
29	0xbcf11fee	-0.02943417
30	0xbd335aca	-0.043787755
31	0xbcfc7023	-0.03081519
32	0xbc33f8bc	-0.010984596
33	0xbdd0e0bd	-0.101991154
34	0xbda3ee91	-0.08004487
35	0xbda876eb	-0.08225807
36	0xbbbae087	-0.0057030353
37	0xbd53a42e	-0.051670246
38	0xbd57947a	-0.052631833
39	0xbd7188f3	-0.058968496
40	0xbdc194c4	-0.09452203
41	0xbd70e520	-0.05881226
42	0xbbd50ba4	-0.006501632
43	0xbdb6faf2	-0.08934583
44	0xbc4da9fa	-0.012552733
45	0xbd78341a	-0.060596563
46	0xbd5ad68a	-0.053427257
47	0xbd84a192	-0.064761296
48	0xbcddbbf9	-0.027067171
49	0xbcd0ea5b	-0.025502374
50	0xbd039fe4	-0.032134905
51	0xbd4e8b5f	-0.050425883
52	0xbbd03419	-0.006353867
53	0xbce93231	-0.028466316
54	0x3ddfbece	0.10925065
55	0x3cf7d0a6	0.030250859
56	0x3d24c036	0.04022237
57	0x3d6b47d1	0.057441536
58	0xbcb0a873	-0.021564698
59	0xbb224a44	-0.0024763504
60	0x3d2acd05	0.041699428
61	0x3c49f204	0.012325767
62	0x3c604a7e	0.013689635
63	0xbddcd87d	-0.10783479
64	0xbdb85779	-0.09001059
65	0xbd940d16	-0.072290584
66	0xbd63270e	-0.055457167
67	0xbd9ebd16	-0.07750909
68	0xbd50a7f8	-0.050941437
69	0x3c9d0d7a	0.019171465
70	0x3ccedbf9	0.025251376
71	0x3d195b9f	0.037440892
72	0xbd9bbbfa	-0.07604213
73	0x3cb181d1	0.021668347
74	0xbd2a36ed	-0.041556288
75	0xbdd62b13	-0.104574345
76	0xbd202723	-0.039099824
77	0xbd97bb50	-0.07408774
78	0xbcd7c70b	-0.026340028
79	0x39e21482	0.0004312136
80	0xbbcd9d9e	-0.006274893
81	0xbd0ca707	-0.034338977
82	0xbd0468b5	-0.03232642
83	0x3bbc08c2	0.0057383487
84	0xbd5d54ba	-0.05403588
85	0xbdf11690	-0.117718816
86	0xbd72f833	-0.059318732
87	0xbcfe9931	-0.031078907
88	0xbe00b053	-0.12567262
89	0xbd24c239	-0.040224288
90	0x3ddc23b7	0.107489996
91	0x3d08a3be	0.03335928
92	0x3dab8421	0.08374811
93	0x3d8adcb0	0.06780374
94	0x3d894fef	0.06704699
95	0x3da0e80e	0.07856761
96	0x3dc3ecaa	0.095666245
97	0x3e015ccc	0.12633055
98	0x3e0901d8	0.1337961
99	0x3d5eaecc	0.054365918
100	0x3de3a281	0.111149795
101	0x3dd1b218	0.10239047
102	0x3c9f47ab	0.019443354
103	0x3ce237d9	0.02761452
104	0x3c581583	0.013188723
105	0xbb70745f	-0.0036690456
106	0x3d0757ad	0.0330426
107	0xbc8e0d01	-0.017340185
108	0xbc08d110	-0.008350626
109	0xbbc6da73	-0.0060685216
110	0x3dd271cc	0.10275611
111	0xbcb181f8	-0.02166842
112	0x3c2c060b	0.010499488
113	0x3d44d182	0.048051365
114	0x3cff3862	0.031154815
115	0x3cd6212f	0.02613887
116	0x3dc1cab8	0.09462494
117	0x3d09ddc4	0.033658758
118	0xbc77c64f	-0.015122964
119	0x3d5c7145	0.05381896
120	0x3c3b7743	0.011442008
121	0xbd40edc5	-0.047101755
122	0x3ca32130	0.019913286
123	0xbca65409	-0.020303743
124	0xbd937f52	-0.07202019
125	0xbbadcf2a	-0.005304237
126	0x3dac18cc	0.08403167
127	0x3d600b63	0.05469836
128	0x3d5d9e18	0.054105848
129	0x3d141382	0.036151417
130	0x3ca2ed94	0.019888677
131	0x3ce4bea2	0.027922932
132	0x3c743ba4	0.014906798
133	0xbd1551d1	-0.03645498
134	0xbbcde7e4	-0.006283747
135	0x3ccf6048	0.025314465
136	0x3d163965	0.03667583
137	0x3db7ffe4	0.08984354
138	0x3ceae948	0.02867569
139	0x3d089123	0.03334154
140	0x3d857988	0.06517321
141	0xbc8d28c6	-0.017231356
142	0x3b9d7abb	0.0048058904
143	0x3d6b9896	0.057518564
144	0xbd11aec5	-0.035567064
145	0xbd01d2a6	-0.03169503
146	0xbcc609b6	-0.024174552
147	0xbc8a15ff	-0.016856192
148	0xbc49b715	-0.012311717
149	0x3a95de90	0.0011434127
150	0x3d190712	0.03736026
151	0x3d44e9dc	0.04807459
152	0x3d1e25da	0.038610317
153	0x3d6424d2	0.055699177
154	0x3d910d0a	0.07082565
155	0x3da03769	0.07823069
156	0xb922a3d1	-0.0001551055
157	0xbbf5ddb6	-0.0075032366
158	0x3ce0c364	0.02743692
159	0xbd51174b	-0.051047605
160	0xbcbc3505	-0.0229745
161	0xbcbdcfbf	-0.02317035
162	0x3d273165	0.04081859
163	0x3b939289	0.0045035523
164	0x3d1faa37	0.03898069
165	0x3b04084f	0.0020146554
166	0xbd23cdb9	-0.039991114
167	0x3bc04491	0.0058675488
168	0x3d505e87	0.0508714
169	0xbd06a9e7	-0.032876875
170	0x3d5db724	0.054129735
171	0xbd493461	-0.049122218
172	0xbdd86577	-0.10566228
173	0xbd2b3eec	-0.041808054
174	0xbd910dd1	-0.070827134
175	0xbdc913eb	-0.09818252
176	0xbdc8b0b0	-0.097993255
177	0xbd0a535d	-0.033770908
178	0xbd9cb1af	-0.07651078
179	0xbd3f0377	-0.046634164
180	0xbc20462e	-0.009782357
181	0x3ba9f91e	0.005187168
182	0x3c8d1565	0.017222116
183	0xbcb4ec85	-0.022085438
184	0xbcaef10a	-0.02135517
185	0xbc931472	-0.017954085
186	0xbcea2d20	-0.02858597
187	0xbbc05308	-0.005869273
188	0xbcc5cd3b	-0.024145713
189	0x3d0138e4	0.031548396
190	0x3d03696f	0.03208297
191	0x3d7857c6	0.060630582
192	0x3b6a914c	0.003579217
193	0xbb6264c5	-0.0034544927
194	0x3c8e6f32	0.017387006
195	0x3d1bc321	0.038027886
196	0x3c5464d2	0.012963491
197	0x3d302e3d	0.043012846
198	0xbc91e13f	-0.017807601
199	0xbcdb6b08	-0.026784435
200	0xbd20e445	-0.039280195
201	0xbc919c93	-0.017774856
202	0x3c6f8c15	0.0146208005
203	0xbcb999c1	-0.022656323
204	0x3d24b62f	0.040212806
205	0x3c976283	0.018479591
206	0x3d0cf197	0.034410086
207	0xbd3c700a	-0.046005286
208	0xbd80b77d	-0.062849976
209	0xbcfaf4d1	-0.030634316
210	0xbcecb79c	-0.028896146
211	0xbd037ecb	-0.03210334
212	0x3c3baa76	0.011454215
213	0xbbb58e07	-0.0055406126
214	0xbc08e987	-0.0083564585
215	0x3ca23b8f	0.01980379
216	0xbd66f9c2	-0.05639053
217	0xbc8b1c27	-0.016981198
218	0xbd1806a2	-0.0371157
219	0xbdc14360	-0.09436679
220	0xbd5e04b9	-0.054203723
221	0xbd8ba326	-0.068182275
222	0xbd98b76a	-0.074568585
223	0xbd3f96b3	-0.046774577
224	0xbd803613	-0.06260314
225	0xbcbf446d	-0.023348058
226	0xbcf1f2d4	-0.029534735
227	0x3b4ff8ed	0.0031734065
228	0x3bacfa62	0.0052788714
229	0xbca7a2f0	-0.020463437
230	0xbbe95c04	-0.007121565
231	0x3da46e09	0.080288
232	0x3d35004c	0.044189736
233	0x3d5e6dab	0.054303806
234	0xbdeb6234	-0.1149334
235	0xbd9cba66	-0.0765274
236	0xbe0d011a	-0.13769951
237	0xbe134281	-0.14380838
238	0xbd95988d	-0.073044874
239	0xbe1af581	-0.15132715
240	0xbdb56ef6	-0.08859055
241	0xbd17076a	-0.036872305
242	0xbd9db128	-0.076998055
243	0xbccf76a9	-0.025325136
244	0xbd1fd213	-0.0390187
245	0x3c8db017	0.01729588
246	0xbcbf6092	-0.023361478
247	0xbcf49358	-0.029855415
248	0xbc9de5f6	-0.019274693
249	0x3d002f74	0.031295255
250	0x3c6dcba2	0.014513882
251	0x3cf4acd3	0.029867565
252	0x3c26fa9c	0.010191586
253	0x3bcc60eb	0.0062371395
254	0x3c9e1082	0.01929498
255	0xbcbd5ebe	-0.023116466

10.bias f4 [64]
0	0x3ced0aa8	0.028935745
1	0xbd1326a2	-0.035925515
2	0xbca8edf3	-0.020621276
3	0x3ce09389	0.0274141
4	0x3b99e495	0.0046964386
5	0xbc270616	-0.010194322
6	0x3c2cdf42	0.010551276
7	0xbcdae161	-0.026718797
8	0x3d065ae2	0.032801516
9	0x3c4d7df0	0.012542233
10	0xbd1c726e	-0.038195066
11	0x3cbf6ac7	0.023366345
12	0x3ca75ad8	0.02042906
13	0x3c065eb9	0.008201295
14	0x3c1a020a	0.0093999
15	0x3c55c0d6	0.013046464
16	0xbb00ca59	-0.0019651859
17	0x3c0dafce	0.008647872
18	0x3d088365	0.033328433
19	0x3d2f2042	0.042755373
20	0x3b4d416a	0.0031319507
21	0xbc19c71e	-0.009385852
22	0x3c85691a	0.016285468
23	0x3c9b63d2	0.018968496
24	0xbc949cd8	-0.018141195
25	0x3c2eee9d	0.010677007
26	0x3d1e999d	0.038720716
27	0x3d0690ef	0.032853063
28	0x3ca77c16	0.020444911
29	0x3cb7dcd2	0.022444163
30	0x3d0037f7	0.031303372
31	0x3ca5c08a	0.020233411
32	0x3bf5c73b	0.0075005568
33	0x3d60b83c	0.0548632
34	0x3c9ca4f2	0.01912162
35	0xbc501660	-0.012700647
36	0x3cd51229	0.026009636
37	0x3bea0e4c	0.0071428176
38	0xbc1b1f83	-0.009467962
39	0x3d577513	0.052601885
40	0xbce58bb3	-0.028020715
41	0xbcceac3c	-0.025228612
42	0x3d34ea7e	0.04416894
43	0xbccbfdf9	-0.024901377
44	0x3d4996ba	0.04921601
45	0x3d81029d	0.062993266
46	0x3d0107c2	0.03150154
47	0x3c4ab043	0.012371126
48	0xbca03d3e	-0.019560453
49	0x3c31d22d	0.0108533325
50	0xbb976b85	-0.0046209716
51	0xbcaf4f75	-0.021400193
52	0x3c994261	0.01870841
53	0x3d0600d4	0.032715634
54	0x3d120696	0.035650812
55	0x3c976b1e	0.018483695
56	0x3c9bd50c	0.019022487
57	0x3ca7af08	0.020469204
58	0x3c8d9aab	0.017285665
59	0x3cca6f68	0.024711326
60	0x3d2ac440	0.041691065
61	0xbb972bc7	-0.004613373
62	0xbcef8a9b	-0.029240897
63	0xbcec14d3	-0.028818524

11.weight f4 [64]
0	0x3fa4d290	1.2876759
1	0x3fac04ea	1.3439
2	0x3fbc8528	1.4728136
3	0x3fb5aa03	1.4192508
4	0x3faee244	1.3662801
5	0x3fb46b75	1.4095293
6	0x3fa44f27	1.2836655
7	0x3fbed284	1.4907994
8	0x3fa89889	1.317155
9	0x3fb2f202	1.3980105
10	0x3fb06181	1.3779756
11	0x3fabf9fb	1.3435663
12	0x3fa8f2b3	1.3199066
13	0x3faed99b	1.3660158
14	0x3fac34ce	1.3453615
15	0x3fa048ab	1.2522177
16	0x3fb5e2fe	1.4209898
17	0x3fae6d46	1.3627098
18	0x3fb01e15	1.375918
19	0x3fadad71	1.3568555
20	0x3fad1f5c	1.3525195
21	0x3fa7505f	1.3071402
22	0x3fa66c29	1.3001758
23	0x3fb5c2eb	1.4200109
24	0x3fbf3747	1.4938744
25	0x3faf9918	1.3718596
26	0x3fa4d2a9	1.2876788
27	0x3fb53ecf	1.4159793
28	0x3fb69c1c	1.4266391
29	0x3fa06098	1.2529478
30	0x3fa3eff8	1.2807608
31	0x3fb092ac	1.3794761
32	0x3fa9303b	1.3217844
33	0x3fae4972	1.3616164
34	0x3fae5bb0	1.3621731
35	0x3fb8e07e	1.444351
36	0x3fa44263	1.283276
37	0x3f9c4e63	1.2211422
38	0x3faa7699	1.3317443
39	0x3f9b63ee	1.2139871
40	0x3fa60c30	1.2972469
41	0x3faffa35	1.3748232
42	0x3fab15d6	1.3366039
43	0x3fb50b01	1.4143983
44	0x3fa8950e	1.3170488
45	0x3fbbfedc	1.4687152
46	0x3faaf9de	1.3357503
47	0x3fb646e8	1.4240389
48	0x3fb050f0	1.37747
49	0x3fa254f6	1.2682178
50	0x3fa9a0ab	1.3252157
51	0x3facd231	1.3501645
52	0x3fab3bec	1.3377662
53	0x3faffbff	1.3748778
54	0x3fabd85b	1.3425401
55	0x3fc01a1d	1.5007969
56	0x3faac503	1.3341373
57	0x3fad4a0e	1.3538225
58	0x3fb696af	1.4264735
59	0x3fbb04c0	1.4610825
60	0x3fa0ab6d	1.2552315
61	0x3fab0827	1.3361863
62	0x3fb574b9	1.4176246
63	0x3fb24f12	1.393038

11.bias f4 [64]
0	0xbe17a6ac	-0.14809674
1	0xbda511f0	-0.08060062
2	0xbdf9cdc6	-0.12197451
3	0xbc771de1	-0.015082807
4	0xbe17ddaa	-0.14830652
5	0xbe81b516	-0.2533347
6	0xbd8ec6c7	-0.069715075
7	0xbe410066	-0.18847808
8	0xbe61ec2e	-0.22062752
9	0xbe670b5d	-0.22562928
10	0xbdf641a1	-0.120242365
11	0xbdcad472	-0.09903802
12	0xbe50f582	-0.20406154
13	0xbe03f850	-0.12887692
14	0xbe960ca9	-0.29306534
15	0xbe01985a	-0.12655774
16	0xbe63da24	-0.22251183
17	0xbe6ef7f4	-0.23336774
18	0xbe2c9b98	-0.1685623
19	0xbe32078d	-0.17385693
20	0xbc9d73f2	-0.019220326
21	0xbe24c049	-0.16088976
22	0xbe1bc873	-0.15213184
23	0xbe8400ca	-0.25781852
24	0xbcd5a9b3	-0.026081895
25	0xbdb950df	-0.09048628
26	0xbe0429f3	-0.12906627
27	0xbe09647e	-0.13417241
28	0xbe186540	-0.14882374
29	0xbe29dc00	-0.1658783
30	0xbe2b9487	-0.16755877
31	0xbdc40cba	-0.0957274
32	0xbd1d4db0	-0.038404167
33	0xbe7758f9	-0.24155034
34	0xbe7d9c7a	-0.24766722
35	0xbd9ac954	-0.075579315
36	0xbdb750c8	-0.08950955
37	0xbd8091ff	-0.062778465
38	0xbe18f204	-0.14936072
39	0xbd607a1d	-0.054803956
40	0xbe9bbf14	-0.3041922
41	0xbe12b148	-0.1432544
42	0xbe05fd6f	-0.13084958
43	0xbe7673aa	-0.2406756
44	0xbe355d46	-0.17711362
45	0xbcc24a0d	-0.02371695
46	0xbddc722e	-0.107639655
47	0xbe228cb1	-0.15873982
48	0xbdfec635	-0.12440149
49	0xbe088286	-0.1333104
50	0xbe22c087	-0.15893756
51	0xbd004588	-0.03131631
52	0xbe092b30	-0.13395381
53	0xbe28d861	-0.16488792
54	0xbdbc4003	-0.09191897
55	0xbd9ed319	-0.077551074
56	0xbe5ea41b	-0.21742289
57	0xbdcea16c	-0.100893825
58	0xbe62ece8	-0.22160685
59	0xbdb60f11	-0.088895924
60	0xbd97c64a	-0.074108675
61	0xbe0a2409	-0.13490309
62	0xbe1ecc1c	-0.15507549
63	0xbe2927d2	-0.16519096

11.running_mean f4 [64]
0	0xbeb5929f	-0.35463426
1	0xbef97e0e	-0.48728985
2	0xbf29f8b0	-0.6639509
3	0x3dd8cbc9	0.10585744
4	0xbf1601d7	-0.5859656
5	0xbe82bf5b	-0.25536618
6	0xbe9fbc6f	-0.3119845
7	0xbed635cb	-0.41837916
8	0xbe85ce8f	-0.26134154
9	0xbe5520e7	-0.20813332
10	0xbecc0879	-0.39850214
11	0x3cf66979	0.03007959
12	0xbeb96dbc	-0.36216533
13	0xbec0b729	-0.3763974
14	0xbeb94003	-0.3618165
15	0x3e9ba4d6	0.30399197
16	0xbe0289ae	-0.12747833
17	0xbecbdab4	-0.39815295
18	0xbea15ed5	-0.31517664
19	0xbbd51f6c	-0.00650399
20	0xbf06dabb	-0.52677506
21	0xbf343f52	-0.7040912
22	0xbf603066	-0.8757385
23	0xbe24e373	-0.1610239
24	0x3f5645e3	0.8370039
25	0xbf0b00e5	-0.5429824
26	0xbce479fb	-0.027890196
27	0x3e235604	0.15950781
28	0xbe7f34a4	-0.24922425
29	0xbe06b012	-0.13153103
30	0xbf06f4ad	-0.52717096
31	0xbf7044b7	-0.9385485
32	0xbf3e61a9	-0.7436777
33	0xbe4de976	-0.2010859
34	0xbd8c5f93	-0.06854167
35	0xbd051ae8	-0.032496363
36	0xbee61a1c	-0.44941795
37	0xbd25f710	-0.04051882
38	0xbee3d916	-0.4450156
39	0xbebc7020	-0.36804295
40	0xbe123c6d	-0.14280863
41	0xbea80948	-0.3281958
42	0xbe98e164	-0.2985946
43	0xbe8ed2b6	-0.27895135
44	0xbed938bb	-0.42426094
45	0xbefad8a4	-0.4899341
46	0xbf6e27f3	-0.9302971
47	0x3dc9a3b0	0.09845674
48	0xbf08e02e	-0.5346707
49	0xbe9281ae	-0.28614563
50	0xbf0ed666	-0.55795896
51	0x3d3db6ca	0.0463169
52	0xbf03ee60	-0.51535606
53	0xbea1d68b	-0.31608996
54	0x3f3a55ea	0.72787344
55	0x3e88682a	0.2664197
56	0xbeba2b17	-0.36361
57	0xbdfb6d11	-0.12276662
58	0xbea60958	-0.32429004
59	0xbe218038	-0.15771568
60	0xbecd1d16	-0.40061253
61	0xbe47b20a	-0.1950151
62	0xbf1220f6	-0.57081544
63	0xbf1c1e03	-0.60983294

11.running_var f4 [64]
0	0x3e3087e0	0.17239332
1	0x3e6209cc	0.2207405
2	0x3e66ac92	0.22526768
3	0x3e061a50	0.13095975
4	0x3e3b1849	0.18270983
5	0x3e3ab984	0.18234831
6	0x3e33b1ee	0.17548344
7	0x3e5c0ef3	0.21490078
8	0x3e3dd315	0.18537553
9	0x3e3bfef5	0.18358977
10	0x3e8944aa	0.268102
11	0x3e2586d8	0.1616472
12	0x3e5bb444	0.21455485
13	0x3e247600	0.16060638
14	0x3e31d4b0	0.1736629
15	0x3e5d135e	0.21589419
16	0x3e3e85ef	0.18605779
17	0x3e24b603	0.16085057
18	0x3e43fdc5	0.19139774
19	0x3e5cafe2	0.21551469
20	0x3e8124ba	0.25223333
21	0x3e5054b1	0.20344807
22	0x3e560194	0.2089904
23	0x3e46bd30	0.19408107
24	0x3e7b4980	0.24539757
25	0x3e52da5c	0.2059111
26	0x3e53b51e	0.2067456
27	0x3e51275f	0.20425175
28	0x3e6b059a	0.22951356
29	0x3e39c37c	0.18140978
30	0x3e3149ad	0.17313261
31	0x3e68724f	0.22699855
32	0x3e6f591e	0.2337384
33	0x3e63996d	0.22226496
34	0x3e37358f	0.17891525
35	0x3e323433	0.17402725
36	0x3e74ac14	0.23893768
37	0x3e57b8a3	0.21066527
38	0x3e42d00a	0.19024673
39	0x3e676c0a	0.22599807
40	0x3e28554f	0.16438793
41	0x3e860789	0.26177624
42	0x3e228664	0.15871578
43	0x3e45b53d	0.19307418
44	0x3e2f407d	0.17114444
45	0x3e3c7d9a	0.18407288
46	0x3e503bad	0.20335265
47	0x3e4700fc	0.1943397
48	0x3e827177	0.25477192
49	0x3e297034	0.16546708
50	0x3e5919cf	0.21201251
51	0x3e4260cb	0.18982236
52	0x3e684eb4	0.22686273
53	0x3e57c902	0.21072772
54	0x3e4be3b2	0.19911078
55	0x3e5a7d21	0.21336795
56	0x3e52bfca	0.20580974
57	0x3e4a42b4	0.19752008
58	0x3e3cd052	0.18438843
59	0x3e2f410a	0.17114654
60	0x3e7fe234	0.24988633
61	0x3e28ef97	0.16497646
62	0x3e813763	0.2523757
63	0x3e73ed87	0.23821078

16.weight f4 [32, 64]
0	0x3c966ec2	0.01836336
1	0xbd091b80	-0.03347349
2	0xbe4e0d94	-0.20122367
3	0x3e6335f9	0.22188558
4	0xbe1a3e80	-0.15062904
5	0x3c84bed6	0.016204279
6	0x3e17b97a	0.14816847
7	0x3e9c82c5	0.3056852
8	0x3db17e58	0.08666676
9	0x3e60cb9d	0.21952672
10	0xbccd261c	-0.025042586
11	0xbd64c9f5	-0.055856664
12	0x3e09958a	0.13435951
13	0x3eae3cc7	0.34030744
14	0x3ddc520d	0.107578374
15	0xbe86520b	-0.2623447
16	0x3dbb4592	0.09144129
17	0x3d347899	0.044060323
18	0x3e009e52	0.12560394
19	0x3cae1b51	0.02125326
20	0x3e0ef8fe	0.1396217
21	0x3da670dc	0.08126995
22	0xbe895965	-0.26826015
23	0x3e34ba97	0.17649303
24	0x3c101356	0.008793673
25	0xbe87e653	-0.2654291
26	0xbd77700f	-0.0604096
27	0xbe82544b	-0.25454935
28	0xbdba4919	-0.090959735
29	0xbe739357	-0.23786674
30	0x3e74f1eb	0.2392041
31	0xbee642aa	-0.44972736
32	0xbe598126	-0.21240672
33	0x3dac0379	0.083991
34	0x3dc8e4c3	0.09809258
35	0x3e435021	0.19073536
36	0xbe0b17d4	-0.13583308
37	0xbd5529bf	-0.052041765
38	0xbc9d8ff0	-0.019233674
39	0xbe886e94	-0.26646864
40	0x3cba9f7e	0.02278113
41	0x3dded3a6	0.108802125
42	0x3e74b266	0.23896179
43	0x3e496177	0.19666086
44	0xbe6ec177	-0.23315988
45	0x3e1887af	0.14895509
46	0xbe7c5db8	-0.24645126
47	0x3dbe190b	0.0928212
48	0x3d190337	0.03735658
49	0x3e5b25fa	0.21401206
50	0x3ca481a5	0.02008135
51	0x3a7885a5	0.0009480364
52	0xbce751a8	-0.028237179
53	0x3e33a4e6	0.17543373
54	0xbe900419	-0.28128126
55	0x3ece2468	0.4026215
56	0xbe81795d	-0.25287905
57	0xbe454f51	-0.19268538
58	0xbb41b63f	-0.002955809
59	0x3bed5ec7	0.0072439644
60	0xbe4a2bc0	-0.19743252
61	0xbb894b5d	-0.004189892
62	0xbe058ef8	-0.1304282
63	0x3dd197d6	0.102340385
64	0x3d29c0af	0.041443523
65	0x3e3a852b	0.18214862
66	0xbe72f884	-0.23727614
67	0x3e82c904	0.25543988
68	0xbdbd9d7a	-0.09258552
69	0x3c9f8c1c	0.019475989
70	0xbe3eaf21	-0.18621494
71	0x3dc64ef4	0.09683028
72	0x3de68b63	0.11257055
73	0x3e53f3c2	0.20698455
74	0xbe43d869	-0.19125523
75	0xbe821be0	-0.25411892
76	0xbd20b7c0	-0.039237738
77	0x3e988fdf	0.29797265
78	0xbaf9c9b7	-0.0019057308
79	0xbe895274	-0.2682072
80	0x3ec6ceb6	0.38829583
81	0xbe70df6f	-0.23522733
82	0xbe532067	-0.2061783
83	0x3e8159f9	0.25263956
84	0xbe06c77c	-0.13162035
85	0x3e8d7df2	0.2763515
86	0x3dc01958	0.09379834
87	0xbd7a9a8a	-0.061182536
88	0x3dd42c04	0.10359958
89	0xbe8f145f	-0.2794523
90	0xbe087955	-0.13327534
91	0x3db2469b	0.08704873
92	0xbe249732	-0.16073301
93	0xbd4a0213	-0.049318384
94	0xbb4a7025	-0.0030889597
95	0xbeb1f31c	-0.3475579
96	0xbdf0a498	-0.11750144
97	0x3d517297	0.051134672
98	0x3eaf3a44	0.3422414
99	0x3e49e535	0.19716342
100	0xbd716841	-0.058937315
101	0xbe3a81cf	-0.1821358
102	0xbd9b1265	-0.07571868
103	0xbe508ee0	-0.20367002
104	0x3d32adaf	0.04362267
105	0x3df82874	0.12117091
106	0x3ea5c612	0.32377678
107	0xbd9e53cf	-0.07730829
108	0x3df7e800	0.12104797
109	0xbd1b64f2	-0.037938066
110	0xbdcf4dec	-0.10122284
111	0x3ec26063	0.37964162
112	0x3c91d262	0.017800514
113	0x3dbd730a	0.092504576
114	0x3d60c8c3	0.05487896
115	0x3ea581d3	0.3232561
116	0xbd9569eb	-0.07295593
117	0x3e1b82d6	0.15186629
118	0x3e2749c1	0.16336729
119	0x3e4e80fd	0.20166393
120	0x3cc719b3	0.024304247
121	0xbe96f476	-0.29483384
122	0x3eadb788	0.33929086
123	0xbe536f7c	-0.20647997
124	0xbec97604	-0.3934785
125	0x3e008b52	0.12553146
126	0x3d9e9329	0.07742912
127	0x3e4dd57a	0.20100966
128	0x3d88e5d5	0.06684462
129	0x3b747ac7	0.0037304626
130	0x3e8ede6a	0.27904063
131	0x3b9df39b	0.0048203
132	0xbdde4a96	-0.1085407
133	0x3ea548ce	0.32282108
134	0xbc91b6a7	-0.01778729
135	0xbe62f264	-0.22162777
136	0xbe35c69f	-0.17751549
137	0x3e427853	0.18991213
138	0x3e48268c	0.19545954
139	0xbde563a7	-0.11200648
140	0x3e740a98	0.23832166
141	0xbdccdea8	-0.10003406
142	0xbe62dab3	-0.2215374
143	0xbccdce0d	-0.025122667
144	0x3bd6ca6e	0.006554893
145	0xbe1a915b	-0.15094511
146	0xbeb18b68	-0.3467667
147	0x3a80937a	0.0009809576
148	0xbe14aebd	-0.14519782
149	0x3cbf0059	0.023315595
150	0x3e41588b	0.18881433
151	0xbe93bc92	-0.28854805
152	0xbe5e0058	-0.21679819
153	0x3dc90233	0.098148726
154	0xbe23b81a	-0.15988198
155	0xbde7c7fb	-0.1131744
156	0xbe962cf5	-0.29331174
157	0x3e4a1418	0.19734228
158	0xbd6796c5	-0.05654027
159	0x3e08cd6b	0.1335961
160	0x3eaafd61	0.33396438
161	0x3e2fe357	0.17176567
162	0x3e9d2cd4	0.30698264
163	0xbe53f022	-0.20697072
164	0x3eaf8424	0.34280503
165	0x3d832440	0.064033985
166	0x3e08c93b	0.13358013
167	0x3d643bd0	0.055721104
168	0x3eb46371	0.35232118
169	0xbe1aef04	-0.1513024
170	0x3dff0661	0.124523886
171	0xbdf56fb8	-0.11984199
172	0x3e43bda8	0.19115317
173	0x3e5528ea	0.20816389
174	0xbdab38fd	-0.08360479
175	0xbd8f155a	-0.06986494
176	0x3e8c4ae7	0.27400896
177	0xbe8a7ec4	-0.2704984
178	0x3dba1f79	0.09088034
179	0xbdf6349d	-0.12021754
180	0x3e2f0724	0.17092568
181	0xbe48ba73	-0.19602375
182	0x3dd2ea0a	0.10298546
183	0xbe2e19e1	-0.1700206
184	0x3d9d3ee7	0.07678013
185	0xbe5575e6	-0.20845756
186	0x3e450ac1	0.19242384
187	0x3ded089e	0.11573909
188	0x3d9cf312	0.076635495
189	0xbcc34b77	-0.023839695
190	0x3e8a7a9c	0.2704667
191	0xbd83f350	-0.064428926
192	0x3d8d2720	0.06892228
193	0x3cefc50a	0.02926876
194	0xbdcca672	-0.099926844
195	0x3a8d970c	0.0010802462
196	0xbea16d77	-0.31528828
197	0xbbb945ca	-0.0056540715
198	0xbe3fab95	-0.18717797
199	0x3de48b0f	0.11159336
200	0x3eb175de	0.34660238
201	0x3d46326b	0.048387926
202	0x3dc657aa	0.09684689
203	0xbd850f40	-0.06497049
204	0x3e1f3d0c	0.15550631
205	0x3e411f51	0.18859603
206	0x3e84d710	0.2594533
207	0xbdba4d8d	-0.09096823
208	0x3e92145a	0.28531152
209	0x3e20a548	0.1568805
210	0x3e6044d8	0.21901262
211	0x3d010bb0	0.031505287
212	0xbdeba9c1	-0.11506987
213	0xbe84dff4	-0.25952113
214	0x3ccede6f	0.025252549
215	0x3e7a5ecf	0.24450229
216	0xbe7bd125	-0.24591501
217	0xbe887648	-0.2665274
218	0xbe7092d8	-0.23493516
219	0x3b9d8b70	0.004807882
220	0x3d7d7faa	0.061889328
221	0xbe917beb	-0.28414854
222	0x3de45e93	0.11150851
223	0xbe82dbd7	-0.2555835
224	0xbe972828	-0.29522824
225	0x3d07627a	0.0330529
226	0x3d7e0814	0.062019423
227	0x3e846e0c	0.2586521
228	0xbdc31464	-0.095253736
229	0xbdf04926	-0.11732702
230	0x3ea57535	0.32315984
231	0x3d87c492	0.0662929
232	0x3bb1d49e	0.0054269573
233	0xbdc72a86	-0.097249076
234	0x3daf22bf	0.08551549
235	0x3eb50911	0.3535848
236	0x3e6dee02	0.23235324
237	0x3e8c0590	0.27347994
238	0xbe675881	-0.22592355
239	0xbcf934b3	-0.030420637
240	0x3d90de63	0.07073667
241	0xbe04c8fe	-0.12967297
242	0x3be3ef44	0.006956013
243	0xbe2f53a2	-0.17121747
244	0x3e831c24	0.25607407
245	0xbc8c6544	-0.017138131
246	0xbdd9b78f	-0.10630714
247	0xbd6ba6be	-0.057532065
248	0x3e64a31c	0.22327846
249	0xbbb60541	-0.0055548255
250	0x3e8ca59a	0.27470094
251	0xbe083c09	-0.13304152
252	0xbe48bd2a	-0.1960341
253	0xbe3f4eb5	-0.18682368
254	0x3da95b76	0.08269398
255	0xbd7d6d4c	-0.06187181

16.bias f4 [32]
0	0x3e2d7dba	0.16942492
1	0x3c983bfb	0.018583288
2	0x3e1a5cb7	0.1507443
3	0x3d7e49c4	0.062082067
4	0xbd78a28c	-0.06070189
5	0x39bb2090	0.0003569168
6	0x3dda183b	0.10649153
7	0x3d818996	0.063250706
8	0x3b4e535d	0.0031482794
9	0x3bec1d42	0.0072056362
10	0xba90f43d	-0.0011059117
11	0x3d2d5da6	0.04232564
12	0x3e06384a	0.1310741
13	0x3d5e673f	0.054297682
14	0x3e2d4651	0.16921355
15	0x3c89c9fa	0.016819943
16	0x3e1bd512	0.15217999
17	0x3d5621c0	0.05227828
18	0x3e040637	0.12892996
19	0xbd4c6bde	-0.049907558
20	0x3dc39930	0.095507026
21	0x3e1c3096	0.15252909
22	0x3cb440af	0.0220035
23	0x3d1f9996	0.03896483
24	0xba802495	-0.0009776527
25	0x3ddf50b9	0.109040685
26	0xbdb8ba73	-0.09019937
27	0xbd0afbd6	-0.033931576
28	0x3b819d80	0.003955543
29	0xbd207c09	-0.03918079
30	0x3d9f9a55	0.077931084
31	0x3e1e0a29	0.15433563
