03_AML2425_Unlearning/Practice/checkpoint/trained_model.pth (torch, 245369 bytes, 22 tensors)

0.weight f4 [32, 3, 3, 3]
000000 b2 2a 00 3d f3 8c ef 3d 48 d2 03 be 54 67 01 be
       0.031290717 0.11696806 -0.12873185 -0.12637073
000010 4d d1 66 bd 4d 6a 85 3d 73 82 2a 3c 82 cb 2b 3e
       -0.05635195 0.06514416 0.010407078 0.16776851
000020 ca 9a a7 bc 63 69 74 3d 2c 52 8f bd 0a 90 d7 bc
       -0.020459551 0.059670817 -0.06998095 -0.0263138
000030 38 f0 42 be 23 ba 06 be 5d 01 99 bd f7 61 63 bc
       -0.19036949 -0.13156943 -0.07470963 -0.013878337
000040 6d a7 7d 3d 68 f1 d0 3d 48 38 33 be 98 11 07 be
       0.061927248 0.102022946 -0.17501938 -0.13190305
000050 97 a6 8e 3d a7 ae 0b 3e 05 27 27 bd a1 9e 37 3e
       0.06965368 0.13640843 -0.040808696 0.17931606
000060 72 8f 67 bd 0e 76 d9 3c 25 6c 54 3e d8 2b 00 be
       -0.056533284 0.02654555 0.20744379 -0.12516725
000070 55 bb 06 bd 9c 65 ff 3d 1a 3d 14 be bb 81 f9 3d
       -0.032893497 0.12470552 -0.14476433 0.12182947
000080 1e 57 2a bd 87 29 f2 bd 07 b8 42 be 8d d5 ef bd
       -0.041586988 -0.11824327 -0.19015513 -0.117106535
000090 67 eb 2a be 6c 41 10 3e cd 8e df 3d 2f c8 e7 3c
       -0.16691361 0.14087456 0.10915909 0.028293697
0000a0 8a 37 32 bd 32 0d d5 bd 18 a6 7d bc 30 10 75 be
       -0.043509997 -0.104029074 -0.015481494 -0.23931956
0000b0 39 87 2a be aa db 3f be 39 13 3c 3d 09 83 8a 3d
       -0.16653146 -0.18736139 0.04591677 0.06763274
0000c0 0f 61 17 be 59 e8 87 bd 64 ea b6 3d e8 0d 26 3e
       -0.14783119 -0.06636114 0.08931425 0.16216242
0000d0 4a b3 20 3d 38 dd 0f 3b 22 45 65 3d 09 8b 26 be
       0.039233483 0.0021951925 0.055974133 -0.16263975
0000e0 90 eb b8 3c e0 79 4c be 31 03 05 be 22 e2 21 bd
       0.022573262 -0.19968367 -0.12989499 -0.039522298
0000f0 18 fb fd 3d 4e e4 42 3e 61 37 49 3d 44 10 11 3b
       0.12401408 0.19032404 0.04912508 0.002213494
000100 9a 1a a9 3d 21 d5 06 bd 45 5d 5f bd 3d 69 0e 3d
       0.08257027 -0.0329181 -0.054532308 0.03476833
000110 ec 1c 13 3e d9 d2 00 3e 79 a8 15 be 86 1b 05 bd
       0.14366502 0.12580432 -0.14615048 -0.03249695
000120 72 8d 90 3d e3 7c 3f 3e 28 3d 3b 3e 74 4f e9 3d
       0.070582286 0.18699984 0.18285048 0.113921076
000130 4d ab fd 3c 03 e1 2a be b8 d0 b2 bd 77 55 30 be
       0.030965472 -0.16687398 -0.08731216 -0.17220102
000140 67 3f 5d be 8f e1 16 3e c1 f3 1f 3e ba f1 3f be
       -0.21606217 0.14734481 0.15620328 -0.18744555
000150 4f c1 20 bb 3b f6 65 bd 43 32 3f bd 16 e6 84 bd
       -0.0024529283 -0.056143027 -0.046678793 -0.06489198
000160 9a 60 d6 3d 04 09 7d bd f4 38 9c 3d a9 ee 01 3e
       0.10467644 -0.061776176 0.076280504 0.12688698
000170 5b 14 1d 3e 57 1c 35 3d 08 18 5e be 62 c3 1b be
       0.15339796 0.04421648 -0.21688855 -0.15211251
000180 f5 66 fc 3d d7 1c 86 3d 02 74 df bd 94 57 98 bd
       0.12324325 0.065484695 -0.109107986 -0.07438579
000190 24 73 77 3e e0 84 59 3e ca 4b eb bd ff 2f 8d bd
       0.24165016 0.21242094 -0.11489065 -0.0689392
0001a0 8e 4d 2c be 4e 20 4a 3c 7f 6e ee bd 73 14 84 bd
       -0.1682646 0.012336804 -0.11642169 -0.06449213
0001b0 69 0a 7e bc 57 ab 85 bc 31 29 6a bd 45 d1 cc 3d
       -0.015505412 -0.016317053 -0.05716819 0.100008525
0001c0 1f 01 50 be d2 51 39 3e 22 aa 0c 3e 0b ee 36 be
       -0.20312928 0.18097618 0.13736776 -0.17864244
0001d0 55 74 2a 3d 1f 54 04 3d cc 7a ef ba 77 a9 99 3d
       0.04161485 0.032306787 -0.0018270849 0.07503026
0001e0 fc 32 e8 3d 1b 9f 45 bd 50 47 84 bd 37 51 09 3e
       0.113378495 -0.048247438 -0.06458914 0.13409887
0001f0 eb b8 4a be 90 a1 d4 bc 71 94 dc 3c 0f 5a 8b bd
       -0.19797103 -0.025955945 0.026926251 -0.06804287
000200 63 e6 bd bb c6 71 94 bd 85 b4 76 bd 05 5e b3 3d
       -0.0057952865 -0.07248263 -0.06023075 0.08758167
000210 5d f3 86 bd 12 45 fd bc 7b e0 3e 3e b7 52 94 bd
       -0.065893866 -0.030916724 0.1864032 -0.07242339
000220 e6 58 64 bd ac 06 7d bd d2 03 a9 3c 38 48 ed 3d
       -0.055748843 -0.06177394 0.020631704 0.1158604
000230 45 8c 34 3e d1 ad 03 3e 59 08 4d 3e 22 ad 2e bc
       0.17631634 0.12859274 0.20022716 -0.010661395
000240 9a a9 0e be 27 e1 df bd 95 04 18 3e 04 50 2f bc
       -0.13931885 -0.10931616 0.14845498 -0.01070023
000250 9d 51 10 be 23 6d 32 be 39 68 20 be bc 3b 32 be
       -0.14093633 -0.17424445 -0.15664758 -0.174056
000260 53 88 54 bd c2 47 68 3e 49 0f 3a 3e 39 50 97 bd
       -0.05188782 0.22683623 0.18169893 -0.07388348
000270 ef 69 2a 3e 14 88 10 be 83 3f 9f bc e9 53 e4 bc
       0.16641973 -0.1411441 -0.019439464 -0.027872043
000280 9b fd db bc 34 68 37 bd 14 37 30 be a6 7f 13 be
       -0.026854327 -0.04477711 -0.1720851 -0.14404163
000290 55 54 90 bc 8c 6a 61 3c d3 fc 51 bd e2 40 d8 3d
       -0.017618338 0.013758313 -0.051266503 0.105592504
0002a0 a6 c4 09 be 72 a0 06 3d ec 4c 6b 3e a2 e5 c6 bd
       -0.13453922 0.032867856 0.22978562 -0.09711768
0002b0 11 5f 46 3e fd ca 84 3d e4 40 35 be a6 cb 22 3e
       0.19372202 0.064840294 -0.17700535 0.15897998
0002c0 a7 f5 61 bb 29 63 d4 bd 73 aa 24 3e 34 78 18 be
       -0.0034478696 -0.10370476 0.16080646 -0.14889604
0002d0 1a fe 9d 3c f4 f3 c9 bc 60 77 cf 3d 1c f9 67 3d
       0.019286204 -0.024652459 0.10130191 0.056634054
0002e0 0d 56 f5 3d eb 83 40 3d 25 06 6f bd a4 1e 2a bd
       0.119793035 0.047000807 -0.05835547 -0.041533127
0002f0 6f 06 49 be f0 e7 04 3e ef 57 40 3e 5c 71 36 3e
       -0.1963136 0.12979102 0.18783544 0.1781668
000300 ed 40 2b be e8 dd 42 bc de 16 18 be 6f 42 c8 bd
       -0.16723986 -0.011893727 -0.14852473 -0.09778296
000310 60 4d dd bd 24 75 83 3d 19 35 f4 bd b9 7b 53 3b
       -0.10805774 0.06418827 -0.1192419 0.003226979
000320 7a 2d d8 3c 46 b2 eb 3d df 33 0f be 77 06 f1 bd
       0.026388872 0.11508612 -0.13984631 -0.11768811
000330 c2 2c 4c bd 41 83 47 3e db 47 24 bc 7f 5b ff 3d
       -0.049847372 0.19483663 -0.010026897 0.12468623
000340 5a a6 0c 3d 87 5d 82 bb 7c e3 1a bd e0 b0 8d bd
       0.034338333 -0.0039784345 -0.037814602 -0.06918502
000350 21 8f fd ba 0d 78 d9 bc bf 1f 0b 3c 72 f5 06 3d
       -0.0019345024 -0.026546502 0.008491456 0.03294892
000360 48 29 b7 bd 6e 00 af bd 92 83 3a 3e 23 b2 05 be
       -0.08943421 -0.08545004 0.18214253 -0.13056235
000370 f5 38 d3 3c e2 2d 53 3e 57 d9 dc 3d 0c c5 68 3d
       0.025783995 0.20622972 0.10783642 0.056828544
000380 04 79 83 be ff 43 e2 3d d4 6c 14 be df d1 57 bd
       -0.25678265 0.110481255 -0.1449464 -0.052690383
000390 f9 2b a2 bd f6 e8 33 bc e4 21 f4 bb 21 16 0c 3e
       -0.07918543 -0.010980835 -0.007450329 0.13680317
0003a0 7d 81 09 3d b6 e9 3b 3d 1a 5c 0b 3e 06 34 df bd
       0.033570755 0.04587718 0.13609353 -0.108985946
0003b0 c1 f6 d5 3d 15 2c 18 be c9 d3 52 bd 97 6f 8e 3d
       0.10447455 -0.14860566 -0.051471505 0.06954878
0003c0 71 c4 b3 3c eb f5 18 3e 83 3a 1f be 37 69 e6 bc
       0.021944256 0.1493756 -0.15549664 -0.028126342
0003d0 55 01 7e 3d 23 47 3e be 93 7a fb 3d 3b 61 48 be
       0.06201299 -0.18581824 0.122792386 -0.1956834
0003e0 82 12 34 b9 03 34 d1 bc d0 74 ef bd bb fc 02 3d
       -0.00017173032 -0.025537496 -0.11692202 0.031979304
0003f0 b8 3b 05 3e d2 3a a5 bd 36 82 ce bd 2e 11 99 bd
       0.13011062 -0.0806786 -0.100834295 -0.0747398

0.bias f4 [32]
000000 2e 92 4a 3e 48 8b c7 bd 97 9b 5c 3b 12 a4 b0 bd
       0.19782326 -0.09743363 0.0033662075 -0.08625044
000010 02 15 b5 bd fa 03 20 3d 01 87 0a 3d 98 7a 92 bd
       -0.088418975 0.039066292 0.033820156 -0.07152289
000020 18 fa 6b be be e4 49 3d b6 f7 0f 3c 20 f5 69 bd
       -0.23044622 0.04929041 0.008787086 -0.057118535
000030 08 6a 2d 3e 19 db 56 3e db aa f8 bd 75 75 0d bd
       0.16934979 0.20982017 -0.12141963 -0.034535844
000040 58 ee e0 bd 04 15 62 be f6 41 88 bd dc 67 0d 3e
       -0.109829605 -0.2207833 -0.06653206 0.1380915
000050 83 46 0e 3e b5 5b d7 3d 7b 2d fb 3d b8 f7 f1 bd
       0.13894086 0.105155386 0.12264534 -0.11814827
000060 55 6d 5b bc 6e 1b 3b 3e 4b 8e 85 bd 90 1e 33 3e
       -0.013392766 0.18272182 -0.06521281 0.17492127
000070 40 89 5e 3c 70 bd 13 3e 3f 41 b8 bd 4f 0f d5 3d
       0.013582528 0.14427733 -0.0899682 0.104033105

1.weight f4 [32]
000000 d7 57 7a 3f 69 32 41 3f 57 a7 78 3f e5 a3 80 3f
       0.9779028 0.75467545 0.9713034 1.0050017
000010 89 c8 ac 3f 15 9e 5d 3f 46 ba 5d 3f 17 44 84 3f
       1.3498698 0.8656934 0.86612356 1.0333279
000020 21 bf 88 3f 48 36 47 3f c5 27 62 3f 40 f5 86 3f
       1.0683328 0.778172 0.88341933 1.0543594
000030 1f b4 5a 3f 85 ce 80 3f 3e 32 4a 3f eb 9d 85 3f
       0.8543109 1.0063025 0.78982913 1.0438818
000040 0a e2 45 3f ae c8 92 3f 17 a6 5e 3f 96 dd 81 3f
       0.77298033 1.1467493 0.86972183 1.0145748
000050 3f e1 90 3f 84 a5 82 3f 53 b6 61 3f c6 91 6a 3f
       1.131874 1.0206761 0.8816883 0.9162868
000060 26 b1 45 3f a0 f0 6d 3f 21 ad 83 3f eb 91 63 3f
       0.7722343 0.9294529 1.028721 0.8889453
000070 75 05 84 3f 4c 74 62 3f 25 00 9a 3f 1d 87 82 3f
       1.0314165 0.88458705 1.2031294 1.0197483

1.bias f4 [32]
000000 00 c4 d6 bd f5 e2 be be 63 e8 d6 bd cd ed 13 bd
       -0.10486603 -0.3728253 -0.10493543 -0.036115456
000010 6f 4d 16 be d4 7e 8e be a0 50 d6 bc a8 81 7e bd
       -0.14677976 -0.27831137 -0.026161492 -0.06213537
000020 7e c0 26 be 30 e3 8c bd c7 ed 2f be ef 50 0b be
       -0.16284367 -0.0687927 -0.17180549 -0.13605092
000030 bd a1 41 be e6 e2 16 be 8a 7f 4c be f6 ae 4a be
       -0.18909355 -0.14734992 -0.19970527 -0.19793305
000040 0d e0 47 be 0c 68 10 be e6 e8 39 be 61 93 3e be
       -0.19519062 -0.1410219 -0.1815525 -0.18610908
000050 21 e6 44 be d9 00 9e be 18 09 ac bd d7 66 85 be
       -0.19228412 -0.30860022 -0.08400172 -0.26055023
000060 9f 62 12 be b3 8f e6 be 7d 80 3c be 99 9f 05 3e
       -0.14295433 -0.4503151 -0.1840839 0.13049163
000070 f9 a3 78 bd 0e 84 a9 3d e0 70 56 be e0 f0 86 be
       -0.06070325 0.082771406 -0.20941496 -0.26355648

1.running_mean f4 [32]
000000 ac 6c 46 3e 61 c3 cf bd 32 3f d4 3b e9 d0 b2 bd
       0.19377393 -0.101446874 0.00647726 -0.08731253
000010 6b 97 b4 bd e8 5c 2e 3d 9d 56 21 3d aa c2 93 bd
       -0.08817943 0.04256907 0.03938924 -0.072148636
000020 f5 3a 6f be f5 7c 4c 3d 4e 7a 8f 3b 56 49 5b bd
       -0.23362334 0.049923856 0.0043785935 -0.053536735
000030 e0 6d 36 3e f1 27 52 3e b9 3f ec bd 24 a8 0f bd
       0.17815351 0.20523049 -0.11535592 -0.03507246
000040 05 c9 d6 bd 23 f1 62 be 83 0e 88 bd bd 46 10 3e
       -0.1048756 -0.22162299 -0.06643393 0.14089485
000050 2d 81 0e 3e 33 65 d8 3d c7 0c 01 3e a5 d0 f2 bd
       0.13916464 0.10566177 0.1260253 -0.11856202
000060 19 f8 7f bc 65 48 3d 3e cc a0 8a bd a1 fd 2d 3e
       -0.015623116 0.18484648 -0.06768951 0.16991283
000070 d7 13 6f 3c 75 09 14 3e 19 19 b1 bd 08 76 d4 3d
       0.0145921325 0.14456733 -0.08647365 0.10374075

1.running_var f4 [32]
000000 26 0b d0 3d e5 2f 57 3f 7c 37 53 3d 6e 8b 25 3e
       0.101583764 0.84057456 0.051566586 0.1616647
000010 3d 49 17 3d 7b 81 96 3d 7c 75 a2 3d 93 c9 5a 3d
       0.03693508 0.07348915 0.079325646 0.053414892
000020 b4 46 f5 3c da 54 3e 3e 5e 5f a2 3d b5 10 33 3d
       0.02994094 0.18587056 0.07928346 0.043717105
000030 8a 13 96 3e ab df ab 3c e3 b7 a7 3e d5 b7 9d 3c
       0.29311782 0.020980677 0.32757482 0.019252697
000040 86 da 5f 3e ca fc 82 3d f3 0f e8 3d 4a d2 01 3d
       0.21860704 0.06395872 0.11331167 0.031694688
000050 a3 1a 06 3d 75 d8 05 3d 17 84 62 3e 42 eb aa 3d
       0.032740247 0.032677133 0.22120701 0.08345653
000060 4d df bc 3d 51 61 50 3d 3a d6 1e 3e 6b 2d f1 3d
       0.09222279 0.05087406 0.15511408 0.11776241
000070 a7 47 56 3e 7f e3 41 3d b5 a3 a4 3c 55 a0 be 3b
       0.2092577 0.047336098 0.020097593 0.005817453

5.weight f4 [64, 32, 3, 3]
000000 16 5a 30 bd 0d 5e 39 3b ba 52 98 bb cb e1 44 bb
       -0.043054663 0.0028284818 -0.0046485336 -0.003004181
000010 51 c1 84 3d a6 25 c7 3d 02 e6 a2 3d bc aa dd 3d
       0.06482185 0.09723978 0.07954027 0.108235806
000020 f8 30 d2 3d 9e e0 9f b9 57 78 22 bd 4a fb 77 bb
       0.10263246 -0.00030494196 -0.039665546 -0.003783899
000030 2d d2 24 3d c9 f1 22 3c d3 e3 7b 3d a7 bb e2 3c
       0.0402395 0.009945341 0.061496567 0.02767737
000040 72 b5 a5 3c 59 51 02 3d b6 3e 4b bd d5 48 b8 bd
       0.020228121 0.03181586 -0.049620353 -0.089982666
000050 55 1b 9e bd 82 73 c5 bd 3a 3a 4e bd ef 07 1a bd
       -0.07720057 -0.09641172 -0.050348498 -0.037605222
000060 c5 59 39 ba 74 81 8e bd 20 4f b2 bc 5b 2f 4d bd
       -0.00070705666 -0.06958285 -0.021766245 -0.05009399
000070 2d 73 6c bd 51 9c bd bd 37 57 1d bc b2 5b 5f bd
       -0.057727028 -0.092583306 -0.009603313 -0.054530807
000080 07 92 27 3d 80 01 0a be f8 81 bc bd 13 9a da bd
       0.040910747 -0.13477135 -0.09204477 -0.106739186
000090 9b 6d 9f 3d 83 d1 2d 3e 38 3f ed 3d b9 e4 1b 3c
       0.077845775 0.16974454 0.11584324 0.009514981
0000a0 e1 b3 02 3d 61 c0 a9 bd 9a a8 6b bd 5d 44 d3 bd
       0.031909827 -0.082886465 -0.057533838 -0.10315774
0000b0 46 3f d2 bd 8e e4 de bd af 77 37 bd d7 39 da bc
       -0.10265975 -0.10883437 -0.044791874 -0.026638908
0000c0 ba dd 58 bc 27 21 59 3d 06 d4 3f 3b d7 c1 89 bd
       -0.0132364575 0.053010132 0.0029270663 -0.06726425
0000d0 48 5a 8c 3d 29 80 93 3c b3 22 be bc d1 57 5f bd
       0.06853157 0.018005447 -0.023209905 -0.054527108
0000e0 c4 b6 87 bd 18 06 0e bc ab d0 1d 3c d1 28 ce bb
       -0.06626657 -0.008668445 0.00963227 -0.006291487
0000f0 2c 67 68 bc f1 6f 92 bd e9 ce d7 bc 29 a5 ac bd
       -0.014184754 -0.071502574 -0.02634378 -0.08429939
000100 1d 48 0c be 64 10 ce bd 32 36 5d 3d 37 32 4f bd
       -0.13699384 -0.1006172 0.054006763 -0.050584998
000110 d2 07 98 bd 07 d0 b4 bd 2e 09 8c bd a2 f8 18 be
       -0.074233666 -0.088287406 -0.068376884 -0.14938596
000120 b1 6a 8e 3c 4c 78 44 3d 90 0b 47 bc b3 fe 55 3c
       0.017384859 0.047966287 -0.012148753 0.013061213
000130 c7 ec 92 3d 4d 38 49 3d ff b0 68 bd 1e 8b 39 3a
       0.07174068 0.04912596 -0.05680942 0.000707792
000140 42 ff c5 3c 94 da 10 bd e3 94 df bd a7 e1 89 bc
       0.024169568 -0.035364702 -0.1091707 -0.016831232
000150 ba 87 24 bd 58 40 a5 bd 8c a4 94 bc 05 bf 2b bd
       -0.0401685 -0.08068913 -0.018144868 -0.041930217
000160 0b 88 09 bc 92 b7 4b bd a1 4a a5 bd ff af 35 bd
       -0.008394252 -0.049735613 -0.08070875 -0.044357296
000170 9d 73 0a bd 6d b1 99 3c 3f ce 0a bd 5e 81 c7 3c
       -0.033801664 0.018761361 -0.033888098 0.02435368
000180 74 e1 ea 3c d7 d0 36 bd 51 d9 02 3c a0 07 46 39
       0.028671958 -0.04463276 0.007986383 0.00018885592
000190 49 8b d3 3d 3f 39 9d 3d bb ad bf bc 71 15 98 3c
       0.10329301 0.076769345 -0.02339827 0.018564912
0001a0 2d 1b 26 3d c5 31 01 be f9 7e c6 bc 61 6f 67 bd
       0.04055326 -0.12616642 -0.024230467 -0.056502704
0001b0 ce fb b0 bc e3 58 b7 ba 42 5e 7a bd eb cf 1a bc
       -0.021604445 -0.0013988282 -0.061125048 -0.009448986
0001c0 53 0f b3 ba ed 12 08 3b 42 aa f4 3c 6c 44 d4 3c
       -0.0013661183 0.0020763234 0.029866342 0.025911532
0001d0 b0 81 6a 3d 7e 79 a9 bc 21 21 f8 3c 30 2f a2 bc
       0.057252586 -0.020687815 0.030289235 -0.019797891
0001e0 5b 7c bf 3c 36 54 9c bc 7e 0a 9a bd ed c8 2b bb
       0.023374727 -0.019083124 -0.075215325 -0.002621229
0001f0 d6 e8 9a 3c 9d e3 0d bd bd 10 44 bd d5 46 97 3c
       0.018909853 -0.034640897 -0.047867525 0.018466393
000200 30 a6 4c bc 62 ae 1d bd 67 60 0d bc 8a c7 4a 3d
       -0.012490794 -0.038496383 -0.008628941 0.0495067
000210 d6 2e 9a bc 0f de 4a 3d 3a d2 6b 3d 50 02 4b 3d
       -0.018821161 0.049528178 0.057573535 0.049562752
000220 1c 30 e9 3c 93 72 23 3c b9 56 80 bc b2 09 96 3b
       0.028465323 0.009976047 -0.015666353 0.0045787925
000230 a3 ee 8c bd b0 57 11 be 56 d2 3a be 81 87 df bd
       -0.06881454 -0.14193606 -0.182443 -0.10914517
000240 de c4 8a bd b3 63 b3 3c d7 76 98 bb 49 8c df 3b
       -0.06775831 0.021898126 -0.0046528387 0.006822143
000250 95 63 78 3d 3f b0 29 3d 1a 70 fc 3b 76 c8 98 3c
       0.060641844 0.041427847 0.0077037932 0.018650275
000260 2f d0 1d bd 9c 70 b9 3d ab 52 b1 3d bb 82 f5 3c
       -0.038528617 0.09054682 0.08658346 0.029969564
000270 ae 3c f4 3d 46 64 81 3d d3 81 a3 bd ef e6 85 bd
       0.11925636 0.06317954 -0.079837464 -0.06538188
000280 9c 30 80 bc ca 75 5b bd 1b 94 3d 3d 77 48 e2 b9
       -0.015648179 -0.05357913 0.046283823 -0.0004316007
000290 a5 71 03 bd f0 86 90 3d e1 98 38 3d 2c d1 4f 3d
       -0.0320908 0.07056987 0.04506767 0.05073659
0002a0 88 fc 8a 3c 90 f1 27 bc bd e2 68 bb e0 5f ae bb
       0.01696612 -0.010250464 -0.0035535537 -0.005321488
0002b0 84 66 90 bc 9f f4 06 bc 1b aa be bb 9a e5 48 bd
       -0.017627008 -0.008237033 -0.005818618 -0.04904709
0002c0 96 ae ac 3c 1c 1e ed bd 10 b5 39 bd cc 30 5b be
       0.021079343 -0.115780085 -0.04533869 -0.21405333
0002d0 fc 4d 49 3d 44 4f bc 3d 2e 9c f4 3c a7 66 a3 3d
       0.049146637 0.09194806 0.029859629 0.07978564
0002e0 be e9 0a 3e 21 48 57 3d a6 19 0e 3d 77 ff 81 3d
       0.13565728 0.05255902 0.03469243 0.06347554
0002f0 78 d2 31 39 8d f1 66 bc a8 3c fa 3b f1 e5 4f bd
       0.00016958441 -0.014095676 0.0076366253 -0.0507564
000300 51 0e e1 3c 60 ac 52 3b 7e a4 61 3b 91 2a a0 bb
       0.027472647 0.00321462 0.003443032 -0.004887887
000310 c6 8f ea bc 1a ca f6 3b 4f 54 7b bd e6 40 9e 3b
       -0.02863301 0.0075314166 -0.0613597 0.004829514
000320 7b 91 22 bc ae 47 d6 bc 49 55 77 3d 7b c4 bf 3c
       -0.009922381 -0.026157226 0.06038407 0.023409119
000330 f2 2c f9 ba 54 15 35 3c 83 73 40 3d d1 b4 03 3d
       -0.0019010587 0.011052448 0.04698516 0.03215486
000340 60 8e ca 3a 78 c9 43 3d d5 bd e5 bc 5a 0e 09 bc
       0.0015453808 0.047799557 -0.02804462 -0.008365238
000350 12 6b 79 3d d7 01 74 bd b4 b2 90 bd 24 fc 82 bd
       0.060893126 -0.059572067 -0.07065335 -0.06395748
000360 83 b4 b1 3b e4 cd 06 3d 89 4a 05 bd 2e 27 53 bc
       0.00542313 0.032911196 -0.032541785 -0.012887759
000370 f1 fb 1a 3d e7 50 9c 3b cf 6e 29 bb 68 53 ed 3c
       0.037837926 0.0047703865 -0.00258534 0.028970435
000380 ec b4 42 3d 6a 60 97 bd b8 c4 c5 bd 7a e7 1e bc
       0.04753582 -0.073914364 -0.09656662 -0.009698743
000390 c0 04 87 bb 28 c3 c3 3b 21 7b 6c bb 69 98 18 bd
       -0.0041204393 0.005974192 -0.0036084133 -0.037254725
0003a0 52 cc 89 3c 8b ab 27 bc 87 4c 72 bd 5e 88 8a bc
       0.01682106 -0.01023377 -0.059155013 -0.016910728
0003b0 b4 6e 36 bd 5e 67 0b 3d 32 27 c7 bc 56 e0 96 bc
       -0.04453917 0.034034126 -0.024310682 -0.018417519
0003c0 75 0c 6f bc 88 eb 44 bc 66 44 8a 3c c4 30 42 bd
       -0.014590372 -0.012019046 0.016878318 -0.047409788
0003d0 fa ad df bc f3 fa c7 bc 55 c1 c6 bc 32 a4 2e bd
       -0.027304638 -0.024411654 -0.02426211 -0.042637058
0003e0 46 f3 9f 3c d7 24 0c 3c 33 6d 22 3d 13 26 f5 3b
       0.019525182 0.008553705 0.03965492 0.0074813454
0003f0 37 36 01 3e 57 eb 05 3d 3b 03 67 3d ca a4 eb 3b
       0.12618338 0.03269514 0.056399565 0.0071912752

5.bias f4 [64]
000000 bf 92 4a 3b 6b a8 07 3d a4 23 02 3c 93 01 23 bc
       0.0030910221 0.0331196 0.007943068 -0.009949106
000010 90 ea 22 3d 16 48 66 bd b3 33 24 3d 49 17 1a bd
       0.039774477 -0.05622109 0.040088367 -0.037619863
000020 6a 06 f9 bc 70 df 69 3d 37 ce 89 3d 7e 12 2c 3d
       -0.030398566 0.057097852 0.067287855 0.042009823
000030 0c d1 5b 3d 51 5c 33 bd fd 5a 09 bd c8 d3 68 3c
       0.05366616 -0.04378921 -0.03353404 0.014210649
000040 cf 65 40 bc 3c 2c 45 3d 04 d3 01 bd df 83 8a 3d
       -0.011743023 0.04813789 -0.03169538 0.06763434
000050 d5 96 6c bd 5e 4b c6 3c 5e 44 ba 3c 4b 54 22 bd
       -0.057761032 0.02420586 0.022737678 -0.03963117
000060 ea a9 2d 3d a9 dc ef 3c c1 fc 0a bc 55 25 e2 bc
       0.04239837 0.029280024 -0.008483113 -0.027605692
000070 4e 18 32 3c 21 09 2f 3d 34 8f 22 3c a5 61 8f 3c
       0.0108700525 0.042733315 0.009921838 0.017502615
000080 08 d5 0c 3d 7c d6 c5 3c 6d ae da bc a6 c2 ce bc
       0.03438285 0.024150126 -0.0266945 -0.0252393
000090 6c a6 5c 3c 3f cd dd bb 78 16 27 3d 95 2a 43 3d
       0.013467412 -0.006768852 0.040792912 0.04764803
0000a0 52 8f 42 bc 69 2b ad bc 10 2b 77 3d bb e2 12 bd
       -0.011874991 -0.021138864 0.060343802 -0.03586076
0000b0 2d d6 77 3c e0 c1 57 3c 2c e1 21 3c 29 de c0 3d
       0.015126747 0.013168782 0.009880345 0.09417374
0000c0 00 26 1b bd 37 90 29 bd ea 3f 35 bd 01 60 4d bc
       -0.037878036 -0.0413973 -0.044250406 -0.012535096
0000d0 f3 ea 21 bd de d1 81 bd 06 da fc 3c 42 a3 e8 3c
       -0.039530706 -0.06338857 0.03086568 0.02839816
0000e0 d2 f5 92 3d 27 40 96 bc 13 f7 21 bd 2a 14 20 3c
       0.07175793 -0.018341137 -0.03954227 0.0097704325
0000f0 bd fd 61 3c b1 8f f4 3c bd 60 eb bc 65 db ce 3c
       0.013793406 0.029853674 -0.028732652 0.0252511

6.weight f4 [64]
000000 84 4c 6f 3f ee e0 72 3f 3c 63 68 3f 30 b4 65 3f
       0.9347613 0.94874465 0.9077642 0.8972807
000010 9b 2c 81 3f 28 d1 6c 3f a6 79 74 3f 2c f3 68 3f
       1.0091738 0.9250665 0.9549812 0.9099605
000020 e9 72 79 3f ad 36 71 3f b3 ed 83 3f 69 36 6c 3f
       0.97440964 0.94224054 1.0306915 0.92270523
000030 d8 d1 78 3f 80 ad 7b 3f c4 82 72 3f 22 1b 75 3f
       0.97195196 0.98311615 0.9473078 0.95744526
000040 0e 92 6c 3f 44 e5 6c 3f 6b 2f 76 3f 8e 7e 7e 3f
       0.9241036 0.9253733 0.96166104 0.9941186
000050 43 77 75 3f 82 6a 77 3f bf 62 59 3f 17 d6 73 3f
       0.95885104 0.96646893 0.849163 0.9524855
000060 3d 04 71 3f 4c 5e 74 3f 9e fc 6e 3f 3f 94 72 3f
       0.9414709 0.95456386 0.93354213 0.94757456
000070 32 7b 5c 3f 88 40 5a 3f 96 d2 71 3f ca 73 82 3f
       0.8612548 0.85254717 0.94461954 1.0191586
000080 a6 12 77 3f ce 70 7e 3f 20 19 73 3f 9f 45 78 3f
       0.9651283 0.99390876 0.9496021 0.96981233
000090 ae 7a 69 3f 8c 45 72 3f 82 6d 73 3f 3a db 78 3f
       0.9120282 0.9463737 0.9508897 0.97209513
0000a0 0f fd 75 3f 93 62 70 3f 94 9e 62 3f ab cb 76 3f
       0.9608926 0.9390041 0.8852322 0.9640452
0000b0 4e 2e 7a 3f ca d5 6c 3f cb 02 6a 3f 14 b8 7c 3f
       0.97726905 0.92513716 0.9141051 0.9871838
0000c0 42 f6 68 3f db bb 69 3f 04 5a 62 3f 4e b9 6f 3f
       0.9100076 0.9130227 0.884186 0.9364213
0000d0 08 50 79 3f ae a0 78 3f a0 33 6c 3f d1 88 7a 3f
       0.97387743 0.9712018 0.92266273 0.97865015
0000e0 dd e9 70 3f db ef 6f 3f 25 fd 75 3f d0 7f 72 3f
       0.9410685 0.93725365 0.9608939 0.94726276
0000f0 42 9b 74 3f 30 c4 6f 3f 46 76 7b 3f e5 2f 72 3f
       0.95549405 0.93658733 0.98227346 0.9460433

6.bias f4 [64]
000000 55 24 9b be 2a eb eb be 3e fd f8 be b3 98 ac be
       -0.30301157 -0.46077853 -0.48630708 -0.3371025
000010 ea e4 99 be 54 43 9d be 90 52 88 be 1c 98 29 be
       -0.3005746 -0.3071543 -0.2662549 -0.16561931
000020 b6 84 9b be af 4f 80 be 24 c2 e4 be 58 ca 9b be
       -0.30374688 -0.25060794 -0.44679368 -0.30427814
000030 01 cd 89 be f4 1b a9 be f0 8b b7 be 54 9e 8d be
       -0.26914218 -0.3302914 -0.3584895 -0.27659857
000040 b0 d1 80 be 1d 1b d0 be 00 7a 36 be 18 de 9d be
       -0.2515998 -0.40645686 -0.17819977 -0.30833507
000050 01 de 97 be 69 db de be 00 27 a8 be 3e 96 22 be
       -0.29661563 -0.43526772 -0.32842255 -0.15877625
000060 33 7a 01 bf 6d d2 9b be 17 b8 0b bf cc 42 bf be
       -0.50577086 -0.3043398 -0.54577774 -0.3735565
000070 65 7f 6a be 8f d8 93 be 9b 19 b5 be a0 58 c4 be
       -0.2290016 -0.2887616 -0.35371098 -0.38348866
000080 88 e9 92 be b0 c6 a6 be 21 57 68 be a1 5a a9 be
       -0.28693795 -0.32573462 -0.22689487 -0.33076957
000090 fd fd a7 be af 2d 04 bf 24 fd f6 be 0d b3 b4 be
       -0.32810965 -0.5163221 -0.48240006 -0.35292855
0000a0 47 16 88 be b7 e6 a7 be 2f 87 45 be f4 eb c0 be
       -0.26579496 -0.3279321 -0.1928985 -0.37680018
0000b0 25 49 27 be 39 38 55 be ff 8e 84 be 53 30 8f be
       -0.16336496 -0.20822228 -0.25890347 -0.27966556
0000c0 23 4a d9 be e0 9a 16 be 6e 8b 8c be 3a 2a c5 be
       -0.42439374 -0.14707518 -0.27450126 -0.3850878
0000d0 59 79 96 be db df 93 be 3a 7f 9c be f4 e1 02 bf
       -0.29389456 -0.28881726 -0.30565816 -0.5112603
0000e0 c2 d0 41 be 37 fc 83 be 07 c6 ca be 0d 7e a0 be
       -0.18927291 -0.25778362 -0.39604208 -0.3134617
0000f0 d2 90 89 be f6 05 3f be d8 05 a8 be dc 60 7a be
       -0.26868302 -0.18654618 -0.32816958 -0.24451011

6.running_mean f4 [64]
000000 75 ee 1b bf 51 3e f4 be 3d 74 e9 bd 6f 8e 2b be
       -0.6091073 -0.47703794 -0.11399124 -0.16753553
000010 88 56 15 bf a0 95 d3 be 47 42 e3 be 22 2f 3c 3e
       -0.5833516 -0.41325092 -0.44386503 0.18377355
000020 ca 41 34 bf cc 91 db be ec 79 06 bf b3 b7 cb be
       -0.70412886 -0.42884672 -0.5252979 -0.3978859
000030 6a 9d 17 be 03 5b 02 bf 5d 5d 3e bf 76 da cb be
       -0.14806142 -0.5092012 -0.7436121 -0.3981511
000040 bb 48 27 bf e7 f7 e7 be 55 38 89 bf 46 0a 14 bf
       -0.6534535 -0.45306322 -1.0720316 -0.57828176
000050 57 ed 73 bf 73 a2 d3 be 1b aa 93 3d 7a b5 05 bf
       -0.95284027 -0.41334876 0.072101794 -0.52230036
000060 d4 0b 2b bf b0 e5 16 bf 16 c4 82 be 2a 9a 6e be
       -0.66814923 -0.58944225 -0.25540227 -0.23300996
000070 b1 97 64 3d 44 f2 3b 3b eb ac 25 bf 46 ad af be
       0.055808727 0.0028678337 -0.64716977 -0.34311885
000080 2c 55 15 bf 01 a7 86 bf 7e bc 09 bf 9d 6a 98 be
       -0.58333087 -1.0519716 -0.5380324 -0.2976884
000090 a2 cb 27 be b9 44 a8 be b3 5f cd be 01 b7 a2 be
       -0.16386274 -0.3286493 -0.40112075 -0.31780246
0000a0 92 44 cd be b5 12 96 be 28 f1 89 3b 9e c9 ff be
       -0.40091377 -0.29311147 0.0042096563 -0.4995851
0000b0 ee de e5 be 20 22 a2 be d2 c0 36 bf 64 49 35 bf
       -0.44896644 -0.3166666 -0.7138797 -0.7081511
0000c0 60 a0 3f be 24 d4 01 bf 72 32 a1 be 08 66 a4 be
       -0.18713522 -0.50714326 -0.314838 -0.32109094
0000d0 7a fb 9c be 6b 76 08 bf e8 8c 32 be 00 87 fb be
       -0.3066061 -0.5330569 -0.17436564 -0.49126434
0000e0 de e7 41 bf eb 7e 1b bf 6b 1b b8 be 59 f5 48 bf
       -0.75744426 -0.60740536 -0.35958418 -0.7849937
0000f0 b2 aa 1c bf ef 73 93 be b6 02 56 bf cc 42 07 bf
       -0.6119796 -0.28799388 -0.83597887 -0.528363

6.running_var f4 [64]
000000 a0 69 ec 3e f7 e8 3b 3f 3d 8c 75 3e 41 9c d6 3e
       0.46174335 0.7340235 0.23979278 0.41916087
000010 21 c0 20 3f db 18 a3 3e dc b6 d4 3e cb d9 db 3e
       0.62793165 0.318549 0.4154576 0.429396
000020 6b c6 25 3f f8 a6 e5 3e 49 ba 30 3f f6 0c ef 3e
       0.64755887 0.4485395 0.6903425 0.46689576
000030 a1 64 ba 3e 8a 75 80 3e 2f d1 3f 3f 41 68 94 3e
       0.364049 0.25089675 0.74928564 0.2898579
000040 d6 91 08 3f ee bb 08 3f 9a 9f 49 3f 7a 3a f5 3e
       0.5334753 0.5341176 0.7875916 0.47896177
000050 7d c6 0e 3f c7 0f f6 3e bc d6 c2 3e 48 bf ce 3e
       0.5577162 0.48058912 0.38054454 0.4038031
000060 8b 14 1b 3f 6e 34 ae 3e 03 08 dd 3e 74 3a e4 3e
       0.6057822 0.34024376 0.43170175 0.44575846
000070 56 e8 ea 3e f7 8a de 3e b6 ad 40 3f 12 b9 d8 3e
       0.45880383 0.43465397 0.7526506 0.42328697
000080 cc 92 05 3f 53 08 86 3f 39 d6 db 3e 64 f8 46 3e
       0.5217712 1.047129 0.42936876 0.19430691
000090 d3 f3 70 3e f6 45 9c 3e 17 c8 c3 3e dc 5a 97 3e
       0.23530512 0.30522126 0.38238594 0.29561508
0000a0 6f dd e1 3e 4d c1 8b 3e 8d 12 ed 3e 1c 83 0b 3f
       0.44114253 0.27295914 0.46303216 0.5449693
0000b0 d3 27 c6 3e ad bd 77 3e 16 89 b0 3e 21 4e ed 3e
       0.38702258 0.2419345 0.34479588 0.4634867
0000c0 a0 2c 9c 3e 32 28 d1 3e 4f 57 a6 3e 26 6c 04 3f
       0.30502796 0.4085098 0.32488486 0.5172752
0000d0 1b 35 a7 3e 71 cf e4 3e 81 2a c8 3e aa bc dd 3e
       0.32657704 0.44689515 0.39094928 0.43308002
0000e0 36 7e 00 3f 9f 1d d7 3e a3 90 ac 3e 19 f6 de 3e
       0.5019258 0.42014787 0.337041 0.43547133
0000f0 95 b0 17 3f 2f f9 c4 3e c3 81 1c 3f b5 02 3b 3f
       0.5925382 0.38471362 0.611355 0.73051006

10.weight f4 [64, 64, 3, 3]
000000 ae 68 3e bd a5 76 d4 bd fa 24 df bd 31 44 e9 3b
       -0.04648655 -0.10374192 -0.108957246 0.0071187248
000010 dc 0e 37 bd 2e 31 4d bd 3f 0d 16 3d 79 ac 8c bc
       -0.044691905 -0.05009573 0.036633726 -0.017172085
000020 ed 78 04 bd 9a 9a ac 3d 8b b4 d5 3d d3 a8 f3 3d
       -0.032341886 0.084279254 0.104348265 0.11897435
000030 4c 04 a8 bb 4a c5 37 3d 37 80 77 3d 42 dd c1 bd
       -0.0051274654 0.044865884 0.06042501 -0.0946603
000040 dd 97 61 bd fe f9 97 bd 62 bc 1a bd bc 16 12 bd
       -0.05507647 -0.07420729 -0.037777312 -0.035666212
000050 31 6d 75 bd 23 3e 62 bd 65 2a 18 bd d5 20 89 bd
       -0.059918586 -0.05523504 -0.037149806 -0.06695715
000060 85 6b b2 bd f4 2f fc bc ae ae cd bd ce 43 91 3d
       -0.08711914 -0.030784585 -0.10043083 0.07093011
000070 64 19 d5 3c 5b b6 87 bc d5 01 2a 3d 74 35 3b 3d
       0.026013084 -0.016566446 0.041505653 0.045705274
000080 96 67 91 3c 34 3b 22 bd 90 db 07 bd e2 d5 89 bd
       0.017749589 -0.03960724 -0.033168375 -0.06730248
000090 df 7e cd 3c a2 ce a4 3a f6 6f 2c 3d b0 a9 b4 bc
       0.02508491 0.0012573788 0.04209896 -0.02205357
0000a0 48 f9 ff bc 54 ee a8 3c 84 af 52 3d 34 e7 e7 bc
       -0.031246796 0.020621456 0.051436916 -0.028308488
0000b0 e9 87 4e 3d f0 99 84 bd 63 88 07 bd ca 52 b6 bd
       0.050422583 -0.06474674 -0.033089053 -0.089025095
0000c0 56 94 ce bc f0 3d bd bc e7 47 62 bd 27 02 cc bb
       -0.025217216 -0.023100823 -0.055244353 -0.0062258425
0000d0 f7 99 5c 3d 44 2f 8b 3b be f1 c2 3d 93 a4 6a 3d
       0.05385777 0.004247578 0.09518765 0.057285856
0000e0 79 f0 07 3d e6 5e a5 3d 91 e8 05 3d 50 ef e3 ba
       0.033188317 0.08074741 0.032692496 -0.0017390046
0000f0 5c 7c 31 3d 83 e3 2d 3d 6a 47 67 bc 1c f5 02 bd
       0.04333149 0.0424533 -0.0141161475 -0.031972036
000100 c5 bb 31 bd 75 01 54 bd 09 9d d7 bc fb e8 63 bd
       -0.04339196 -0.051759202 -0.026319997 -0.05564211
000110 69 70 45 bd 68 7c c0 3c 4a cc dd 3c da c3 52 3d
       -0.048202906 0.023496822 0.027074952 0.05145631
000120 ec 47 84 bb 0a c3 88 3d 5f b2 43 bc 62 d2 a8 bd
       -0.004036894 0.06677826 -0.011944382 -0.08243252
000130 06 ae f7 bc 2c 88 75 bd b4 f5 d3 bb d8 38 16 bb
       -0.030234348 -0.059944317 -0.006468499 -0.0022922065
000140 95 b9 b8 bb 2e ea 1d bd 58 71 9d bb de 41 f3 3c
       -0.0056373575 -0.03855341 -0.0048047714 0.029694494
000150 89 19 29 bb 51 cd 01 3a 0a 90 25 3d 49 96 f2 bb
       -0.0025802574 0.0004951554 0.04042057 -0.0074031693
000160 14 1e c2 bc 16 aa 3f 3d 5e 18 07 3e de a2 2f 3d
       -0.023695983 0.046793066 0.13192889 0.04287993
000170 30 76 ff 3c 61 7b e3 3d 7b 6b 9b 3d 90 50 19 3d
       0.031184286 0.11107517 0.0758886 0.037430346
000180 c3 59 a0 3d 18 c7 3a 3d a4 90 49 3d 1e 22 f4 3c
       0.07829621 0.045600027 0.049210206 0.029801425
000190 75 f9 d1 3d 07 bf 83 3d 16 f6 0a 3c 61 f3 3b 3d
       0.10252658 0.0643292 0.008481523 0.0458864
0001a0 e8 71 e4 3c b9 6c a4 3b 17 2f 90 3d 31 eb bf bb
       0.027886346 0.0050178436 0.07040232 -0.0058568944
0001b0 5e c6 14 3d 5e a9 d3 3c 9c bb f8 3d f5 84 3b bc
       0.03632199 0.025837597 0.12145159 -0.011445274
0001c0 31 fb 57 3b dc 0d 59 3d 52 7e be bb 22 83 9b bb
       0.0032956118 0.052991733 -0.0058133984 -0.004745857
0001d0 84 45 93 3d f3 e1 c9 3d 05 bc 59 3c 18 ae 36 3c
       0.071909934 0.098575495 0.013289456 0.011149906
0001e0 9f 88 56 3d 30 84 57 bc 26 67 63 38 c7 df 31 3c
       0.052376386 -0.013154075 5.4217082e-05 0.010856575
0001f0 a2 f5 d6 bc cf 88 ad bc 22 92 85 3c 01 44 5c bc
       -0.026240174 -0.0211834 0.016305033 -0.013443948
000200 85 8c d3 3c 6c 0c 80 bc ae 78 29 bd 35 4b a5 bc
       0.02582384 -0.015630923 -0.041374855 -0.020177463
000210 c0 96 8b 3c bc 26 19 bd c4 60 d5 ba 10 ca 04 3e
       0.017039657 -0.037390456 -0.0016279449 0.12967706
000220 1a 91 a3 3d 7f 8b c7 3d 2c ad b2 3d 76 e3 68 3d
       0.0798666 0.09743404 0.08724436 0.05685755
000230 94 04 2c 3d 39 9d 56 3d 34 8c 02 3d 2c 89 85 3d
       0.041996554 0.052396033 0.03187199 0.06520304
000240 9c a5 4d bd 1a 05 3b bd 06 f8 16 bd ea 43 51 bd
       -0.050206766 -0.045659162 -0.036857627 -0.05109016
000250 ee b7 51 bd ac cf bb bc 11 e7 6a 3c 36 3e e3 ba
       -0.0512008 -0.022926174 0.014337317 -0.0017337266
000260 8b fe a3 bb 6d a3 96 3d f6 8e 89 3d 97 c8 ec 3d
       -0.005004709 0.0735539 0.06716721 0.11561697
000270 13 79 d1 3c fe fe 50 3c 6c 4d 30 3d 8e 3d 92 bd
       0.025570428 0.012756107 0.043042585 -0.07140647
000280 c0 18 92 bd 30 2d 4d bd 85 6c d0 bc 95 63 50 bd
       -0.07133627 -0.050091922 -0.025442371 -0.05087622
000290 d3 24 2c bc 7b 1b 15 bd 86 ba 5b bd 0d fa 05 bc
       -0.010506826 -0.03640316 -0.05364468 -0.0081772925
0002a0 df 1c d4 b9 da c0 54 bd c8 a7 d9 3b 18 28 8e 3b
       -0.00040457302 -0.05194173 0.0066423155 0.0043382756
0002b0 a5 e1 56 bd 17 ec 42 3d 1b 8a 83 bb e5 5f 57 bd
       -0.052461285 0.047588434 -0.004014266 -0.052581687
0002c0 46 56 92 bc 27 14 de bc 0d a5 cb bd 38 9b 56 bc
       -0.017863404 -0.027109219 -0.0994359 -0.0130985305
0002d0 c4 3c 41 3d 9d 2d 97 3c 80 96 b2 3c d4 83 b4 3c
       0.04717709 0.018454367 0.02180028 0.022035517
0002e0 14 ca 25 3c 2a 50 bb bc 97 dc 5b bd 57 77 00 bd
       0.01011898 -0.022865374 -0.053677168 -0.03136381
0002f0 bf c9 a6 bd 20 28 64 3d e8 eb 74 3d 38 25 e2 3c
       -0.08143949 0.05570233 0.05979529 0.027605638
000300 10 47 8f 3c 8a b2 76 3c da b5 99 bc 1a 21 ba b9
       0.01748994 0.0150572155 -0.018763471 -0.00035501347
000310 5a f2 1f 3d 72 a3 83 3c a6 38 d1 bb 40 ff e9 bb
       0.039049484 0.016069148 -0.006384927 -0.007141024
000320 d1 32 9d bc 32 68 08 3c 73 8b 14 3d e7 69 6a bb
       -0.01918927 0.008325623 0.0362658 -0.003576869
000330 a4 ac 4b 3d 98 c2 e1 3c 9b c3 25 3d 45 49 41 bb
       0.04972519 0.02755861 0.040469747 -0.0029493135
000340 dc ec 64 bd 69 9e 17 bd 0b a6 0f bd bf 6d 4e bd
       -0.05588995 -0.037016306 -0.03507046 -0.05039763
000350 8f 35 bf bc 17 bf ca bc bf d8 1e bd dd 2d 08 bc
       -0.023340968 -0.024749322 -0.038780924 -0.008311716
000360 f4 31 74 bd d3 4c f3 bc 45 40 6e bd 46 b8 07 bd
       -0.05961795 -0.029699719 -0.05816676 -0.03313472
000370 7b ef 0c bd 75 92 70 bd c9 f8 c3 bd b2 94 c5 bd
       -0.034408074 -0.058733422 -0.095689364 -0.09647502
000380 d0 b7 ed bd 03 27 5d bd 34 40 26 bd 86 4f cd bc
       -0.11607325 -0.053992283 -0.040588573 -0.025062334
000390 54 8d 17 bd 7e b8 03 3c 9b 2f e1 3c bb 42 31 3c
       -0.037000015 0.008039592 0.02748852 0.010819132
0003a0 1a 75 49 3d 3f 74 91 3d 7c ac 9d 3c 29 e6 8a 3c
       0.049183942 0.0710225 0.019247286 0.016955452
0003b0 2b cc c2 bd 30 de c8 bd 0a 34 70 bd 18 09 2a be
       -0.09511598 -0.09808004 -0.05864338 -0.16605031
0003c0 2d ae 1b be 69 95 b1 bd c7 c0 31 be af 3f c6 bc
       -0.15203162 -0.08671076 -0.17358695 -0.024200289
0003d0 d9 c9 fa bc 3e 68 1c 3d 10 36 5d bd 36 f5 a8 bc
       -0.030613827 0.03818535 -0.054006636 -0.020624738
0003e0 45 fc dd bc 75 bf 76 bc 2b 7a 74 bc 0e d1 d8 bc
       -0.02709783 -0.015060295 -0.014921705 -0.026466873
0003f0 cf a3 33 3c 80 17 e7 3b 7e bd ff bb 4c 5a ec 3b
       0.010964348 0.007052362 -0.0078045717 0.0072129127

10.bias f4 [64]
000000 17 e5 e7 3c ee 47 4a bd 4d ef 5d 3c 23 a3 dc 3c
       0.02830748 -0.049385004 0.013545823 0.026933258
000010 31 3d 91 bb ee b6 8e 3c f8 5a d3 3b fc 3f 14 bd
       -0.0044323434 0.017421212 0.0064500533 -0.036193833
000020 36 c5 e8 3c f8 32 8e 3b 13 00 ed bc f9 9d 26 3d
       0.02841435 0.004339572 -0.0289307 0.040678
000030 2e ae b9 3c 87 9a f4 bc cd 6a 40 bc 90 c0 c4 ba
       0.022666063 -0.02985884 -0.011744213 -0.0015011001
000040 b9 09 b6 3c 7a 92 5b 3a 32 b7 ea 3c 01 47 1c 3d
       0.022221433 0.0008376014 0.028651807 0.038153652
000050 86 72 13 bb 93 b2 27 3c 1c 81 55 3c ac 67 1e 3d
       -0.0022498681 0.0102354465 0.01303127 0.038673088
000060 4e 55 09 bb c5 e2 b9 3c 92 2a cd 3c e8 4b 29 3d
       -0.0020955387 0.02269114 0.025044713 0.041332155
000070 91 58 03 3d 6c 18 3e 3c db 2e 0e 3d 74 30 a3 3c
       0.032066885 0.011602502 0.034712654 0.019920565
000080 6a 52 83 bb af 66 db 3c 6a a6 31 3c d7 1e 83 bc
       -0.0040076273 0.026782362 0.010842899 -0.016005917
000090 89 08 b0 3b dc 4e 7f 3c 8e 60 bf bc bf 2a 25 3d
       0.005372111 0.015582766 -0.02336147 0.04032397
0000a0 9d ed 35 bd 60 76 0b bc 51 a9 2f 3d 5f 43 97 bc
       -0.04441606 -0.0085121095 0.042886082 -0.018464742
0000b0 26 99 d0 3c db e9 10 3d d9 20 1e 3c 63 62 60 3a
       0.025463652 0.035379272 0.009651386 0.00085595826
0000c0 c7 c7 c4 3b 8b b2 24 3c 03 19 8f bb 28 f5 8e 3b
       0.0060052606 0.010052334 -0.0043669953 0.004362721
0000d0 59 1f 7c bc 05 3d 7d 3c e9 b5 f3 3c 81 73 e2 3c
       -0.015388333 0.015456443 0.029749827 0.027642967
0000e0 99 5a 30 3c 15 11 e5 3c 26 c9 82 3c 45 ac 27 3c
       0.010763788 0.027962247 0.015965056 0.010233943
0000f0 6e ac f3 3c c6 57 12 3c cf c7 12 bd 52 9b a4 bc
       0.029745307 0.00893206 -0.035835084 -0.020093594

11.weight f4 [64]
000000 08 cb ac 3f f8 0b a7 3f ac d2 b7 3f 8d 84 ab 3f
       1.349946 1.3050528 1.4361167 1.3399826
000010 69 c3 ad 3f a1 9b ae 3f 37 1f a2 3f 87 8f ba 3f
       1.357526 1.3641244 1.2665776 1.4575051
000020 62 8a a8 3f 78 e7 b1 3f 04 94 af 3f e9 07 a5 3f
       1.3167231 1.3898764 1.3717046 1.2893039
000030 d3 ca a9 3f 18 6b b5 3f a3 dc a6 3f 06 27 a2 3f
       1.3265022 1.4173307 1.3036083 1.2668159
000040 20 ba ba 3f d3 e8 ac 3f 56 f6 ad 3f 12 7a ac 3f
       1.4588051 1.3508552 1.3590801 1.3474753
000050 a0 40 be 3f a4 25 a8 3f 59 d7 a6 3f 59 0e ae 3f
       1.4863472 1.3136487 1.3034469 1.3598129
000060 bb 2b b9 3f 54 70 b1 3f 61 94 a7 3f 40 d9 b0 3f
       1.446647 1.3862405 1.3092157 1.38163
000070 3f a7 c2 3f e1 e4 a6 3f 4f 94 a9 3f 86 e5 ab 3f
       1.520729 1.3038598 1.3248385 1.342942
000080 ff c3 a9 3f 3c 49 b2 3f 85 d2 a8 3f d3 ed ba 3f
       1.3262938 1.3928599 1.3189245 1.4603828
000090 fe 24 aa 3f 12 2f 9f 3f ad 31 ac 3f 73 c3 9d 3f
       1.3292539 1.243624 1.345266 1.2325271
0000a0 f1 7f ae 3f 77 62 b1 3f 17 90 b4 3f ef 98 ab 3f
       1.3632795 1.3858174 1.4106473 1.3406047
0000b0 41 ab a7 3f 0c 68 b9 3f 51 44 ab 3f de f4 b8 3f
       1.3099138 1.4484878 1.3380224 1.4449728
0000c0 77 dc b0 3f b3 cc a5 3f 1a 6f ab 3f dd bf b4 3f
       1.381728 1.2953094 1.339328 1.4121052
0000d0 08 fa ac 3f 2f a1 af 3f 89 f0 b3 3f d7 e5 bc 3f
       1.3513803 1.3721064 1.405778 1.4757642
0000e0 ab 00 ad 3f 25 c8 bb 3f 66 ce b6 3f 06 be bc 3f
       1.3515829 1.4670454 1.4281738 1.474549
0000f0 5a 86 a2 3f 72 b4 a9 3f 9e 71 ad 3f bb 5f b0 3f
       1.2697251 1.3258193 1.3550298 1.3779215

11.bias f4 [64]
000000 8c 17 0e be da df 8e bd 37 9f 0f be c9 dc 32 b9
       -0.1387617 -0.0697629 -0.1402558 -0.00017057652
000010 5f ca 05 be 78 5a 8a be e0 f8 a3 bd 0c 64 d6 bd
       -0.1306548 -0.27022147 -0.080064535 -0.10468301
000020 04 c5 68 be 57 f9 6e be 82 3e 46 be 63 04 8e bd
       -0.22731405 -0.23337303 -0.19359782 -0.069344305
000030 b9 54 4a be 03 f0 0d be bb ef 8f be 7c 18 8e bd
       -0.19758882 -0.13861088 -0.28112587 -0.06938264
000040 64 d1 86 be 4a 1c 2a be 9c 88 af bd 34 d3 63 bd
       -0.26331627 -0.16612354 -0.08570978 -0.05562134
000050 20 6b 35 3d 28 82 05 be b5 38 51 be a4 8e 81 be
       0.044291615 -0.13037932 -0.20431788 -0.2530414
000060 e0 1c a5 bb 9d e5 af bd 67 33 f8 bd 74 69 f1 bd
       -0.0050388426 -0.08588717 -0.12119179 -0.11787692
000070 c6 c2 05 3c f8 59 39 be f9 9a 06 be 71 13 b5 bd
       0.008164113 -0.18100727 -0.13145055 -0.08841599
000080 7e ad b4 bb 63 5f 77 be a8 0a 4a bd 7a 29 82 bd
       -0.005513846 -0.24157481 -0.04932657 -0.06355567
000090 09 3d 12 be 95 7c b3 bd 84 a6 02 be e4 f0 a7 bd
       -0.14281096 -0.087639965 -0.12758833 -0.08200243
0000a0 0c d5 a4 be 56 74 3f be 76 c7 de bd 7c 9f 7a be
       -0.32193792 -0.18696722 -0.10877888 -0.24474901
0000b0 ac 16 3d be 45 51 19 be 12 1b cf bd b9 c9 22 be
       -0.1846568 -0.14972408 -0.10112585 -0.15897264
0000c0 c0 d0 f8 bd 84 8f 53 be a6 ad 81 be fe 81 d0 bc
       -0.12149191 -0.20660216 -0.25327796 -0.02545261
0000d0 74 4e 40 be f6 9c b4 bd 6d ad 83 bd bc cb f2 bc
       -0.18779927 -0.088190004 -0.06429563 -0.029638164
0000e0 ed e3 41 be fe 17 44 be dd c3 77 be 9b 08 14 be
       -0.18934603 -0.19149777 -0.2419581 -0.14456408
0000f0 43 10 93 bc 5c 4f 4c be ea 9b 24 be d8 58 44 be
       -0.01795209 -0.19952148 -0.16075101 -0.19174516

11.running_mean f4 [64]
000000 4c a8 9e be 80 87 21 bf 98 53 45 bf bd d8 90 3e
       -0.30987775 -0.6309738 -0.7708068 0.28290358
000010 30 0d 29 bf 13 28 7d be 33 65 a2 be ae 0c b1 be
       -0.6603575 -0.24722318 -0.31717834 -0.34579986
000020 3d 9c 8e be f6 3c bb be 9f 4f c4 be 76 29 8a be
       -0.27853575 -0.36569947 -0.38341996 -0.26984757
000030 10 6b e8 be b7 c4 fe be 12 3d c5 be 0b 41 0d 3c
       -0.45394182 -0.49759457 -0.38523155 0.0086214645
000040 07 1a 0d be 8f ea 2a bf 4b f2 26 be 4a 10 03 be
       -0.1377946 -0.6676416 -0.16303365 -0.12799183
000050 50 cf c1 be 6c b8 b9 be eb d5 93 be 2c f6 85 bd
       -0.3785348 -0.36273515 -0.28874144 -0.06541094
000060 0a 35 25 3f c7 f1 22 bf bf 6a e5 bd 21 9f 8d be
       0.64534056 -0.6365017 -0.11202001 -0.27660468
000070 37 c6 76 be 92 7e 33 bd 92 f9 c8 be 53 19 35 bf
       -0.2409905 -0.04382188 -0.39252907 -0.70741767
000080 13 26 19 bf bf 18 9f bd c7 c0 8c be b5 7a 9f be
       -0.5982372 -0.07768392 -0.27490827 -0.31148306
000090 e2 1a 8f be ac 5f 0a 3d a8 3e 1d bf 84 ca cc be
       -0.27950197 0.033782646 -0.6142373 -0.39998257
0000a0 4a c3 b4 bd be 75 89 be 15 43 e4 bd 3d fb d3 be
       -0.08826311 -0.26847643 -0.111456074 -0.41402617
0000b0 5d 5a a2 be 52 1f 2e bf 5f 1b 38 bf 29 33 29 3d
       -0.31709567 -0.6801654 -0.71916765 0.041308556
0000c0 95 1a 79 be cc b8 c8 be ac 51 04 bf 95 fb f6 be
       -0.24326546 -0.3920349 -0.5168712 -0.48238817
0000d0 3b 11 08 bf 1e 5a c4 be 05 d4 ea 3e 3b 73 61 3e
       -0.5315129 -0.38350004 0.45864883 0.22016613
0000e0 73 39 25 be 44 60 52 be ac f1 83 be b6 07 46 be
       -0.16135196 -0.20544535 -0.25770319 -0.19338879
0000f0 dc ee d7 be 07 ab e3 bc a2 c1 5f bf f5 a8 4f be
       -0.42174423 -0.027791513 -0.87404835 -0.20279296

11.running_var f4 [64]
000000 fe 3f 36 3e b1 ec 4d 3e 3d bf 8c 3e 00 60 14 3e
       0.17797849 0.20109822 0.27489653 0.14489746
000010 b4 62 36 3e ad ec 0d 3e 78 2d 30 3e 20 c4 4d 3e
       0.1781109 0.13859816 0.17204845 0.20094347
000020 ad 8d 3e 3e 3f 1d 47 3e cc f1 6d 3e c4 16 2f 3e
       0.18608733 0.1944475 0.2323677 0.17098528
000030 93 f4 7d 3e 49 ba 25 3e bb 82 23 3e be 19 62 3e
       0.24800329 0.16184343 0.15967838 0.22080132
000040 de 37 26 3e 47 83 34 3e 7c a7 2c 3e 6f 58 4e 3e
       0.16232249 0.17628203 0.16860765 0.20150922
000050 be db 44 3e 5e 62 2f 3e 25 5a 21 3e d6 03 49 3e
       0.1922445 0.17127368 0.15757044 0.1963037
000060 bf c7 52 3e 03 15 4c 3e a6 3e 2a 3e 3d da 58 3e
       0.2058401 0.1992989 0.16625461 0.21177001
000070 4b 86 6d 3e 82 9f 17 3e 9b d3 13 3e bb 2b 67 3e
       0.2319576 0.14806941 0.1443619 0.22575276
000080 c1 0f 82 3e f5 40 3f 3e 04 5d 3c 3e a5 be 1e 3e
       0.25402644 0.18677123 0.18394858 0.15502413
000090 9c ec 89 3e 38 0c 81 3e e4 c6 5f 3e c8 05 7d 3e
       0.2693833 0.25204635 0.21853215 0.24709237
0000a0 08 b4 21 3e 42 3c 87 3e cb eb 61 3e a1 c2 2c 3e
       0.15791333 0.2641316 0.22062604 0.1687112
0000b0 12 ae 1e 3e bc 4e 6d 3e 68 fc 4c 3e 31 c4 34 3e
       0.1549609 0.23174566 0.2001816 0.17652966
0000c0 49 5f 69 3e 26 fc 3e 3e 1a e5 56 3e 18 53 3a 3e
       0.22790255 0.18650874 0.20985833 0.1819576
0000d0 fe 53 53 3e 72 b0 5a 3e 60 8f 2c 3e 4c 08 5c 3e
       0.20637509 0.21356371 0.16851568 0.2148754
0000e0 da cd 1e 3e 37 0f 4e 3e 1a a5 33 3e ca e6 41 3e
       0.15508214 0.20122992 0.1754345 0.18935695
0000f0 58 a6 90 3e b0 7d 16 3e 1e 93 52 3e 16 0f 3e 3e
       0.2825191 0.14696383 0.20563933 0.18560442

16.weight f4 [32, 64]
000000 5a cd 4e 3d f7 0a 04 be 33 89 0f bc 78 cb 82 3d
       0.050488807 -0.12894808 -0.008760738 0.06386465
000010 85 1c a3 bd 59 51 d6 bd 1e 89 64 3d 0f ae 3b 3d
       -0.07964424 -0.104647346 0.055794828 0.045820292
000020 49 d1 8d bd 9c 4c 70 3d cc f0 99 bd 23 e8 d6 bd
       -0.069246836 0.05866681 -0.075166315 -0.10493495
000030 08 d6 10 3d 1e 3e aa 3d 07 42 0d be e4 8f f3 bd
       0.035360366 0.08312629 -0.13794719 -0.11892679
000040 e0 58 5d bd a0 9d 0e be b1 a6 70 3d 59 51 0a bd
       -0.054039836 -0.13927317 0.05875272 -0.033768985
000050 e1 cd 3f bc 2d fe 82 3d 38 06 6f bd a8 fc 6d bd
       -0.0117068 0.063961364 -0.05835554 -0.05810228
000060 04 98 2f bd 6c 4e c8 bd 6a 72 4a 3d ea e2 0e be
       -0.042869583 -0.09780583 0.04942552 -0.13953748
000070 02 c4 ad bc c2 4f 9a bd 1e 85 98 3d 9f 1d 0f be
       -0.021211628 -0.07534744 0.07447265 -0.13976143
000080 b9 01 f9 ba 3d cd 8e bc 38 00 35 3d 5d 52 da bd
       -0.0018997706 -0.01743185 0.04418966 -0.10660241
000090 d8 fa 8e bd e5 a5 fd 3c 39 eb 99 bd 12 c7 11 be
       -0.069814384 0.030962894 -0.07515568 -0.14236096
0000a0 70 0b 6f bd 79 0b 62 bd 8c 2c 4f 3d 8a af b2 bc
       -0.058360517 -0.055186722 0.050579593 -0.02181222
0000b0 d6 c2 f8 bd c5 48 84 bc 50 fa 68 bd 80 14 e4 bd
       -0.12146537 -0.01614798 -0.05687934 -0.111367226
0000c0 82 7f 35 3d b4 a1 41 bd 26 3c 7a bc 49 4c 1b bd
       0.044311054 -0.047273353 -0.01527313 -0.037914548
0000d0 d0 b0 ab bd ef b1 4f bd c2 e2 0e be 36 eb 9d 3d
       -0.08383334 -0.0507068 -0.13953689 0.077108786
0000e0 11 15 e6 bd a7 33 b8 bd 24 00 02 be 52 be b4 3d
       -0.11234487 -0.08994227 -0.12695366 0.08825363
0000f0 f1 55 0d 3d e0 81 92 bd a7 e3 d7 bc 0d 02 9c bc
       0.03450579 -0.07153678 -0.02635367 -0.019043947
000100 75 a5 e9 3b 72 eb 25 3e 7c e0 21 be 22 21 a6 3e
       0.0071303197 0.16203097 -0.1580829 0.32447153
000110 2c 46 e0 bd 77 a7 26 bd 2d 27 84 be 63 8d b5 bd
       -0.10950884 -0.04068705 -0.2581114 -0.08864858
000120 a8 6e 9f 3d 57 28 1c be 28 2c 2a be 54 c2 14 be
       0.07784778 -0.15249763 -0.16618407 -0.14527255
000130 79 f5 40 be 17 de 67 bd 74 98 ef bd 63 77 56 bd
       -0.1884364 -0.056608286 -0.11699 -0.05235995
000140 be a7 d5 3e 28 23 6a be c2 f9 4f be 49 f6 a5 3e
       0.4172954 -0.22864974 -0.20310119 0.32414463
000150 aa ad 9f bd d7 4f 96 3e 47 9f e5 3d a5 6f e8 bd
       -0.07796796 0.29357788 0.1121202 -0.113494195
000160 a1 8c c7 3e 11 0a 2c be 38 78 17 be b2 be a7 bd
       0.3897448 -0.16800715 -0.14791954 -0.08190669
000170 e7 1b 67 bd c9 c5 b5 bd 73 88 e1 bd 60 16 27 be
       -0.056423094 -0.08875615 -0.11012354 -0.16317129
000180 af 55 c1 3c 4a 1e 46 be bf 84 33 3e da 23 52 3d
       0.023600427 -0.19347492 0.17531107 0.051303722
000190 b0 39 f7 3c 3d 0e 54 3d e6 a1 ca bd 78 ff b6 3d
       0.030178875 0.05177139 -0.09894161 0.089354455
0001a0 9a ba cd bd a1 38 11 3d 21 7b ca 3d 89 e1 11 be
       -0.10045357 0.035454396 0.09886766 -0.14246191
0001b0 a9 2e 2e 3e 06 0d 55 be 9e 77 0c be a8 ee 41 3e
       0.17009987 -0.2080575 -0.13717505 0.18938696
0001c0 82 3f 09 bb f8 ef f7 3d 5c 46 f2 3d 19 e5 2d 3e
       -0.0020942395 0.12106317 0.11829826 0.16981925
0001d0 0d 34 45 be 46 c1 f8 3d 61 22 e0 3e eb 99 c5 3e
       -0.19258137 0.12146239 0.4377623 0.38593993
0001e0 cf 84 31 3e 6f f6 30 3d c4 74 d0 3e 6c b2 94 bc
       0.17335819 0.043203767 0.40714085 -0.018151484
0001f0 a2 53 8d bd 4c 1d 3d 3e ca 9b c6 3d 83 ba 91 3e
       -0.06900717 0.18468207 0.09697683 0.2846261
000200 cd 54 23 3e df 50 43 3e 23 98 13 3e 40 69 9d bd
       0.15950318 0.19073819 0.14413504 -0.076860905
000210 47 9f af bd 01 2c d2 bc d5 21 73 bc 3a 5a 52 be
       -0.085753016 -0.025655748 -0.014839609 -0.20542231
000220 83 9a 29 be d0 05 43 be 63 a5 22 3e ad bd f4 bd
       -0.16562848 -0.19045186 0.15883403 -0.1195024
000230 d6 38 2f 3e 58 c8 92 be 50 ff 9a be c9 48 ba 3c
       0.17111525 -0.28668475 -0.30272913 0.022739785
000240 db f4 97 3d 36 1e 61 be 17 4f 06 bd fb 1f bc 3d
       0.07419749 -0.21984181 -0.03279027 0.09185787
000250 f2 af cd bd 57 d5 83 bc b3 f4 89 3e ed ea a0 be
       -0.100433245 -0.01609294 0.26944503 -0.31429234
000260 e9 fc 80 be b8 32 03 3e e0 36 38 bd 5a 8d 06 3d
       -0.25192955 0.12812316 -0.044974208 0.032849647
000270 0f ac c2 bd 78 da 84 3e 42 8a 08 be d1 42 8a 3e
       -0.09505474 0.25947928 -0.13333991 0.27004102
000280 b9 d2 62 3e af 80 7d 3d 8d 11 c8 3e 45 ad a2 be
       0.22150697 0.0618903 0.3907589 -0.3177282
000290 e2 b9 8f 3e c6 76 94 3d 30 74 37 3e 21 e1 29 3d
       0.28071505 0.07249217 0.17915416 0.041474465
0002a0 cf c3 5b 3e 57 02 a0 3d 37 b4 66 be fa 4b 38 be
       0.21461414 0.07812946 -0.22529684 -0.17997733
0002b0 b7 d5 91 3e 5c 2a ab 3e a7 d2 40 bc f7 8b 77 be
       0.28483364 0.33430755 -0.011768973 -0.24174486
0002c0 a0 a7 ba bc 41 e7 77 be 4a 5f 80 3e 4f 71 43 be
       -0.022785008 -0.2420931 0.250727 -0.19086193
0002d0 c6 b8 25 3e 64 2c f0 bd 68 d3 3c 3e 90 11 4c be
       0.16183767 -0.11727217 0.1844002 -0.19928575
0002e0 d2 b8 27 3e 3d 47 cf bc b2 2d 64 3e 1a f1 38 3e
       0.16379097 -0.025302524 0.22283056 0.18060723
0002f0 ef 80 42 3d 75 d7 8f 3d 49 c7 65 3e 35 d0 2d 3d
       0.047486242 0.07023517 0.22439303 0.04243489
000300 82 76 b8 3c fa 1c 47 bc 89 60 b9 bd 5c e5 92 bd
       0.022517446 -0.012152905 -0.09051616 -0.07172653
000310 93 3a af be 9c a1 c3 3d e7 18 4a be d2 1e 88 3d
       -0.34224376 0.09552309 -0.19736062 0.066465035
000320 42 a7 b2 3e 11 15 0b 3e 63 ad 1b 3e 05 92 be bd
       0.34893233 0.13582255 0.1520286 -0.09305195
000330 60 5d 1e 3e 90 0d 34 3e 27 3f 5a 3e 64 40 98 bd
       0.15465307 0.17583299 0.21313153 -0.074341565
000340 d0 d7 83 3e 6c 28 4f 3e 5d 65 02 3e 8f ce ad bd
       0.2575059 0.20230263 0.1273398 -0.084866636
000350 d2 43 32 be 0a 30 6f be 06 1d ca 3d 89 4b 3a 3e
       -0.17408684 -0.23358169 0.09868817 0.18192877
000360 c5 a7 6d be 8b 12 8d be 82 0a 6b be 3f 56 be bd
       -0.2320853 -0.2755321 -0.22953227 -0.09293794
000370 f3 7e 84 3e a3 f2 a9 be 22 52 ce 3d 94 64 8d bd
       0.25878105 -0.3319293 0.10074259 -0.069039494
000380 62 cb c2 be 17 0e 6b 3c 79 4b ad bd 94 70 72 3e
       -0.38045794 0.014346621 -0.08461661 0.23675758
000390 69 5d 24 bd 34 0c b2 bd a2 5e a6 3e ba e4 d3 3d
       -0.040128145 -0.08693734 0.32494074 0.103463605
0003a0 a8 90 de 3c f9 9a b1 bd d9 db 90 3d 3d 24 ac 3e
       0.027168587 -0.08672137 0.070731826 0.33621398
0003b0 5b 77 76 3e 2d 98 ca 3d 81 b8 8d be dd e4 3a 3c
       0.24068968 0.098923065 -0.27679828 0.011407104
0003c0 9f d2 26 3e 37 05 16 be 55 04 78 bb 1f cd 43 be
       0.16291283 -0.14650427 -0.003784438 -0.19121216
0003d0 77 48 3c 3e 11 1f 45 bd 30 b0 61 3c 80 57 a8 bd
       0.18387018 -0.04812533 0.0137749165 -0.08219814
0003e0 50 7e 32 3e 23 f5 78 3e 38 c3 80 3e 7a 42 e2 bd
       0.17430997 0.24312262 0.2514894 -0.11047836
0003f0 54 b0 82 be 9a dd 18 be 8d 99 42 3e f1 08 47 bd
       -0.25525153 -0.14928284 0.19003887 -0.04859251
